best_hybrid_model.pt (torch, 338690 bytes, 24 tensors)

q_weights f4 [3, 8, 3]
-0.051184792 -0.092383064 0.050759085 0.083345436 0.14575785 0.032689143 0.21182545 0.10134532
0.0044718864 0.021458624 -0.030822387 -0.026532708 -0.042259067 -0.031513046 0.008428748 -0.08888153
-0.017827014 -0.1276146 -0.097161695 -0.057611432 0.13021342 0.09622242 0.045263182 0.02464537
-0.047469266 0.15135215 -0.07286331 0.10896307 -0.16023636 -0.07161596 0.037717562 0.043686267
0.038040053 -0.049529064 -0.00312539 -0.12599373 0.20641267 0.03200917 0.04402618 -0.14119753
0.12479915 0.0851927 0.042829644 0.13455766 -0.06199509 0.0077621215 0.06590672 0.023744715
0.091875374 -0.35746476 -0.1000905 -0.20332325 0.055077918 0.07127526 -0.08419793 0.0013174249
0.019054962 -0.0066715865 0.09166123 0.04356532 0.15703954 0.14807543 -0.09629565 -0.015636746
0.029284874 -0.044488363 0.17948884 0.17383824 -0.06470638 0.026282823 0.022643458 -0.09729964
00000000: 25a7 51bd 5533 bdbd c2e8 4f3d 03b1 aa3d
00000010: 8c41 153e 0de5 053d c5e8 583e 238e cf3d
00000020: e788 923b ffc9 af3c 3b7f fcbc 1f5b d9bc
00000030: d817 2dbd d313 01bd bb18 0a3c 8507 b6bd
00000040: f509 92bc 67ad 02be b6fc c6bd f7f9 6bbd
00000050: ab56 053e 4310 c53d e365 393d 16e5 c93c
00000060: 226f 42bd 0ffc 1a3e 5c39 95bd 0828 df3d
00000070: 0015 24be 63ab 92bd bb7d 1a3d 5ff0 323d
00000080: e3cf 1b3d fdde 4abd 58d3 4cbb 8004 01be
00000090: d85d 533e 0c1c 033d cc54 343d 1696 10be
000000a0: b296 ff3d 8379 ae3d 236e 2f3d 7cc9 093e
000000b0: 90ee 7dbd 6559 fe3b 1afa 863d 4784 c23c
000000c0: 2829 bc3d 9f05 b7be 40fc ccbd f833 50be
000000d0: 6299 613d c3f8 913d f76f acbd 72ad ac3a
000000e0: 2719 9c3c 539d dabb e2b8 bb3d 8d71 323d
000000f0: f9ce 203e 16a1 173e a736 c5bd a218 80bc
00000100: d5e6 ef3c 6e39 36bd eccb 373e a702 323e
00000110: c784 84bd 134f d73c c67e b93c 0945 c7bd

pre_net.0.weight f4 [128, 560]
0.03384986 -0.018656597 -0.022485215 0.03511457 -0.015657976 -0.03862641 -0.0098060155 -0.008604644
-0.029645469 0.034637816 -0.02288926 -0.03763015 0.0063494057 -0.021940319 0.019667756 0.018901162
0.037626173 0.00787617 0.019480657 0.021106802 -0.038435284 -0.02239656 -0.028174309 -0.02359568
0.027598754 -0.026113655 -0.008856012 -0.03665145 0.023742195 0.022081036 0.0054986808 0.015039224
-0.035421833 0.038616642 -0.0045933696 0.009633863 0.028898567 -0.024909262 0.026750226 -0.033353228
0.032759063 -0.025998542 -0.014074103 -0.021984698 -0.03153118 -0.024411313 -0.026777 0.017101249
0.034376055 -0.025875274 0.040004622 0.0054774075 -0.009069642 0.038754594 -0.009522121 0.016631013
-0.023448726 -0.04066827 0.0012853513 -0.016730519 -0.033301026 0.0069508743 -0.004864146 0.021867964
-0.011559674 -0.0022357837 -0.0142006 -0.004629262 0.003604934 0.023393339 -0.026300002 0.016640479
0.03531711 0.036900062 -0.031859044 -0.036213487 0.033289183 0.03026783 0.024381986 0.0048697977
0.007021692 0.04192541 0.019751122 -0.03653237 -0.0124594495 -0.007305092 0.019223467 0.0071776533
-0.03342363 -0.013955585 -0.002717652 -0.021284968 -0.011426981 -0.016921848 -0.04132391 -0.026980687
-0.010748322 -0.035641074 -0.0018672495 -0.035073314 0.033261165 -0.0038016841 0.027992249 -0.023980943
-0.026618872 0.00259251 0.021817897 -0.022098908 0.03737616 0.016093379 -0.03145593 -0.023994716
0.008878498 -0.019788234 -0.029568784 -0.0051844157 0.00048730875 0.029252633 0.009335728 -0.02650562
-0.013094387 0.033053655 -0.0013231629 -0.01895409 -0.021041756 0.03785225 -0.04012091 0.036191873
-0.024922047 0.02776351 0.04067563 -0.012467655 0.0074474323 0.01826992 0.0067178695 0.0022522463
-0.022997148 -0.012773805 -0.010365834 0.026810544 0.033213407 0.03727181 0.013703135 -0.011526859
-0.0037549008 -0.033694364 -0.0346213 -0.004055071 -0.013531749 0.007966946 0.012761096 -0.0027481338
-0.04000277 0.0050479895 0.040153567 0.014928686 -0.01456452 0.028405314 0.01735524 0.030519906
-0.0083907815 0.03417096 -0.016582038 -0.01286382 -0.008741322 0.022880005 -0.00052698416 0.01375338
0.00035974383 -0.0106296735 -0.00631507 0.0045332015 -0.03280366 0.020044792 0.022357218 0.030211156
-0.030139443 -0.017144049 0.03274502 0.030339694 0.0004964115 0.018897515 -0.020120809 -0.0360068
0.006611689 0.0350141 0.02934401 -0.01560398 0.005998951 0.04156246 -0.022792453 0.038425494
-0.00942718 -0.041933887 -0.03910246 -0.014004318 -0.018051928 -0.009940164 0.009189449 0.024750132
-0.0066461554 -0.024166994 -0.041213114 0.017649325 0.009077329 -0.0048665386 -0.019491237 0.016618881
-0.0036878313 0.04004625 -0.003488492 0.034337945 0.023948768 0.020438349 0.006675867 -0.033471
-0.030834896 -0.0047099376 -0.028933952 0.033535644 0.030880496 -0.03328321 0.0068548294 0.008196565
-0.016574169 -0.025903787 0.0031318967 0.007956231 -0.0075945123 0.011008565 0.015240473 0.007415454
0.015994024 0.01691823 0.005368471 -0.034250405 -0.013055548 -0.0342493 -0.030424284 -0.029551046
0.02699861 -0.00540929 0.019297568 0.008144412 0.027535563 0.0062412503 -0.0009595352 -0.03759401
0.032189045 -0.03070913 0.012759791 -0.0340902 0.027507747 -0.041674472 0.026289796 -0.005771855
00000000: 27a6 0a3d b8d5 98bc ea32 b8bc 4cd4 0f3d
00000010: 2845 80bc ba36 1ebd 69a9 20bc 7efa 0cbc
00000020: 0edb f2bc 62e0 0d3d 4282 bbbc 1222 1abd
00000030: ad0e d03b 2fbc b3bc 461e a13c 9cd6 9a3c
00000040: e71d 1a3d 0d0b 013c e695 9f3c 2ce8 ac3c
00000050: 516e 1dbd fe78 b7bc cfcd e6bc ba4b c1bc
00000060: c816 e23c 4eec d5bc ce18 11bc d51f 16bd
00000070: fe7e c23c 4ae3 b43c 472e b43b 1467 763c
00000080: 7c16 11bd 7c2c 1e3d fa83 96bb 5ad7 1d3c
00000090: b0bc ec3c 820e ccbc 4a23 db3c 659d 08bd
000000a0: 5e2e 063d e5fa d4bc 1197 66bc 4119 b4bc
000000b0: d726 01bd 3cfa c7bc 705b dbbc eb17 8c3c
000000c0: e8cd 0c3d 62f8 d3bc e3db 233d d37b b33b
000000d0: d698 14bc 23bd 1e3d ac02 1cbc c33d 883c
000000e0: 8b17 c0bc c693 26bd 3c79 a83a 710e 89bc
000000f0: a866 08bd 29c4 e33b 6a63 9fbb 7224 b33c
00000100: c964 3dbc 3a86 12bb a2a9 68bc 10b1 97bb
00000110: c240 6c3b 63a3 bf3c 1a73 d7bc 9d51 883c
00000120: ada8 103d 8524 173d a17e 02bd 9854 14bd
00000130: 3d5a 083d 3df4 f73c bbbc c73c d392 9f3b
00000140: 3916 e63b fbb9 2b3d 1bcd a13c f7a2 15bd
00000150: b822 4cbc 8e5f efbb 887a 9d3c 8532 eb3b
00000160: 37e7 08bd f7a5 64bc a21a 32bb d05d aebc
00000170: 3b38 3bbc b09f 8abc 4343 29bd 9a06 ddbc
00000180: bb19 30bc 60fc 11bd 7fbe f4ba 09a9 0fbd
00000190: dc3c 083d ad25 79bb 0050 e53c af73 c4bc
000001a0: d20f dabc 1ae7 293b 72bb b23c c508 b5bc
000001b0: bf17 193d 43d6 833c efd7 00bd 9190 c4bc
000001c0: 1f77 113c ef1a a2bc 3c3a f2bc 08e2 a9bb
000001d0: 797d ff39 38a3 ef3c e2f4 183c 5022 d9bc
000001e0: d789 56bc 4563 073d fb6d adba 9c45 9bbc
000001f0: c35f acbc f60a 1b3d d355 24bd ee3d 143d
00000200: 5229 ccbc 4d70 e33c 7d9b 263d 2345 4cbc
00000210: 9709 f43b cdaa 953c 9321 dc3b 6c9a 133b
00000220: 8464 bcbc 3949 51bc 76d5 29bc c9a1 db3c
00000230: c80a 083d 53aa 183d 1d83 603c 27db 3cbc
00000240: c814 76bb 1a03 0abd 10cf 0dbd 67e0 84bb
00000250: 45b4 5dbc cb87 023c ea13 513c 091a 34bb
00000260: f2d9 23bd 9b69 a53b 1178 243d 7397 743c
00000270: 06a0 6ebc 43b2 e83c 942c 8e3c e204 fa3c
00000280: 7d79 09bc d9f6 0b3d 0ed7 87bc c6c2 52bc
00000290: c337 0fbc d96e bb3c 4f25 0aba db55 613c
000002a0: 009c bc39 1528 2ebc a6ee cebb 408b 943b
000002b0: 215d 06bd fa34 a43c 7c26 b73c 637d f73c
000002c0: fee6 f6bc ad71 8cbc a41f 063d f38a f83c
000002d0: 9d21 023a f6ce 9a3c 65d4 a4bc de7b 13bd
000002e0: dea6 d83b f26a 0f3d d962 f03c d6a7 7fbc
000002f0: d992 c43b 663d 2a3d 3db7 babc 0d64 1d3d
00000300: 7574 1abc dec2 2bbd e729 20bd 5e72 65bc
00000310: a3e1 93bc 12dc 22bc 588f 163c cac0 ca3c
00000320: fec7 d9bb dcf9 c5bc 15cf 28bd 5195 903c
00000330: 14b9 143c 7c77 9fbb 16ac 9fbc 5224 883c
00000340: 8baf 71bb 8907 243d 2f9f 64bb f2a5 0c3d
00000350: 3530 c43c 536e a73c 3bc1 da3b e318 09bd
00000360: 7799 fcbc d255 9abb e506 edbc ac5c 093d
00000370: 18f9 fc3c fa53 08bd 7a9e e03b e34a 063c
00000380: 8dc6 87bc 2e34 d4bc 8240 4d3b da5a 023c
00000390: 63db f8bb 455d 343c 2db3 793c 56fd f23b
000003a0: e605 833c 1a98 8a3c 00ea af3b 274a 0cbd
000003b0: f0e6 55bc fe48 0cbd 593c f9bc 0915 f2bc
000003c0: 302c dd3c 6a40 b1bb ef15 9e3c 2470 053c
000003d0: 4392 e13c 6783 cc3b 5189 7bba 2dfc 19bd
000003e0: a9d8 033d b791 fbbc 710e 513c 2aa2 0bbd
000003f0: ed57 e13c dab2 2abd b35d d73c d421 bdbb

pre_net.0.bias f4 [128]
-0.014016227 -0.02716925 0.022250367 -0.034734353 -0.030812494 0.033771843 0.006199686 0.009338273
-0.023435805 -0.0078567555 0.017623397 0.041305244 -0.02612358 0.012334484 0.03450159 0.034664504
0.039857704 0.0071793105 0.0012054262 -0.008578565 0.015573508 -0.008098813 0.0116642425 0.04062781
0.015035607 0.0007687092 -0.01511389 -0.009863559 -0.0136694545 0.04192272 0.0017327328 -0.023254534
0.0040677404 0.009747897 0.037310448 0.036348287 0.0050092866 -0.0109602045 -0.013048143 0.03947173
-0.018951507 0.036641307 -0.02000068 -0.03496829 0.007124115 0.011605632 -0.038859148 -0.025339233
0.041041117 -0.008852812 0.013620792 0.00014753864 0.021373669 -0.024299692 0.0007796859 -0.036251064
-0.029829087 0.017781882 -0.023206038 -0.029644795 0.018557156 0.02271458 0.027575772 0.032028362
0.011913982 0.03531455 -0.0026257324 0.02817026 0.022637872 -0.02390526 0.006088105 -0.039728247
-0.018275559 0.03807719 -0.038447514 0.015161389 0.024764044 0.03751323 0.017818913 -0.02653213
-0.0071100043 0.026902454 -0.039192133 0.0022437833 -0.039087027 -0.0015017175 -0.013623623 0.00789293
0.025060704 0.011166184 -0.005760667 0.038068432 0.024948297 -0.016008768 0.039655212 0.025109623
0.010964748 -0.006487796 0.0037761994 0.027220845 0.0076446054 0.015190879 -0.004156728 0.040399738
0.018048815 -0.03733137 -0.016153391 0.0005778983 -0.00055736036 -0.030624097 -0.029356942 -0.037783857
0.004924923 0.039969712 -0.006128234 0.037506852 0.033645622 -0.001278591 -0.031949803 0.035757557
0.01837782 -0.01130862 -0.032687295 0.01625252 -0.039530125 0.02147872 0.0158384 0.011023612
00000000: 51a4 65bc 0c92 debc 6746 b63c 9c45 0ebd
00000010: 7c6a fcbc 5854 0a3d bc26 cb3b 8eff 183c
00000020: 72fc bfbc 9fb9 00bc f15e 903c b02f 293d
00000030: 1e01 d6bc 9316 4a3c 8a51 0d3d 5efc 0d3d
00000040: d541 233d 6c40 eb3b 64ff 9d3a 1c8d 0cbc
00000050: 0728 7f3c e2b0 04bc 611b 3f3c 5969 263d
00000060: e857 763c 3383 493a 40a0 77bc c49a 21bc
00000070: d9f5 5fbc 28b7 2b3d dd1c e33a 4b80 bebc
00000080: ae4a 853b a5b5 1f3c d7d2 183d f1e1 143d
00000090: f124 a43b 6e92 33bc e1c7 55bc 1cad 213d
000000a0: 3140 9bbc 3215 163d 77d8 a3bc e93a 0fbd
000000b0: 6871 e93b 8c25 3e3c c52a 1fbd 3994 cfbc
000000c0: bb1a 283d 630b 11bc be29 5f3c 9ab4 1a39
000000d0: d517 af3c 2610 c7bc d663 4c3a ff7b 14bd
000000e0: 215c f4bc 4fab 913c 971a bebc a4d9 f2bc
000000f0: 2d05 983c ed13 ba3c 96e6 e13c 2c30 033d
00000100: dd32 433c fda5 103d 7b14 2cbb 51c5 e63c
00000110: 0f73 b93c f7d4 c3bc ba7e c73b 16ba 22bd
00000120: a0b6 95bc d4f6 1b3d 247b 1dbd 7967 783c
00000130: f7dd ca3c 79a7 193d f8f8 913c e959 d9bc
00000140: 0afb e8bb 8962 dc3c ee87 20bd 700c 133b
00000150: b819 20bd 47d5 c4ba 9e35 5fbc 5951 013c
00000160: 1b4c cd3c 5ff2 363c fac3 bcbb a5ed 1b3d
00000170: 5f60 cc3c d224 83bc 816d 223d b2b2 cd3c
00000180: 7da5 333c 9497 d4bb 1d7a 773b 40fe de3c
00000190: 997f fa3b 2ae3 783c 2935 88bb 327a 253d
000001a0: 1cdb 933c c7e8 18bd 1e54 84bc 197e 173a
000001b0: d21b 12ba 63df fabc f87d f0bc 3fc3 1abd
000001c0: 4061 a13b 48b7 233d 5acf c8bb c9a0 193d
000001d0: fecf 093d 6596 a7ba ccdd 02bd 8476 123d
000001e0: 158d 963c ca47 39bc 1de3 05bd 0124 853c
000001f0: 57ea 21bd 24f4 af3c 88bf 813c 619c 343c

pre_net.1.weight f4 [128]
1.0 1.0 1.0 1.0 1.0 1.0 1.0 1.0
1.0 1.0 1.0 1.0 1.0 1.0 1.0 1.0
1.0 1.0 1.0 1.0 1.0 1.0 1.0 1.0
1.0 1.0 1.0 1.0 1.0 1.0 1.0 1.0
1.0 1.0 1.0 1.0 1.0 1.0 1.0 1.0
1.0 1.0 1.0 1.0 1.0 1.0 1.0 1.0
1.0 1.0 1.0 1.0 1.0 1.0 1.0 1.0
1.0 1.0 1.0 1.0 1.0 1.0 1.0 1.0
1.0 1.0 1.0 1.0 1.0 1.0 1.0 1.0
1.0 1.0 1.0 1.0 1.0 1.0 1.0 1.0
1.0 1.0 1.0 1.0 1.0 1.0 1.0 1.0
1.0 1.0 1.0 1.0 1.0 1.0 1.0 1.0
1.0 1.0 1.0 1.0 1.0 1.0 1.0 1.0
1.0 1.0 1.0 1.0 1.0 1.0 1.0 1.0
1.0 1.0 1.0 1.0 1.0 1.0 1.0 1.0
1.0 1.0 1.0 1.0 1.0 1.0 1.0 1.0
00000000: 0000 803f 0000 803f 0000 803f 0000 803f
00000010: 0000 803f 0000 803f 0000 803f 0000 803f
00000020: 0000 803f 0000 803f 0000 803f 0000 803f
00000030: 0000 803f 0000 803f 0000 803f 0000 803f
00000040: 0000 803f 0000 803f 0000 803f 0000 803f
00000050: 0000 803f 0000 803f 0000 803f 0000 803f
00000060: 0000 803f 0000 803f 0000 803f 0000 803f
00000070: 0000 803f 0000 803f 0000 803f 0000 803f
00000080: 0000 803f 0000 803f 0000 803f 0000 803f
00000090: 0000 803f 0000 803f 0000 803f 0000 803f
000000a0: 0000 803f 0000 803f 0000 803f 0000 803f
000000b0: 0000 803f 0000 803f 0000 803f 0000 803f
000000c0: 0000 803f 0000 803f 0000 803f 0000 803f
000000d0: 0000 803f 0000 803f 0000 803f 0000 803f
000000e0: 0000 803f 0000 803f 0000 803f 0000 803f
000000f0: 0000 803f 0000 803f 0000 803f 0000 803f
00000100: 0000 803f 0000 803f 0000 803f 0000 803f
00000110: 0000 803f 0000 803f 0000 803f 0000 803f
00000120: 0000 803f 0000 803f 0000 803f 0000 803f
00000130: 0000 803f 0000 803f 0000 803f 0000 803f
00000140: 0000 803f 0000 803f 0000 803f 0000 803f
00000150: 0000 803f 0000 803f 0000 803f 0000 803f
00000160: 0000 803f 0000 803f 0000 803f 0000 803f
00000170: 0000 803f 0000 803f 0000 803f 0000 803f
00000180: 0000 803f 0000 803f 0000 803f 0000 803f
00000190: 0000 803f 0000 803f 0000 803f 0000 803f
000001a0: 0000 803f 0000 803f 0000 803f 0000 803f
000001b0: 0000 803f 0000 803f 0000 803f 0000 803f
000001c0: 0000 803f 0000 803f 0000 803f 0000 803f
000001d0: 0000 803f 0000 803f 0000 803f 0000 803f
000001e0: 0000 803f 0000 803f 0000 803f 0000 803f
000001f0: 0000 803f 0000 803f 0000 803f 0000 803f

pre_net.1.bias f4 [128]
0.0 0.0 0.0 0.0 0.0 0.0 0.0 0.0
0.0 0.0 0.0 0.0 0.0 0.0 0.0 0.0
0.0 0.0 0.0 0.0 0.0 0.0 0.0 0.0
0.0 0.0 0.0 0.0 0.0 0.0 0.0 0.0
0.0 0.0 0.0 0.0 0.0 0.0 0.0 0.0
0.0 0.0 0.0 0.0 0.0 0.0 0.0 0.0
0.0 0.0 0.0 0.0 0.0 0.0 0.0 0.0
0.0 0.0 0.0 0.0 0.0 0.0 0.0 0.0
0.0 0.0 0.0 0.0 0.0 0.0 0.0 0.0
0.0 0.0 0.0 0.0 0.0 0.0 0.0 0.0
0.0 0.0 0.0 0.0 0.0 0.0 0.0 0.0
0.0 0.0 0.0 0.0 0.0 0.0 0.0 0.0
0.0 0.0 0.0 0.0 0.0 0.0 0.0 0.0
0.0 0.0 0.0 0.0 0.0 0.0 0.0 0.0
0.0 0.0 0.0 0.0 0.0 0.0 0.0 0.0
0.0 0.0 0.0 0.0 0.0 0.0 0.0 0.0
00000000: 0000 0000 0000 0000 0000 0000 0000 0000
00000010: 0000 0000 0000 0000 0000 0000 0000 0000
00000020: 0000 0000 0000 0000 0000 0000 0000 0000
00000030: 0000 0000 0000 0000 0000 0000 0000 0000
00000040: 0000 0000 0000 0000 0000 0000 0000 0000
00000050: 0000 0000 0000 0000 0000 0000 0000 0000
00000060: 0000 0000 0000 0000 0000 0000 0000 0000
00000070: 0000 0000 0000 0000 0000 0000 0000 0000
00000080: 0000 0000 0000 0000 0000 0000 0000 0000
00000090: 0000 0000 0000 0000 0000 0000 0000 0000
000000a0: 0000 0000 0000 0000 0000 0000 0000 0000
000000b0: 0000 0000 0000 0000 0000 0000 0000 0000
000000c0: 0000 0000 0000 0000 0000 0000 0000 0000
000000d0: 0000 0000 0000 0000 0000 0000 0000 0000
000000e0: 0000 0000 0000 0000 0000 0000 0000 0000
000000f0: 0000 0000 0000 0000 0000 0000 0000 0000
00000100: 0000 0000 0000 0000 0000 0000 0000 0000
00000110: 0000 0000 0000 0000 0000 0000 0000 0000
00000120: 0000 0000 0000 0000 0000 0000 0000 0000
00000130: 0000 0000 0000 0000 0000 0000 0000 0000
00000140: 0000 0000 0000 0000 0000 0000 0000 0000
00000150: 0000 0000 0000 0000 0000 0000 0000 0000
00000160: 0000 0000 0000 0000 0000 0000 0000 0000
00000170: 0000 0000 0000 0000 0000 0000 0000 0000
00000180: 0000 0000 0000 0000 0000 0000 0000 0000
00000190: 0000 0000 0000 0000 0000 0000 0000 0000
000001a0: 0000 0000 0000 0000 0000 0000 0000 0000
000001b0: 0000 0000 0000 0000 0000 0000 0000 0000
000001c0: 0000 0000 0000 0000 0000 0000 0000 0000
000001d0: 0000 0000 0000 0000 0000 0000 0000 0000
000001e0: 0000 0000 0000 0000 0000 0000 0000 0000
000001f0: 0000 0000 0000 0000 0000 0000 0000 0000

pre_net.1.running_mean f4 [128]
-0.018991971 -0.039771598 0.022135383 -0.04902141 -0.040033784 0.042986274 -0.013843825 0.0038290913
-0.04925706 -0.018269725 0.033943478 0.046748374 -0.036182053 0.008133728 0.053740676 0.032423608
0.039980624 -0.0026718525 -0.006673758 -0.027703905 0.007558372 -0.02050306 0.019714085 0.04313116
0.02069827 -0.007199785 -0.013105744 -0.009530809 -0.023806658 0.060916938 0.00032708573 -0.023068182
0.02577174 0.038634606 0.041980874 0.046624392 0.0018193392 -0.0042445534 -0.033003822 0.029762022
-0.02925642 0.024655603 -0.02312351 -0.031440843 0.008512565 0.0148247825 -0.050323255 -0.04102533
0.054907672 -0.016537227 0.016070412 -0.019619359 0.011476631 -0.023559751 -0.006280672 -0.029326739
-0.018419964 0.008407973 -0.050050016 -0.03575565 0.0072505632 0.013452997 0.04782491 0.037701406
0.019271584 0.033047754 -0.0011099394 0.041020755 0.0127781695 -0.0069456487 0.0084860725 -0.039592072
-0.016552016 0.04806816 -0.023675716 0.03657909 0.009268958 0.023813091 0.01200552 -0.03773099
-0.0013788232 0.025674703 -0.053556126 -0.007092477 -0.04570787 0.0033378627 0.0003693016 0.015492196
0.019895013 0.025443988 -0.0040875906 0.046875454 0.028038334 -0.008874113 0.050706837 0.032641124
0.011628641 -0.01513515 0.017176157 0.026137715 -0.016815308 0.027541835 -0.01622312 0.039632797
0.015473638 -0.06437154 -0.029596768 0.0052247047 -0.00011329522 -0.040100604 -0.045638528 -0.033918425
0.010867493 0.031109981 0.0042961263 0.02021117 0.027044035 0.015233389 -0.036299564 0.033874437
0.025022771 -0.0133658135 -0.034623127 0.015421032 -0.052644156 0.024529336 0.020726003 -0.0012758608
00000000: 0d95 9bbc 8be7 22bd 4355 b53c adca 48bd
00000010: 77fa 23bd 6012 303d 36d1 62bc 7ef1 7a3b
00000020: c5c1 49bd 64aa 95bc 5108 0b3d 397b 3f3d
00000030: a233 14bd 5443 053c 2f1f 5c3d 9ece 043d
00000040: b9c2 233d 3f1a 2fbb 8aaf dabb 4df3 e2bc
00000050: 38ac f73b 09f6 a7bc 6f7f a13c 4daa 303d
00000060: 6b8f a93c 2dec ebbb 79b9 56bc 1c27 1cbc
00000070: 2e06 c3bc 0a84 793d b47c ab39 7cf9 bcbc
00000080: 421f d33c 523f 1e3d 23f4 2b3d 38f9 3e3d
00000090: e576 ee3a e515 8bbb 042f 07bd 7ccf f33c
000000a0: 29ab efbc 8cfa c93c 846d bdbc 1dc8 00bd
000000b0: 4978 0b3c a5e3 723c c21f 4ebd 2d0a 28bd
000000c0: dee6 603d 1479 87bc 19a6 833c c7b8 a0bc
000000d0: 7b08 3c3c 6100 c1bc 18ce cdbb a13e f0bc
000000e0: 77e5 96bc 98c1 093c 3f01 4dbd 8474 12bd
000000f0: 2296 ed3b f669 5c3c 0ee4 433d ca6c 1a3d
00000100: 71df 9d3c 155d 073d 637b 91ba 6105 283d
00000110: 875b 513c 5398 e3bb 2b09 0b3c 4c2b 22bd
00000120: 1898 87bc 1ee3 443d 93f3 c1bc f5d3 153d
00000130: d4dc 173c ac13 c33c cdb2 443c d08b 1abd
00000140: a1b9 b4ba c153 d23c ab5d 5bbd 0268 e8bb
00000150: 2d38 3bbd 0bc0 5a3b d29e c139 fbd2 7d3c
00000160: defa a23c e96f d03c 32f1 85bb 7a00 403d
00000170: a6b0 e53c ba64 11bc f9b1 4f3d b3b2 053d
00000180: 0e86 3e3c 6cf9 77bc 03b5 8c3c c31e d63c
00000190: 42c0 89bc 6a9f e13c 59e6 84bc 0056 223d
000001a0: 2485 7d3c 3ad5 83bd ec74 f2bc 0034 ab3b
000001b0: e898 edb8 8840 24bd 77ef 3abd 0cee 0abd
000001c0: 920d 323c 5cda fe3c 85c6 8c3b e591 a53c
000001d0: 748b dd3c 7795 793c daae 14bd ecbf 0a3d
000001e0: 8efc cc3c 49fc 5abc fbd0 0dbd 7fa8 7c3c
000001f0: 66a1 57bd bff1 c83c 94c9 a93c c93a a7ba

pre_net.1.running_var f4 [128]
0.24301244 0.16120335 0.22143245 0.14891836 0.21309653 0.20246585 0.19343005 0.3827254
0.21103542 0.12785736 0.20803872 0.23562306 0.24973539 0.25367486 0.20728128 0.25352076
0.3042081 0.2007148 0.12905008 0.15973578 0.26764047 0.21413352 0.2259861 0.29918954
0.12406327 0.1675731 0.18501304 0.16974764 0.15274432 0.2458159 0.18474059 0.18976699
0.289487 0.32415032 0.19731049 0.15689929 0.18151231 0.12800632 0.34787333 0.22170547
0.13657771 0.23321648 0.30040348 0.14046875 0.20505917 0.22103241 0.19534305 0.19255295
0.23988287 0.18746631 0.14457129 0.2727595 0.31068882 0.1370304 0.22111441 0.20091353
0.15108831 0.28609022 0.20336784 0.28448927 0.1379581 0.16121365 0.28118354 0.15022257
0.1844941 0.17477742 0.31339338 0.12444278 0.1779713 0.24664372 0.3333187 0.26956913
0.19306292 0.15313002 0.2798401 0.21548004 0.21164545 0.15939532 0.14114217 0.1564273
0.2571589 0.18268585 0.17941676 0.21134798 0.23467994 0.24667746 0.15375595 0.2594592
0.13955365 0.29139975 0.24827522 0.19081338 0.1926075 0.13154933 0.20357116 0.20197016
0.11096604 0.1455741 0.15893357 0.18633755 0.26845434 0.28089643 0.22627068 0.14022665
0.14967377 0.2028526 0.15460606 0.1972173 0.14490582 0.23906706 0.14147978 0.1765877
0.18474276 0.2642309 0.23355845 0.19139217 0.38648742 0.23213255 0.15430908 0.16114777
0.15353002 0.23677456 0.15133248 0.16597047 0.102432534 0.2382808 0.33305717 0.24996008
00000000: 41d8 783e 7e12 253e 30bf 623e 0e7e 183e
00000010: fa35 5a3e 3553 4f3e 8712 463e 95f4 c33e
00000020: ab19 583e 0aed 023e 1a08 553e 2c47 713e
00000030: a2ba 7f3e ace1 813e 8b41 543e 79cd 813e
00000040: 2ac1 9b3e 2e88 4d3e b425 043e c791 233e
00000050: 2c08 893e d145 5b3e e668 673e 5f2f 993e
00000060: e214 fe3d 4898 2b3e 0f74 3d3e 53d2 2d3e
00000070: 0269 1c3e 2ab7 7b3e a32c 3d3e 4752 423e
00000080: a437 943e 08f7 a53e c30b 4a3e 35aa 203e
00000090: 5dde 393e 1714 033e 741c b23e c206 633e
000000a0: 07db 0b3e 4dd0 6e3e 7cce 993e 0ad7 0f3e
000000b0: 08fb 513e 5256 623e 0208 483e 9a2c 453e
000000c0: dba3 753e 2bf7 3f3e 7f0a 143e 22a7 8b3e
000000d0: 9b12 9f3e b251 0c3e d16b 623e 47bc 4d3e
000000e0: e5b6 1a3e 6b7a 923e a93f 503e 94a8 913e
000000f0: e344 0d3e 3115 253e 4af7 8f3e f2d3 193e
00000100: 05ec 3c3e daf8 323e 1975 a03e dbdb fe3d
00000110: 1c3e 363e 2c90 7c3e c0a8 aa3e f704 8a3e
00000120: 49b2 453e 1ece 1c3e 3447 8f3e cda6 5c3e
00000130: 96b9 583e 8738 233e 9387 103e 7a2e 203e
00000140: 55aa 833e 0012 3b3e 07b9 373e 9b6b 583e
00000150: f04f 703e 0499 7c3e 3372 1d3e d6d7 843e
00000160: 27e7 0e3e 5932 953e dc3b 7e3e 9564 433e
00000170: e73a 453e deb4 063e f574 503e 44d1 4e3e
00000180: 2a42 e33d 6011 153e 7bbf 223e 45cf 3e3e
00000190: d972 893e a8d1 8f3e 80b3 673e 9397 0f3e
000001a0: 1544 193e 98b8 4f3e 0d51 1e3e 55f3 493e
000001b0: 3162 143e ffcd 743e 13e0 103e 68d3 343e
000001c0: 352d 3d3e 4649 873e f229 6f3e 4ffc 433e
000001d0: aee1 c53e 28b4 6d3e 3303 1e3e ec03 253e
000001e0: f936 1d3e 0875 723e e7f6 1a3e 2af4 293e
000001f0: 26c8 d13d e2ff 733e 7886 aa3e 89f5 7f3e

pre_net.4.weight f4 [64, 128]
0.07324408 0.03292476 -0.043049086 -0.036771767 0.08789801 -0.027839921 -0.001288682 0.028994408
-0.012089855 -0.0017868999 0.08197828 -0.055188894 -0.033984657 0.07011838 -0.0022447726 0.020319628
0.039187074 0.08484076 0.08096297 0.0345717 0.012807521 -0.010522329 -0.043951627 -0.024308415
0.06940508 -0.08695227 -0.027579896 0.05934926 -0.008853051 0.06613908 -0.0371641 0.029326493
0.00078875717 0.06975103 -0.013313167 0.004343422 0.051911652 0.054213542 -0.012204673 0.083121456
0.019401185 -0.0011936725 0.06473524 0.05642286 0.08245246 0.010003775 0.074231304 0.0055304356
-0.011402566 0.028093508 -0.00567502 0.074441366 0.008288293 -0.06233016 0.02947252 -0.085100584
0.03926824 -0.011855856 -0.08583112 -0.08760607 -0.015715 0.01861072 0.0044298023 -0.0006510107
0.0346805 -0.063939065 0.002665156 0.046323676 0.0729926 -0.028483462 -0.047570113 -0.048139464
0.020795371 0.039355535 -0.08630517 -0.072295524 0.021965483 -0.08308144 0.0027007384 0.06552547
0.029530738 0.041817766 0.0538358 -0.080109864 0.04549332 0.035897683 0.024688127 -0.015203095
0.014649528 -0.015981369 -0.04614905 0.04805043 0.04369648 -0.026606314 0.077694975 0.015856603
0.068160295 -0.08035748 0.04718587 -0.050674945 -0.017531298 -0.061636824 -0.020638257 0.05838332
-0.037078246 -0.009113697 0.03746015 -0.06232095 -0.01766153 0.05784163 -0.00033977735 0.06934041
-0.0164184 0.06448963 -0.063488126 0.014763872 -0.011932932 -0.061872806 -0.005572203 -0.0709892
0.03405342 -0.027096514 0.017885668 0.07996962 -0.02209913 -0.08198335 -0.043171257 0.011349145
0.067651145 0.06773495 0.0055353455 0.06442157 0.064905934 0.016720645 -0.038709994 -0.049589433
-0.012102225 0.0026828365 0.034118675 -0.07809869 -0.06712407 -0.020993514 -0.020695271 0.06929776
0.032771673 -0.060141444 -0.040464386 -0.07196764 -0.021713644 -0.039711077 -0.07347204 -0.042508002
0.08490097 -0.08610388 -0.024158247 0.027064703 -0.08031562 -0.06760189 -0.045584135 0.07826158
-0.061540477 0.001275469 0.01178233 0.0071752374 -0.048215266 0.06339908 0.043395817 0.06382836
-0.040063076 0.06540141 0.024926974 0.06890138 0.027132591 0.0035710393 -0.046658784 0.041617252
0.03252783 0.04489224 -0.021230074 -0.054181155 0.038221017 -0.064991914 -0.060959123 -0.040395036
0.0018565897 0.01330948 -0.042015065 0.07942264 0.053906027 -0.039200835 -0.04242039 -0.08781884
0.054528117 0.07614218 -0.06360102 -0.021427669 -0.011381293 -0.056621224 -0.030873872 -0.018152142
-0.022398638 -0.044522002 0.06398 0.08565187 0.031955898 0.081765845 0.0010585287 0.0008085135
-0.02038115 -0.08141929 0.068763986 0.028885541 0.07466058 -0.029690927 -0.04850376 0.039911672
0.04842368 0.05035516 -0.03048982 0.0100361975 0.015738001 -0.001311041 -0.079824716 0.07599702
-0.015758654 0.084750675 0.034191884 0.03944047 -0.08264798 -0.04607858 0.08777171 0.0053652097
-0.014330044 0.033057366 0.028438691 -0.0654726 -0.071769446 -0.019844064 0.064121895 -0.016639713
0.044625334 0.02153254 0.04694574 0.061848287 -0.03232583 0.03819793 0.07514635 0.022619875
0.08591059 -0.080211975 -0.07797935 -0.06060804 0.015397224 -0.058280587 -0.06386112 0.0015210165
00000000: fe00 963d 1ddc 063d 3d54 30bd fe9d 16bd
00000010: df03 b43d 8c10 e4bc fee8 a8ba ae85 ed3c
00000020: 8714 46bc 6936 eaba 3ae4 a73d c00d 62bd
00000030: 7f33 0bbd 3a9a 8f3d 091d 13bb 5975 a63c
00000040: a082 203d fec0 ad3d eacf a53d 0e9b 0d3d
00000050: a3d6 513c d965 2cbc 9f06 34bd 7122 c7bc
00000060: 4024 8e3d 0814 b2bd 3cef e1bc 3618 733d
00000070: 630c 11bc ed73 873d 6239 18bd 1d3e f03c
00000080: 99c4 4e3a a1d9 8e3d 781f 5abc 4453 8e3b
00000090: 50a1 543d 050f 5e3d 1cf6 47bc 953b aa3d
000000a0: 3cef 9e3c 0175 9cba e993 843d a81b 673d
000000b0: d6dc a83d e0e6 233c 9506 983d a838 b53b
000000c0: d4d1 3abc 5b24 e63c 85f5 b9bb b774 983d
000000d0: 9fcb 073c e94d 7fbd 5b70 f13c 3749 aebd
000000e0: bcd7 203d 103f 42bc 3ac8 afbd d06a b3bd
000000f0: bebc 80bc 8275 983c e027 913b 97a8 2aba
00000100: 240d 0e3d 7cf2 82bd e6a9 2e3b e5bd 3d3d
00000110: 257d 953d 2656 e9bc e1d8 42bd e32d 45bd
00000120: 0e5b aa3c 4533 213d c4c0 b0bd ad0f 94bd
00000130: f5f0 b33c 9a26 aabd dffe 303b 3832 863d
00000140: 72ea f13c 1b49 2b3d ee82 5c3d a410 a4bd
00000150: 3457 3a3d 7309 133d c13e ca3c 6716 79bc
00000160: 9304 703c 5ceb 82bc c906 3dbd 87d0 443d
00000170: 15fb 323d 7cf5 d9bc 8b1e 9f3d b5e5 813c
00000180: a097 8b3d 7692 a4bd f945 413d 8890 4fbd
00000190: cc9d 8fbc e576 7cbd 9011 a9bc 5923 6f3d
000001a0: 5cdf 17bd 9e51 15bc d06f 193d 4144 7fbd
000001b0: eaae 90bc 58eb 6c3d 2524 b2b9 5802 8e3d
000001c0: e17f 86bc 2413 843d 1006 82bd 2be4 713c
000001d0: 5882 43bc 576e 7dbd 0797 b6bb c962 91bd
000001e0: 997b 0b3d 82f9 ddbc f784 923c 1dc7 a33d
000001f0: 3c09 b5bc e3e6 a7bd 58d4 30bd c4f1 393c
00000200: af8c 8a3d 9fb8 8a3d d861 b53b 75ef 833d
00000210: 67ed 843d bcf9 883c 5f8e 1ebd 4a1e 4bbd
00000220: 6948 46bc 87d2 2f3b 06c0 0b3d 35f2 9fbd
00000230: 5878 89bd 97fa abbc 2189 a9bc fceb 8d3d
00000240: 973b 063d e056 76bd fcbd 25bd c563 93bd
00000250: d0e0 b1bc 15a8 22bd 8278 96bd df1c 2ebd
00000260: 8fe0 ad3d 3b57 b0bd 84e7 c5bc ccb6 dd3c
00000270: 847c a4bd dc72 8abd 6eb6 3abd 9b47 a03d
00000280: de11 7cbd a32d a73a ad0a 413c 411e eb3b
00000290: 5f7d 45bd 60d7 813d d0bf 313d 71b8 823d
000002a0: 2e19 24bd 2df1 853d a733 cc3c 2b1c 8d3d
000002b0: 2b45 de3c 1908 6a3b 481d 3fbd da76 2a3d
000002c0: e73b 053d ede0 373d b1ea adbc 0fed 5dbd
000002d0: a48d 1c3d 7b1a 85bd 46b0 79bd 4475 25bd
000002e0: d058 f33a 0110 5a3c fd17 2cbd 56a8 a23d
000002f0: 91cc 5c3d 0e91 20bd 01c1 2dbd 5dda b3bd
00000300: e058 5f3d 6ef0 9b3d 4041 82bd 1489 afbc
00000310: 9a78 3abc a8eb 67bd 34eb fcbc cdb3 94bc
00000320: 597d b7bc b45c 36bd f207 833d 3f6a af3d
00000330: 30e4 023d da74 a73d 54be 8a3a 6cf2 533a
00000340: 5ff6 a6bc 28bf a6bd 22d4 8c3d 5fa1 ec3c
00000350: a5e7 983d 633a f3bc e1ab 46bd 6c7a 233d
00000360: e957 463d 3641 4e3d c9c5 f9bc dd6e 243c
00000370: fbec 803c 3cd7 abba 247b a3bd 53a4 9b3d
00000380: 4b18 81bc c391 ad3d ca0c 0c3d 558c 213d
00000390: 5843 a9bd e5bc 3cbd a7c1 b33d a4ce af3b
000003a0: 90c8 6abc 2967 073d 42f8 e83c 8016 86bd
000003b0: dcfb 92bd 0590 a2bc 5752 833d 0250 88bc
000003c0: 0ec9 363d 0265 b03c 2d4a 403d a154 7d3d
000003d0: 1768 04bd 6f75 1c3d 54e6 993d 514d b93c
000003e0: e4f1 af3d 2d46 a4bd a3b3 9fbd 2340 78bd
000003f0: a344 7c3c a0b7 6ebd 9ec9 82bd d85c c73a

pre_net.4.bias f4 [64]
0.054481514 -0.048676584 0.07237948 0.0052119214 0.07416155 -0.05737305 0.0131146135 0.015526983
0.047407553 -0.02867719 0.056322064 0.018973362 0.051624082 0.023086948 0.033600036 -0.014590554
-0.04894384 0.08713762 -0.07706956 -0.010217355 0.08118819 0.019561637 0.0035502291 0.029152216
-0.006185461 -0.00040823437 -0.042383693 0.08275673 0.07677741 0.021235658 0.002830593 -0.013171543
-0.08555961 -0.017700328 0.017332418 0.02532642 -0.06722266 -0.030701777 -0.054721475 0.07645353
-0.08480372 -0.05927832 0.03203384 0.0047417735 -0.0038836107 -0.07288379 0.03646874 -0.0030507152
-0.004104597 -0.0332096 0.046267387 -0.059433885 -0.0429942 0.08194373 0.049240552 -0.06558062
-0.047727406 -0.08375181 0.05877026 0.048924863 0.029148897 -0.07551902 -0.07060343 0.03433597
00000000: 0228 5f3d 1961 47bd b13b 943d c4c8 aa3b
00000010: 03e2 973d 0100 6bbd adde 563c e364 7e3c
00000020: 6c2e 423d 6dec eabc f7b1 663d 066e 9b3c
00000030: c673 533d d720 bd3c 31a0 093d 380d 6fbc
00000040: 5679 48bd 3575 b23d a5d6 9dbd b166 27bc
00000050: fe45 a63d ba3f a03c f6aa 683b a1d0 ee3c
00000060: 68af cabb 4a08 d6b9 869a 2dbd 5c7c a93d
00000070: 7a3d 9d3d 67f6 ad3c 7881 393b 75cd 57bc
00000080: e039 afbd 4700 91bc b7fc 8d3c 5a79 cf3c
00000090: 09ac 89bd 4b82 fbbc a023 60bd ab93 9c3d
000000a0: 93ad adbd d3cd 72bd ea35 033d e160 9b3b
000000b0: 2d84 7ebb 1944 95bd 3f60 153d 82ee 47bb
000000c0: db7f 86bb ca06 08bd df82 3d3d f270 73bd
000000d0: b01a 30bd 1dd2 a73d 76b0 493d 224f 86bd
000000e0: d07d 43bd 1286 abbd 16b9 703d 7065 483d
000000f0: abc9 ee3c b7a9 9abd 8898 90bd e0a3 0c3d

pre_net.5.weight f4 [64]
1.0 1.0 1.0 1.0 1.0 1.0 1.0 1.0
1.0 1.0 1.0 1.0 1.0 1.0 1.0 1.0
1.0 1.0 1.0 1.0 1.0 1.0 1.0 1.0
1.0 1.0 1.0 1.0 1.0 1.0 1.0 1.0
1.0 1.0 1.0 1.0 1.0 1.0 1.0 1.0
1.0 1.0 1.0 1.0 1.0 1.0 1.0 1.0
1.0 1.0 1.0 1.0 1.0 1.0 1.0 1.0
1.0 1.0 1.0 1.0 1.0 1.0 1.0 1.0
00000000: 0000 803f 0000 803f 0000 803f 0000 803f
00000010: 0000 803f 0000 803f 0000 803f 0000 803f
00000020: 0000 803f 0000 803f 0000 803f 0000 803f
00000030: 0000 803f 0000 803f 0000 803f 0000 803f
00000040: 0000 803f 0000 803f 0000 803f 0000 803f
00000050: 0000 803f 0000 803f 0000 803f 0000 803f
00000060: 0000 803f 0000 803f 0000 803f 0000 803f
00000070: 0000 803f 0000 803f 0000 803f 0000 803f
00000080: 0000 803f 0000 803f 0000 803f 0000 803f
00000090: 0000 803f 0000 803f 0000 803f 0000 803f
000000a0: 0000 803f 0000 803f 0000 803f 0000 803f
000000b0: 0000 803f 0000 803f 0000 803f 0000 803f
000000c0: 0000 803f 0000 803f 0000 803f 0000 803f
000000d0: 0000 803f 0000 803f 0000 803f 0000 803f
000000e0: 0000 803f 0000 803f 0000 803f 0000 803f
000000f0: 0000 803f 0000 803f 0000 803f 0000 803f

pre_net.5.bias f4 [64]
0.0 0.0 0.0 0.0 0.0 0.0 0.0 0.0
0.0 0.0 0.0 0.0 0.0 0.0 0.0 0.0
0.0 0.0 0.0 0.0 0.0 0.0 0.0 0.0
0.0 0.0 0.0 0.0 0.0 0.0 0.0 0.0
0.0 0.0 0.0 0.0 0.0 0.0 0.0 0.0
0.0 0.0 0.0 0.0 0.0 0.0 0.0 0.0
0.0 0.0 0.0 0.0 0.0 0.0 0.0 0.0
0.0 0.0 0.0 0.0 0.0 0.0 0.0 0.0
00000000: 0000 0000 0000 0000 0000 0000 0000 0000
00000010: 0000 0000 0000 0000 0000 0000 0000 0000
00000020: 0000 0000 0000 0000 0000 0000 0000 0000
00000030: 0000 0000 0000 0000 0000 0000 0000 0000
00000040: 0000 0000 0000 0000 0000 0000 0000 0000
00000050: 0000 0000 0000 0000 0000 0000 0000 0000
00000060: 0000 0000 0000 0000 0000 0000 0000 0000
00000070: 0000 0000 0000 0000 0000 0000 0000 0000
00000080: 0000 0000 0000 0000 0000 0000 0000 0000
00000090: 0000 0000 0000 0000 0000 0000 0000 0000
000000a0: 0000 0000 0000 0000 0000 0000 0000 0000
000000b0: 0000 0000 0000 0000 0000 0000 0000 0000
000000c0: 0000 0000 0000 0000 0000 0000 0000 0000
000000d0: 0000 0000 0000 0000 0000 0000 0000 0000
000000e0: 0000 0000 0000 0000 0000 0000 0000 0000
000000f0: 0000 0000 0000 0000 0000 0000 0000 0000

pre_net.5.running_mean f4 [64]
0.3191152 -0.036981963 0.14317822 -0.018372834 0.3084764 0.06947801 0.28013778 -0.31336224
0.14227413 0.2051606 -0.029531615 -0.09518299 -0.06820917 -0.19148842 -0.107832514 -0.15643412
-0.50230926 0.2169459 0.19407639 -0.24548554 0.1678195 -0.17359507 0.09034553 -0.09991833
-0.0034527304 0.030361976 0.11120637 -0.021719258 -0.1927887 -0.212577 -0.006901956 -0.23758617
0.2183465 -0.1905135 0.023218915 0.2788685 -0.08426405 -0.054862414 0.021631489 -0.06692958
-0.06478427 -0.4591903 0.15644734 0.14835297 0.41034102 0.035232294 -0.12848039 -0.055103686
-0.09709971 -0.15625384 -0.05895788 -0.19058466 0.16852213 0.098067135 0.36628392 -0.078460164
0.07722091 0.1907623 0.27843976 0.18043764 -0.22335139 0.08595421 -0.22657323 0.07196609
00000000: 1163 a33e 667a 17bd 509d 123e a082 96bc
00000010: 9ef0 9d3e 7d4a 8e3d 386e 8f3e 0471 a0be
00000020: 4fb0 113e 9f15 523e 49ec f1bc 4def c2bd
00000030: 40b1 8bbd 8a15 44be 4bd7 dcbd 4430 20be
00000040: 5797 00bf 1127 5e3e f6bb 463e 9060 7bbe
00000050: e0d8 2b3e e8c2 31be 1407 b93d fba1 ccbd
00000060: 3447 62bb aeb9 f83c 2ac0 e33d 96ec b1bc
00000070: 676a 45be c9ad 59be ce29 e2bb ca49 73be
00000080: 3a96 5f3e f915 43be 9835 be3c dac7 8e3e
00000090: a192 acbd 69b7 60bd 8534 b13c 6012 89bd
000000a0: 9ead 84bd fe1a ebbe bb33 203e d7e9 173e
000000b0: 3818 d23e bd4f 103d 5d90 03be 67b4 61bd
000000c0: 36dc c6bd 0201 20be d17d 71bd a028 43be
000000d0: 1191 2c3e 6cd7 c83d 9189 bb3e b9af a0bd
000000e0: ff25 9e3d 3157 433e a88f 8e3e a5c4 383e
000000f0: 3ab6 64be c308 b03d d002 68be f562 933d

pre_net.5.running_var f4 [64]
0.19592236 0.17057852 0.19339477 0.15761171 0.20823267 0.1330868 0.20454414 0.13258994
0.15354022 0.261262 0.23484623 0.17347036 0.16402669 0.21243247 0.2315799 0.21785313
0.17436206 0.20557778 0.17489545 0.15903717 0.1564796 0.20602053 0.18429041 0.15744814
0.14695479 0.22730896 0.22138621 0.11643573 0.23832712 0.11809143 0.14515254 0.23994482
0.20454669 0.21485971 0.1778402 0.22329646 0.18956757 0.24116336 0.18849038 0.20488782
0.21259752 0.2255743 0.18719807 0.24624926 0.3294624 0.19336005 0.16333397 0.14965437
0.17388402 0.1824707 0.19564492 0.23436856 0.16756716 0.2633597 0.16514912 0.21625884
0.17263341 0.19441666 0.19067928 0.17629498 0.23077531 0.22384971 0.189461 0.21710895
00000000: df9f 483e 23ac 2e3e 4709 463e f764 213e
00000010: f23a 553e e847 083e 0574 513e a8c5 073e
00000020: a639 1d3e 22c4 853e 887b 703e 37a2 313e
00000030: 9df6 273e e687 593e 4823 6d3e e414 5f3e
00000040: f88b 323e fb82 523e cb17 333e a4da 223e
00000050: 303c 203e 0cf7 523e a0b6 3c3e 163a 213e
00000060: 517b 163e aec3 683e 11b3 623e db75 ee3d
00000070: 060c 743e ebd9 f13d dea2 143e 18b4 753e
00000080: b074 513e 2f04 5c3e be1b 363e d4a7 643e
00000090: 001e 423e 87f3 763e 9f03 413e 1dce 513e
000000a0: 2ab3 593e f3fc 663e dab0 3f3e c428 7c3e
000000b0: 4caf a83e 2d00 463e 0541 273e ff3e 193e
000000c0: a70e 323e 99d9 3a3e 2457 483e 50fe 6f3e
000000d0: ba96 2b3e 15d7 863e da1c 293e f572 5d3e
000000e0: d0c6 303e 2915 473e 6e41 433e ac86 343e
000000f0: 5d50 6c3e dc38 653e 1002 423e cf51 5e3e

pre_net.8.weight f4 [8, 64]
-0.055480093 -0.09306422 -0.024337381 0.031761542 -0.11826517 0.0032605827 -0.08279757 -0.04776579
0.073260725 -0.025669128 -0.113576934 0.0926121 0.037537426 -0.05900602 0.09990215 0.0039844364
0.102241546 0.086763695 0.07142098 -0.085369706 0.051798478 -0.088865414 -0.03357944 0.108416244
-0.049861744 -0.080003485 0.03815052 0.10272302 0.10212122 -0.11140394 -0.11734745 -0.112500355
0.008888319 0.02130422 0.04900168 -0.037930444 -0.0067880154 0.012958452 0.121246666 0.045843527
-0.038733512 -0.06986189 -0.10895038 -0.03297572 0.1117332 0.07703005 0.080569044 0.05133605
0.10658403 0.116148904 0.011687234 0.112045676 -0.10468811 0.046900034 0.123028204 0.023757622
0.0943204 -0.08711955 -0.062073424 0.07127851 -0.12463862 0.10456368 -0.10849477 -0.06938985
0.119601265 -0.0369706 0.097344324 -0.027479231 0.06307894 -0.0211346 0.03552243 -0.07453105
0.029156864 0.088908195 0.029999346 0.033756882 -0.1059763 -0.0348586 0.037781164 -0.025859758
-0.10765557 0.04381728 -0.05631733 0.050440058 0.060195103 -0.08982742 -0.022730768 0.11317688
0.075497046 0.09590919 0.06636566 -0.020816714 -0.037465945 0.039950177 0.0699615 0.003183946
0.060306087 -0.10338019 -0.115241736 0.092163295 -0.11428526 0.028644651 -0.09077585 -0.026889935
0.027105257 -0.10199745 -0.051229388 -0.103315145 0.10625018 0.070142716 0.071921214 0.078277886
-0.020324886 -0.093567625 -0.0819765 -0.065298215 0.04014252 0.023627669 -0.025504038 0.07895042
0.011276573 0.055198386 -0.0401168 -0.10614851 0.110180974 0.060770646 -0.043775782 -0.09788129
-0.059691712 0.036264002 0.040823847 -0.024174795 -0.11077723 0.03199634 -0.049858972 -0.017419621
0.017705202 0.08269191 -0.037525907 -0.028133929 -0.023239672 -0.06289551 0.073630884 0.07877232
0.0556255 -0.10439311 0.10491291 -0.06204185 0.062439844 -0.017277509 -0.06845254 0.08030781
-0.008332163 0.0111949 -0.11264083 0.059740886 -0.07169987 -0.046905637 0.075809956 -0.09263608
-0.1050258 -0.06567174 0.097226754 0.037577078 0.12082881 -0.107362956 -0.083826646 -0.03794524
0.05795373 -0.006749034 0.055193663 -0.054679453 -0.037374943 0.123280495 -0.06347406 -0.10986489
0.0978847 -0.12419118 0.0041233897 -0.02993469 0.029823944 -0.11203903 0.069629416 -0.08428487
-0.08015603 0.07367182 0.002014935 -0.03834185 -0.053015396 0.11544748 0.08582008 0.006871909
0.07096583 0.10512373 0.11063759 -0.039186448 0.03130035 0.063105226 -0.0257646 -0.05634077
-0.060511723 -0.06695874 0.0057080984 0.026739925 -0.021564394 -0.010676086 -0.050348997 0.014585406
0.076535225 0.10965444 -0.111436784 -0.058075994 0.06601706 -0.03247501 -0.072822064 0.07402675
0.0113095045 0.030823722 -0.093868434 -0.064089775 -0.027089655 -0.113642454 0.07752931 0.11040789
-0.094922855 0.06386724 -0.06564939 -0.08032739 0.020044863 0.014216214 0.09206839 0.024159864
-0.04845299 0.09521945 -0.07902886 0.046264023 0.039350256 -0.035656676 0.0676682 -0.0500056
-0.08215265 -0.03545709 -0.02503936 0.093080565 0.08555949 0.0599539 -0.053897575 0.048139974
0.010888904 -0.061446205 0.013672978 0.044765294 -0.12165317 0.09946273 -0.0897484 -0.107040584
00000000: 183f 63bd 7498 bebd 305f c7bc 6418 023d
00000010: 0235 f2bd 80af 553b c691 a9bd 10a6 43bd
00000020: b809 963d 1048 d2bc 069b e8bd 6aab bd3d
00000030: d8c0 193d 4cb0 71bd 8099 cc3d e08f 823b
00000040: 0464 d13d 2ab1 b13d 2a45 923d 50d6 aebd
00000050: a42a 543d 12ff b5bd 988a 09bd 5609 de3d
00000060: d43b 4cbd ded8 a3bd b843 1c3d 7260 d23d
00000070: ee24 d13d c027 e4bd dc53 f0bd 9666 e6bd
00000080: 50a0 113c 3086 ae3c fcb5 483d f45c 1bbd
00000090: 006e debb b04f 543c 2c50 f83d 6cc6 3b3d
000000a0: 08a7 1ebd c013 8fbd 6021 dfbd 8c11 07bd
000000b0: 60d4 e43d eec1 9d3d 6201 a53d c045 523d
000000c0: ba48 da3d 7adf ed3d d07b 3f3c 3478 e53d
000000d0: b866 d6bd 401a 403d 36f6 fb3d 589f c23c
000000e0: 0e2b c13d bc6b b2bd b440 7ebd 78fa 913d
000000f0: 8842 ffbd 7c25 d63d 8232 debd 441c 8ebd
00000100: 82f1 f43d 7c6e 17bd 765c c73d 201c e1bc
00000110: 882f 813d 7822 adbc f87f 113d bca3 98bd
00000120: 60da ee3c 8015 b63d 30c1 f53c a844 0a3d
00000130: 1a0a d9bd e4c7 0ebd 6cc0 1a3d d8d7 d3bc
00000140: 867a dcbd c079 333d 00ad 66bd 3c9a 4e3d
00000150: 248f 763d 70f7 b7bd e035 babc 48c9 e73d
00000160: 329e 9a3d 0a6c c43d b8ea 873d d087 aabc
00000170: e475 19bd cca2 233d fa47 8f3d c0a9 503b
00000180: 8403 773d feb8 d3bd dc03 ecbd 1cc0 bc3d
00000190: 640e eabd 30a8 ea3c b0e8 b9bd 4848 dcbc
000001a0: d80b de3c 0ae4 d0bd e8d5 51bd e496 d3bd
000001b0: b299 d93d fca6 8f3d 6e4b 933d 2850 a03d
000001c0: 6080 a6bc 62a0 bfbd 4ce3 a7bd 12bb 85bd
000001d0: 7c6c 243d d08e c13c d8ed d0bc c2b0 a13d
000001e0: 60c1 383c b417 623d 8451 24bd 6464 d9bd
000001f0: 90a6 e13d a4ea 783d 3c4e 33bd fc75 c8bd
00000200: 4c7f 74bd 9089 143d e836 273d 380a c6bc
00000210: 2cdf e2bd 980e 033d ec38 4cbd 98b3 8ebc
00000220: 800a 913c 605a a93d c4b4 19bd 2079 e6bc
00000230: 2061 bebc 5ccf 80bd cacb 963d 6253 a13d
00000240: 90d7 633d 0ecc d5bd 94dc d63d 981f 7ebd
00000250: ecc0 7f3d 9089 8dbc d830 8cbd 6c78 a43d
00000260: a083 08bc d06a 373c 3cb0 e6bd dcb2 743d
00000270: 62d7 92bd 2020 40bd 4042 9b3d fcb7 bdbd
00000280: c417 d7bd e87e 86bd d21e c73d 6cea 193d
00000290: 1875 f73d 1ce1 dbbd 4ead abbd 786c 1bbd
000002a0: e460 6d3d 0027 ddbb c012 623d 90f7 5fbd
000002b0: 7816 19bd 7c7a fc3d b0fe 81bd d800 e1bd
000002c0: c677 c83d f257 febd 801d 873b 9839 f5bc
000002d0: 5851 f43c b874 e5bd de99 8e3d 8c9d acbd
000002e0: d828 a4bd 40e1 963d 000d 043b 580c 1dbd
000002f0: ac26 59bd ba6f ec3d 70c2 af3d c02d e13b
00000300: 8856 913d 1c4b d73d f695 e23d f881 20bd
00000310: cc34 003d 503d 813d 4810 d3bc 94c5 66bd
00000320: 24db 77bd aa21 89bd 000b bb3b b00d db3c
00000330: d0a7 b0bc c0ea 2ebc c03a 4ebd a0f7 6e3c
00000340: 80be 9c3d 8292 e03d f838 e4bd 18e1 6dbd
00000350: f433 873d 8404 05bd bc23 95bd 569b 973d
00000360: 804b 393c 0882 fc3c 183e c0bd 8041 83bd
00000370: 20eb ddbc 60bd e8bd b0c7 9e3d 881d e23d
00000380: ea66 c2bd d4cc 823d 3073 86bd b082 a4bd
00000390: 2035 a43c 20eb 683c 5a8e bc3d e8ea c53c
000003a0: a476 46bd 6a02 c33d e2d9 a1bd 587f 3d3d
000003b0: bc2d 213d bc0c 12bd a095 8a3d acd2 4cbd
000003c0: a63f a8bd 743b 11bd 581f cdbc 06a1 be3d
000003d0: d039 af3d 3892 753d b4c3 5cbd 6c2e 453d
000003e0: 6067 323c 04af 7bbd a004 603c d05b 373d
000003f0: 4c25 f9bd 1eb3 cb3d 02ce b7bd 1838 dbbd

pre_net.8.bias f4 [8]
-0.11787981 0.11233504 -0.08882359 -0.08074932 0.061524317 -0.10832085 0.060742244 0.053414807
00000000: f86a f1bd ea0f e63d 24e9 b5bd e65f a5bd
00000010: ec00 7c3d 52d7 ddbd dccc 783d 7cc9 5a3d

post_net.0.weight f4 [32, 8]
0.16387537 -0.28053862 -0.018933645 -0.29408622 0.15967557 0.33386472 -0.2101608 -0.25032035
0.27371642 -0.01070303 0.15543845 -0.1807929 0.22165722 -0.35013622 0.028531017 0.23853607
-0.1426563 -0.15843122 -0.21706426 0.23236167 -0.105956174 0.043714907 0.013227927 -0.15118343
-0.2949746 -0.03323519 -0.15197401 0.3009206 0.22394015 -0.3257448 0.2688845 0.33825937
0.31681108 0.2677434 -0.15364484 -0.16537888 0.013943334 -0.26559323 -0.039906066 0.13208093
-0.20582522 -0.16968751 -0.08757013 0.25727317 0.178706 -0.021156646 -0.16879961 0.27983177
0.21604702 -0.12666589 -0.056439105 -0.07817014 0.2437223 0.10277371 0.21352917 0.25756952
-0.27936968 0.050113518 0.16164131 -0.0736839 0.3357742 0.3773408 -0.019341502 -0.1690426
-0.3179476 -0.031169256 -0.181949 -0.097266294 0.057183854 -0.2609125 0.33011186 -0.02830159
-0.21226805 0.2181647 0.17338271 0.3672555 0.20530339 -0.1757991 0.21185237 -0.036979914
0.1717573 0.30484295 -0.31992713 -0.051505987 -0.33800355 -0.10967791 -0.23736638 0.095740005
0.11417403 -0.22988614 0.11732012 0.12112496 -0.27102473 0.34794143 -0.22054224 -0.24843515
0.15563822 0.07534339 0.30127943 0.28470486 0.07428857 -0.319362 0.07311954 -0.35808438
-0.10837695 -0.12120587 0.2736529 0.028859248 0.33483306 -0.33452034 -0.2425849 -0.049479954
-0.11629302 0.2967326 0.23917837 -0.36191595 -0.07507802 -0.3468022 -0.083582915 -0.21891792
-0.32886156 0.18826063 -0.11395251 0.084041506 -0.37133807 0.16187443 -0.2710213 -0.3338779
0.18917537 -0.2017704 0.0226132 0.3531263 -0.32690653 -0.26390505 -0.15489304 -0.044649232
-0.26567614 -0.029054604 0.28892884 0.33559 0.30240273 0.2230115 0.23032197 -0.25581366
-0.12325125 -0.3407357 0.017468985 0.23545861 0.28100464 0.13811855 0.043392092 -0.32954773
0.07539408 0.1039241 0.29794455 -0.059069656 -0.14453875 0.085940205 -0.07303535 -0.1405371
0.11254061 0.36207196 -0.042831752 0.37174863 -0.002067584 0.20141253 0.24243215 0.08228325
-0.14943771 -0.29979968 -0.037418414 -0.109888926 0.053209316 0.14799283 0.079408355 -0.27604315
0.2718737 0.0974791 -0.20735072 -0.17446567 0.06805529 0.16150565 0.0182548 0.26256248
-0.021146372 -0.3576165 0.024288358 -0.31759024 -0.33295044 0.059455916 -0.2921264 -0.09712771
0.28394005 -0.16874795 -0.33647862 0.0117537035 -0.29328847 0.29754803 -0.27380094 0.15062478
0.2962307 0.0937479 -0.068828605 -0.31546667 -0.05998071 0.025839064 0.19692487 -0.26467818
-0.25534606 -0.11604395 0.26037887 0.06585404 0.31824666 0.17921431 -0.2622855 -0.25477684
-0.33017093 -0.30495876 -0.24233086 -0.22483538 -0.17766362 -0.14044847 -0.0041049984 -0.086466245
-0.018240437 0.020359423 0.20021003 -0.30571684 0.17104004 -0.15441617 0.30709285 0.03598879
-0.09957884 0.2782888 0.14245558 -0.18884966 0.20707268 -0.030072683 -0.1916437 -0.12797055
-0.29757124 -0.11375522 -0.2966896 -0.261317 -0.03339702 -0.28873432 -0.06645647 0.22841492
-0.16031614 0.037929676 0.08514704 0.1798012 -0.32748422 0.071482725 0.13178098 -0.23165162
00000000: f2ce 273e c2a2 8fbe bb1a 9bbc 7892 96be
00000010: fe81 233e 51f0 aa3e 6534 57be fd29 80be
00000020: 8f24 8c3e c35b 2fbc 422b 1f3e c621 39be
00000030: 1cfa 623e 0e45 b3be e1b9 e93c cd42 743e
00000040: 7e14 12be cb3b 22be 1846 5ebe 38f0 6d3e
00000050: 8dff d8bd 670e 333d f2b9 583c d4cf 1abe
00000060: e906 97be 9f21 08bd 139f 1bbe 4412 9a3e
00000070: 9150 653e 06c8 a6be 3bab 893e 5530 ad3e
00000080: 1035 a23e aa15 893e 1355 1dbe 1559 29be
00000090: 9572 643c d6fb 87be 8b74 23bd 3940 073e
000000a0: d9c3 52be 90c2 2dbe f857 b3bd 4fb9 833e
000000b0: b5fe 363e b450 adbc ced9 2cbe 1c46 8f3e
000000c0: 6e3b 5d3e b4b4 01be b12c 67bd ab17 a0bd
000000d0: 5792 793e 067b d23d 64a7 5a3e 27e0 833e
000000e0: 8b09 8fbe d543 4d3d 4d85 253e 96e7 96bd
000000f0: 99ea ab3e d032 c13e 1272 9ebc 8119 2dbe
00000100: 07ca a2be ab56 ffbc d750 3abe 8d33 c7bd
00000110: 9e39 6a3d 5396 85be 6c04 a93e bcd8 e7bc
00000120: cc5c 59be 9166 5f3e 3d8b 313e ea08 bc3e
00000130: 0d3b 523e ae04 34be d4ef 583e 4078 17bd
00000140: 25e1 2f3e 6014 9c3e 7dcd a3be f1f7 52bd
00000150: cd0e adbe d09e e0bd 2c10 73be 5613 c43d
00000160: 13d4 e93d 4667 6bbe 8845 f03d 5d10 f83d
00000170: c1c3 8abe 6125 b23e d3d5 61be c965 7ebe
00000180: a05f 1f3e a34d 9a3d 4c41 9a3e d6c4 913e
00000190: 9b24 983d 6b83 a3be b3bf 953d d656 b7be
000001a0: bcf4 ddbd c83a f8bd 3c1c 8c3e 3b6a ec3c
000001b0: 3d6f ab3e 4046 abbe 2d68 78be 7eab 4abd
000001c0: 092b eebd 56ed 973e 2deb 743e 0c4d b9be
000001d0: 81c2 99bd 0f90 b1be 852d abbd 052c 60be
000001e0: 8b60 a8be 65c7 403e ef5f e9bd f41d ac3d
000001f0: 0620 bebe 69c2 253e 4ec3 8abe 0bf2 aabe
00000200: 30b7 413e e69c 4ebe 513f b93c f8cc b43e
00000210: 4b60 a7be 901e 87be 489c 1ebe 1de2 36bd
00000220: b406 88be ec03 eebc 7bee 933e 74d2 ab3e
00000230: 88d4 9a3e 205d 643e 86d9 6b3e 02fa 82be
00000240: 276b fcbd e974 aebe 1e1b 8f3c 101c 713e
00000250: d7df 8f3e f36e 0d3e e8bb 313d 7bba a8be
00000260: 3668 9a3d 29d6 d43d 308c 983e 06f3 71bd
00000270: f701 14be 6b01 b03d 8f93 95bd f5e8 0fbe
00000280: b17b e63d 7f61 b93e 5970 2fbd d655 be3e
00000290: 4e80 07bb 163f 4e3e 2240 783e 1f84 a83d
000002a0: 3306 19be 587f 99be 0d44 19bd 720d e1bd
000002b0: 03f2 593d 6f8b 173e d9a0 a23d 8755 8dbe
000002c0: 0833 8b3e 1fa3 c73d bf53 54be 21a7 32be
000002d0: 9260 8b3d bd61 253e 178b 953c 976e 863e
000002e0: 283b adbc 8319 b7be 61f8 c63c 309b a2be
000002f0: 7b78 aabe 0c88 733d 9791 95be e5ea c6bd
00000300: 9760 913e 43cc 2cbe ed46 acbe 9b92 403c
00000310: e829 96be 3758 983e a32f 8cbe 623d 1a3e
00000320: 8dab 973e e6fe bf3d 03f6 8cbd d984 a1be
00000330: 55ae 75bd 72ac d33c aca6 493e e683 87be
00000340: b8bc 82be 73a8 edbd 6150 853e 7cde 863d
00000350: 3af1 a23e f583 373e 494a 86be 1c72 82be
00000360: 2a0c a9be 8e23 9cbe 9525 78be 3f3b 66be
00000370: 74ed 35be b9d1 0fbe 3983 86bb 3715 b1bd
00000380: f86c 95bc cec8 a63c dc03 4d3e eb86 9cbe
00000390: 1f25 2f3e 461f 1ebe 463b 9d3e fb68 133d
000003a0: feef cbbd df7b 8e3e e0df 113e ce61 41be
000003b0: dc0a 543e fd5a f6bc 3f3e 44be b60a 03be
000003c0: 425b 98be 7ff8 e8bd b3e7 97be 58cb 85be
000003d0: 50cb 08bd fcd4 93be 541a 88bd 9ae5 693e
000003e0: ea29 24be 265c 1b3d 9261 ae3d ce1d 383e
000003f0: 03ac a7be 8965 923d 98f1 063e 1536 6dbe

post_net.0.bias f4 [32]
0.13395695 0.32053787 0.09953575 -0.24505721 -0.27398765 -0.01833008 -0.03988806 -0.21026723
0.0019074653 -0.2802519 0.049682617 -0.154033 -0.10758717 0.017040981 0.32429105 0.029783485
0.30926806 -0.016221125 -0.35500297 0.34696892 0.27160674 0.2288057 0.28866005 0.067537144
-0.16792938 0.3098567 -0.09735354 -0.084895656 0.03281955 0.340039 -0.14640018 -0.15124021
00000000: 032c 093e 8a1d a43e 66d9 cb3d 47f0 7abe
00000010: 1c48 8cbe f728 96bc aa61 23bd 4b50 57be
00000020: ea03 fa3a 2d7d 8fbe 0080 4b3d d4ba 1dbe
00000030: aa56 dcbd 8799 8b3c 7a09 a63e 7ffc f33c
00000040: 6258 9e3e 2ae2 84bc f3c2 b5be e9a5 b13e
00000050: 0a10 8b3e 0b4c 6a3e 40cb 933e ea50 8a3d
00000060: aef5 2bbe 8aa5 9e3e 4b61 c7bd c6dd adbd
00000070: cb6d 063d 9819 ae3e eee9 15be b7de 1abe

post_net.1.weight f4 [32]
0.98073053 0.981391 0.99358964 1.022936 0.99510986 1.0346314 1.0374285 0.986363
0.9949393 0.9940447 0.99948555 0.9944633 1.0057291 1.0093455 0.9982436 1.0003306
0.9555547 1.0071847 0.9973372 1.0199825 0.96820724 1.0030392 1.0316472 0.9992623
0.99873847 0.96988606 0.9825146 1.000283 1.0262706 1.0130047 0.9877342 1.0131888
00000000: 2811 7b3f 713c 7b3f e45b 7e3f 91ef 823f
00000010: 85bf 7e3f cd6e 843f 75ca 843f 4982 7c3f
00000020: 58b4 7e3f b779 7e3f 49de 7f3f 2695 7e3f
00000030: bbbb 803f 3c32 813f e48c 7f3f d50a 803f
00000040: 3c9f 743f 6eeb 803f 7e51 7f3f c98e 823f
00000050: 6edc 773f 9763 803f 040d 843f a7cf 7f3f
00000060: 53ad 7f3f 744a 783f 1486 7b3f 4609 803f
00000070: d65c 833f 23aa 813f 26dc 7c3f 2cb0 813f

post_net.1.bias f4 [32]
0.015121738 -0.014316989 -0.01383909 0.025833704 -0.015306816 0.032127332 0.030976554 0.004318375
0.0077573974 0.013750263 -0.014948779 -0.02157322 0.010437674 -0.0027963552 0.01983302 -0.013614966
-0.014778361 0.025066275 -0.021079537 0.0106834 -0.038642187 -0.027548539 0.026881801 -0.024405504
-0.0015432653 -0.009746552 -0.015151392 0.020156594 0.033492893 0.002444626 -0.031202272 -0.009664446
00000000: 2bc1 773c ce91 6abc 5abd 62bc 34a1 d33c
00000010: 71c9 7abc f397 033d 8bc2 fd3c 2881 8d3b
00000020: c431 fe3b c848 613c b9eb 74bc 52ba b0bc
00000030: c702 2b3c 0e43 37bb dc78 a23c 4e11 5fbc
00000040: f020 72bc ca57 cd3c feae acbc 6d09 2f3c
00000050: 4547 1ebd 79ad e1bc 3937 dc3c 0dee c7bc
00000060: 6447 caba 01b0 1fbc 8b3d 78bc 711f a53c
00000070: d82f 093d 0536 203b e89b ffbc a057 1ebc
