enhanced_hybrid_qnn_model.pt (torch, 351874 bytes, 24 tensors)

q_weights f4 [3, 8, 3]
000000 d7 4d ad bc 00 f7 c8 bc 30 1a 2c 3d 53 7d eb 3d
       -0.021155281 -0.024531841 0.04201716 0.11498513
000010 41 86 01 bd 0a fd fd bd af 2a d8 bd 8f 83 2e be
       -0.031622175 -0.12401779 -0.10555016 -0.17042373
000020 2f d4 75 3d 92 1f fb 3c aa 3a 23 3e 0a e3 99 3d
       0.060016807 0.030654702 0.15940347 0.075140074
000030 92 07 4e bc df 7e 0d bd c7 01 32 bd 02 f5 03 3e
       -0.012575047 -0.03454482 -0.043458726 0.12886432
000040 7e 38 1f 3e 73 f5 89 3d d7 bc 29 bd ef 6d a2 bd
       0.15548894 0.06736269 -0.041439857 -0.079311244
000050 00 59 ed 3a eb df c7 bc 6f 34 93 3d 34 c3 84 3d
       0.0018108189 -0.024398765 0.07187735 0.064825445
000060 0d 9c 74 bd 18 79 5f 3d de 72 34 3e 9b d1 9a 3d
       -0.059719134 0.054558843 0.17621943 0.0755951
000070 22 39 e3 bd 6e ee 80 bd 4d 24 44 be 20 63 0b 3d
       -0.110948816 -0.06295477 -0.19154473 0.03403008
000080 7a d1 c5 bd a5 cb e0 bd 8f 3c 34 3e 6a 82 c6 bd
       -0.09659095 -0.10976342 0.17601226 -0.09692843
000090 7b b9 ad 3c 35 28 51 3e 36 4c 38 3e 3c f6 bc 3d
       0.021206608 0.20425494 0.17997822 0.09226653
0000a0 1d 9e 8d bd 4d 83 51 3b d0 6b 03 be b2 b4 1b 3e
       -0.06914923 0.003196913 -0.12834096 0.15205649
0000b0 95 cb 5f 3d 5b d6 e4 bc fd c1 c4 bd 92 11 38 bd
       0.05463751 -0.027934244 -0.09607313 -0.04493863
0000c0 c7 e5 ca bd 54 d3 16 be ce 78 35 bd 17 6b 83 bd
       -0.09907108 -0.14729053 -0.04430466 -0.0641691
0000d0 17 a1 65 3a e3 35 1d ba 84 78 29 be f6 46 19 3e
       0.0008759661 -0.00059971045 -0.1654988 0.14968476
0000e0 0a 50 cd bd 12 64 8d bd 44 47 3c be 0e a0 05 3d
       -0.10025032 -0.069038525 -0.1838656 0.032623343
0000f0 4b d6 9f 3c 0f 0e 6c be 9f a7 94 3d 55 ab 27 bd
       0.019511363 -0.23052238 0.07258534 -0.04093488
000100 0f f7 bd 3d d3 e8 1b be a5 e7 be bc 40 a6 4f 3d
       0.09275638 -0.15225534 -0.023303816 0.050695658
000110 13 81 de 3d bd e3 e9 bd 1f ba 55 be c5 6e ed bd
       0.10864463 -0.11420391 -0.20871781 -0.11593393

pre_net.0.weight f4 [128, 560]
000000 d5 86 81 3c 1e ab 38 bc 06 e9 57 bc 7f d8 d9 3c
       0.015811363 -0.011271266 -0.013178116 0.026592491
000010 03 8f 21 3d 3b 7e 25 3b fb 98 e8 bc 5d ab 18 3d
       0.039443027 0.0025252241 -0.02839326 0.0372728
000020 2e 08 1e 3d b1 ed b2 3c 86 4a 1f bc 50 d6 e6 bc
       0.03858202 0.021841856 -0.009722358 -0.028178364
000030 46 3a 12 bd 4e ad 70 bc d6 48 12 bd b5 4b 80 3a
       -0.035700105 -0.014689757 -0.035713993 0.0009788187
000040 4e 54 08 bd 64 6b 15 3d 71 76 11 bd 27 ce 14 3d
       -0.033283524 0.03647937 -0.035513345 0.036329415
000050 ee 67 c7 3c e6 bb 11 bb f2 47 28 bd 8c 3c 00 bd
       0.02434155 -0.002223724 -0.041084237 -0.031307742
000060 81 a9 52 bc f8 a1 29 3b 7a c4 c2 3c ea 93 bd bc
       -0.012857796 0.0025883894 0.023775328 -0.02314182
000070 f0 bd f3 bc 10 c2 09 3d 0e 37 31 bc 2a da a0 3c
       -0.029753655 0.033632338 -0.010816349 0.019635279
000080 b6 cd 09 3c 0d 60 45 39 eb 48 d7 3c 50 cc 47 bc
       0.008410862 0.00018823166 0.026279887 -0.012194708
000090 09 b8 0f 3d 7a 3d c4 bc 78 dc 08 3d 82 42 b4 bc
       0.03508762 -0.023955096 0.03341338 -0.02200437
0000a0 66 51 1b bc 71 c9 45 3c 5c 39 8a bc ba 67 34 3c
       -0.009479856 0.012071953 -0.016873054 0.011011058
0000b0 9d 3e 13 bd 47 5f 0d bb 33 ba 97 3c 43 92 b0 3c
       -0.035948385 -0.0021571682 0.018521404 0.021554118
0000c0 b3 55 1f bd 90 b4 47 3b c2 86 89 3b f2 19 b7 bc
       -0.03890009 0.0030472614 0.0041969726 -0.022351239
0000d0 dc a9 ee bc e2 80 23 bd 9d e2 e2 bc 0a b7 2c 3d
       -0.02913373 -0.039917834 -0.027695948 0.042166747
0000e0 7d e9 48 bc 3c 9e aa bc 07 e8 6f 3c 78 7b e6 bb
       -0.012262699 -0.020827405 0.014642722 -0.0070337616
0000f0 ba db b4 3c 07 2f 40 bc f2 63 b4 bc e2 8d 9e 3b
       0.02207743 -0.011729962 -0.022020314 0.004838691
000100 66 1d 99 3c 44 f6 d9 bc 42 61 5b bb f9 d4 1c bd
       0.018690776 -0.026606686 -0.0033474718 -0.038289044
000110 69 dd 90 bc 64 e8 21 3c bc ed e6 3b 36 55 1e 3d
       -0.017683702 0.009882066 0.007047383 0.038655482
000120 81 b5 8a bc c2 25 ab 3c f7 44 84 bc 15 ce 13 bd
       -0.016932251 0.020892028 -0.016146166 -0.036085207
000130 02 75 38 3c af 0e 82 3b cb 62 fc 3c 6b 3c 25 bd
       0.011258366 0.0039690356 0.030808827 -0.040340822
000140 a7 09 bf bb c8 ad b4 3c b5 fd b5 3c 89 5c 5f 3c
       -0.005830008 0.022055522 0.022215704 0.013632902
000150 aa 3d 29 bd 1b 01 15 bd f5 51 55 bc ac 47 1c bd
       -0.041318573 -0.036378007 -0.013020028 -0.03815429
000160 b7 16 88 3c 7f 01 29 bd 2f a1 8c 3c 1e 59 21 bd
       0.016612394 -0.041261192 0.017166702 -0.03939163
000170 62 f4 59 bc 0a 22 14 3d 70 96 88 3c b5 d6 47 3c
       -0.013302894 0.036165275 0.016673297 0.012197186
000180 76 17 95 bc d6 ee 7c 3c 68 48 1d bd 5a a0 f9 3c
       -0.018199664 0.015437802 -0.03839913 0.03047197
000190 9d 35 15 3d 6e 3a 7f 3c d4 bb 15 3d 76 65 f3 3b
       0.036428083 0.015577896 0.03655608 0.0074278666
0001a0 94 66 0b bd 6b 53 94 3c d1 26 e6 3c ad 24 b8 bc
       -0.034033373 0.018106183 0.028094681 -0.022478426
0001b0 02 8f 24 bd d8 7a 45 3c ec bf ab bb d6 e8 38 3c
       -0.040175445 0.012053214 -0.0052413847 0.011285981
0001c0 60 41 8c bc 09 30 03 3d 25 79 9b 3c 74 52 f0 bb
       -0.017121017 0.03202823 0.018978665 -0.007334048
0001d0 15 5a c2 3c 63 a6 e8 bc 3c 31 ea 3c 20 50 23 3d
       0.023724595 -0.028399652 0.02858793 0.039871335
0001e0 0e 3a 88 bc e0 05 fe 3c d8 27 23 bd 3b ad cb 3c
       -0.016629245 0.03100866 -0.03983292 0.024862876
0001f0 9a fc f8 bb 3f fd ca bc 39 93 ca bc 45 33 c2 3c
       -0.007598472 -0.02477896 -0.024728404 0.023706088
000200 71 57 d5 bc 29 e1 23 3d b8 79 0a bd ba 33 1e bc
       -0.026042672 0.04000965 -0.033807486 -0.009655887
000210 11 48 13 3d f7 9b 8f bc 9c f9 66 bc 25 3e b5 bc
       0.0359574 -0.017530425 -0.014097597 -0.02212436
000220 42 55 f9 3c 0b e4 cd ba fe 02 b2 3c 8d 21 18 bc
       0.030436162 -0.0015708221 0.021729942 -0.009285343
000230 37 94 6c bc 31 6b a2 bc ac 5e 12 bb 6d 34 25 bd
       -0.014439634 -0.019826503 -0.002233426 -0.0403332
000240 15 59 02 bd f5 16 ef 3b 8e 90 7d bc c7 20 ff bc
       -0.031823236 0.007296438 -0.015476359 -0.03114356
000250 96 34 20 bd 11 58 29 bd d5 60 ce bc 3e b4 04 3b
       -0.03911265 -0.041343752 -0.025192657 0.0020249034
000260 af 24 2d bc 21 78 2c bd af 53 0c bd b2 c1 e8 bb
       -0.010567828 -0.04210675 -0.034259494 -0.0071031684
000270 57 1d c1 bb d2 c0 2a bd ba 0e 22 bd 94 f8 a0 bb
       -0.00589339 -0.041687794 -0.039564826 -0.0049124453
000280 eb 82 9a bc d1 81 19 bd d7 d9 5b bc e7 32 5b 3c
       -0.018861255 -0.03747732 -0.013418636 0.013378835
000290 75 f9 1c bc 8a 0f 00 3d 2d ee e0 bc a0 ca a4 3c
       -0.00958096 0.03126482 -0.027457321 0.02011615
0002a0 91 a7 8b 3c c3 a9 d8 3c 9b 6f aa bc 7c a9 67 3c
       0.017047675 0.026448136 -0.02080517 0.014139529
0002b0 35 e4 4f bc 71 63 a4 bb 69 ce 0d 3d 1a 1e 97 3c
       -0.012688686 -0.005016737 0.034620676 0.01844697
0002c0 d7 70 01 bd a4 c5 01 bd 36 61 a4 3c 5b 4e 90 bc
       -0.031601753 -0.031682625 0.020065885 -0.017615488
0002d0 98 60 d7 bc 93 f7 f8 3b c0 e9 d7 3c 20 2f 1f bd
       -0.026291177 0.0075978725 0.026356578 -0.0388633
0002e0 c4 09 87 bb fc 86 26 bd 40 b6 b5 3c 9b fb 18 bd
       -0.004121037 -0.040656075 0.02218163 -0.037349325
0002f0 d6 ef 1f 3b 35 00 28 3c 7b 1f 28 bb cb 75 ec 3b
       0.0024404428 0.010253956 -0.002565353 0.0072161905
000300 ac 9d f8 3c c0 b4 17 3d 6b 81 2d bb c7 d9 2a 3d
       0.030348621 0.03703761 -0.0026474844 0.041711595
000310 e7 44 ba bc ba f1 0f bd 55 6b 0c 3d 4c c2 ff 3c
       -0.022737933 -0.035142638 0.034282047 0.031220578
000320 65 4c 22 bc 91 93 f2 3b e0 52 b0 3c 27 d6 5f 3c
       -0.009905909 0.007402845 0.021523893 0.013661898
000330 8d ba 4c bc 1a 11 1b bd a8 1e 07 bd ae a3 03 ba
       -0.012495649 -0.037858106 -0.03298822 -0.00050216436
000340 3c f6 6b bc ba b3 01 bd 4d 5f 85 3c bd bb a4 3c
       -0.014401969 -0.03166554 0.016280795 0.020109052
000350 1c 7f ce 3c d5 33 96 bc 32 63 a1 bc f1 2e a6 bc
       0.025207095 -0.018335262 -0.01970062 -0.020286055
000360 da 0d 11 bd 69 9f a5 3c e2 14 8d bc 5d 8d 2b 3d
       -0.0354136 0.020217614 -0.017221872 0.04188286
000370 e7 42 1d bd d8 71 b5 3c b8 a7 28 bc c9 32 90 bc
       -0.03839388 0.022149011 -0.0102938935 -0.017602341
000380 23 6a 02 bd da cc bb 3b 37 5e 90 3c eb 50 1d 3d
       -0.0318395 0.0057312073 0.01762305 0.038407248
000390 1c 01 d1 3b d8 83 01 3d f2 5c ec 3c 66 92 fc bb
       0.006378306 0.031619877 0.028852914 -0.0077078817
0003a0 93 c3 b0 bc d0 79 1a bd 47 f3 54 bc 17 c5 0d bd
       -0.021577632 -0.037713826 -0.012997455 -0.034611788
0003b0 d5 e3 ab 3c bf 62 18 3d bf b1 fa bc 08 75 fb 3b
       0.020982662 0.037203547 -0.030602334 0.0076738633
0003c0 ba 64 79 3c f5 95 4b bb 88 1e c5 3c 5e 69 89 3c
       0.015221769 -0.0031064723 0.02406241 0.016773876
0003d0 31 2d f8 bc 17 d0 50 bc 68 6d df bc 3b 1c 0a bd
       -0.030294986 -0.012744925 -0.027273849 -0.03371833
0003e0 53 85 df bc 01 a8 3b bc 5c 11 d0 3c 1f 05 7f b9
       -0.027285254 -0.0114536295 0.025398903 -0.00024320603
0003f0 77 bd c8 3c 9c d6 96 3c 8b 29 f2 3c ab 04 6c 3c
       0.024504406 0.01841288 0.029560825 0.01440541

pre_net.0.bias f4 [128]
000000 0d 69 18 3a 30 93 1a bd c0 a2 fc 3b ed bb c7 3c
       0.00058139936 -0.037738025 0.007709831 0.024381602
000010 b4 df b2 3c dc c6 9e bc 31 97 7d 3c ae 7c 27 3c
       0.021835186 -0.019381933 0.015477941 0.010222597
000020 99 4e 81 bc 50 5f c1 bc 19 69 88 ba 96 64 22 3c
       -0.015784549 -0.023605019 -0.0010407298 0.009911677
000030 1a d8 19 bc 57 6a 5c bc 6e e9 27 3d 1d 39 26 3d
       -0.0093899015 -0.013453088 0.0409941 0.04058181
000040 4d e8 1e 3d 15 d5 0a 3c f5 a5 a3 b9 f0 66 ff 3c
       0.038795758 0.008473654 -0.0003121343 0.031177014
000050 ae 8b d9 3c 9b c0 fc bc a5 4d fc 3b 9b 9f be bc
       0.026555862 -0.03085356 0.0076996856 -0.023269465
000060 62 d4 cf bc 72 df 8e bb e6 2b f6 3c 12 2f 3f 3c
       -0.025369827 -0.004360133 0.03005023 0.011668937
000070 12 01 31 bc af ac 1d 3d a8 69 ba bc 7f f8 9f bc
       -0.010803478 0.038494762 -0.022755459 -0.019527672
000080 c3 15 36 bc cd c8 b2 bc 6e 26 a5 3c 8d 4b d7 b9
       -0.011113587 -0.021824265 0.020159926 -0.00041064285
000090 11 b1 d2 b9 b9 10 9f bc d3 b8 9b 3b e4 99 e1 3c
       -0.00040186246 -0.019417154 0.0047522574 0.027539201
0000a0 dd 3d bf 3c 73 20 3f bc 4b cd ed 3c a8 08 13 bd
       0.023344928 -0.011665451 0.029028555 -0.035896927
0000b0 7f 65 16 3d 8c 58 f1 3c ae f0 1f bb f9 2e cb bc
       0.036717888 0.029461168 -0.002440493 -0.024802672
0000c0 3e 92 c6 bc 85 4f b9 ba 56 ca de 3c fa eb 05 3c
       -0.024239656 -0.0014138079 0.02719609 0.008173937
0000d0 fc ff 68 3c 12 00 da bc 75 48 e5 3c 5c 49 7b 3c
       0.014221188 -0.026611362 0.027988652 0.015337314
0000e0 db 7a eb bc 1a dd ff 3b 71 20 ca bc e5 d9 6e ba
       -0.028745105 0.00780834 -0.024673672 -0.00091114483
0000f0 4f f3 0e 3d 5c 6c 0c bc 98 e1 db 3b a0 ec 80 ba
       0.034900006 -0.008570757 0.0067102425 -0.0009836145
000100 de ea 02 bd b5 05 45 3b cc 11 04 bd 29 c9 66 3c
       -0.031962268 0.0030063216 -0.032243535 0.014086046
000110 db 39 a9 bc 16 13 bc 3a 8e 8d b6 3c 56 0d 2a bd
       -0.02065747 0.001434895 0.022284295 -0.041516624
000120 dd 2f f1 3c ab e9 a2 bc ba c5 44 bc a4 59 06 bd
       0.029441768 -0.019886812 -0.012010032 -0.03280033
000130 00 f1 07 bd 88 e8 b0 3c 08 d1 26 bd 36 ad 1b bd
       -0.03318882 0.021595255 -0.04072669 -0.038006984
000140 b5 c2 9d bb e0 73 09 bd fe d5 c6 bb dc e0 92 bc
       -0.0048144707 -0.033557773 -0.0060679903 -0.017929487
000150 52 3b f6 ba fe 7c d6 3c cb 23 21 bd 55 a9 96 bc
       -0.0018785989 0.026182648 -0.039340775 -0.01839129
000160 ef 2c 66 bc 7b 93 90 bc 8e f8 3f 3c ab 9c 04 3d
       -0.014048799 -0.01764845 0.011716975 0.032375973
000170 0b 59 1f bd ce c7 88 bc 37 b2 39 bc 37 c2 6c 3c
       -0.038903277 -0.016696837 -0.011333994 0.014450601
000180 9a c2 d7 bc cf f9 04 3d 23 88 00 bb ec c0 1f bd
       -0.02633791 0.0324648 -0.0019612394 -0.039002344
000190 c4 2e 23 3d 67 2b 1e bd 50 21 22 3d 69 5e 00 bd
       0.03983952 -0.03861561 0.03958255 -0.031340037
0001a0 c6 89 9b bc 4a 83 8a b9 31 2a a0 3b 3b 0c a4 3c
       -0.018986594 -0.0002641923 0.004887842 0.020025363
0001b0 4d b5 b1 bb 85 22 29 3d 62 63 84 3c ab 77 ed 3c
       -0.005423224 0.041292686 0.01616067 0.028987726
0001c0 c5 65 67 bc 58 27 13 3d 10 89 2f 3c d0 70 4b 3c
       -0.014123385 0.035926193 0.010713831 0.012417033
0001d0 dc fc c1 3c 05 d6 e2 bc bb 17 b1 3c 92 de c5 3c
       0.023680143 -0.027689943 0.02161776 0.024153981
0001e0 4d 4a 39 3c 60 f1 02 3d dd a2 f2 bc 42 18 00 3c
       0.011309219 0.031968474 -0.029618675 0.0078182835
0001f0 3b 9b 30 3c 7c 04 18 3d 3b bc 10 3d b6 b2 a6 3a
       0.010779197 0.03711365 0.03533576 0.0012718055

pre_net.1.weight f4 [128]
000000 00 00 80 3f 00 00 80 3f 00 00 80 3f 00 00 80 3f
       1.0 1.0 1.0 1.0
000010 00 00 80 3f 00 00 80 3f 00 00 80 3f 00 00 80 3f
       1.0 1.0 1.0 1.0
000020 00 00 80 3f 00 00 80 3f 00 00 80 3f 00 00 80 3f
       1.0 1.0 1.0 1.0
000030 00 00 80 3f 00 00 80 3f 00 00 80 3f 00 00 80 3f
       1.0 1.0 1.0 1.0
000040 00 00 80 3f 00 00 80 3f 00 00 80 3f 00 00 80 3f
       1.0 1.0 1.0 1.0
000050 00 00 80 3f 00 00 80 3f 00 00 80 3f 00 00 80 3f
       1.0 1.0 1.0 1.0
000060 00 00 80 3f 00 00 80 3f 00 00 80 3f 00 00 80 3f
       1.0 1.0 1.0 1.0
000070 00 00 80 3f 00 00 80 3f 00 00 80 3f 00 00 80 3f
       1.0 1.0 1.0 1.0
000080 00 00 80 3f 00 00 80 3f 00 00 80 3f 00 00 80 3f
       1.0 1.0 1.0 1.0
000090 00 00 80 3f 00 00 80 3f 00 00 80 3f 00 00 80 3f
       1.0 1.0 1.0 1.0
0000a0 00 00 80 3f 00 00 80 3f 00 00 80 3f 00 00 80 3f
       1.0 1.0 1.0 1.0
0000b0 00 00 80 3f 00 00 80 3f 00 00 80 3f 00 00 80 3f
       1.0 1.0 1.0 1.0
0000c0 00 00 80 3f 00 00 80 3f 00 00 80 3f 00 00 80 3f
       1.0 1.0 1.0 1.0
0000d0 00 00 80 3f 00 00 80 3f 00 00 80 3f 00 00 80 3f
       1.0 1.0 1.0 1.0
0000e0 00 00 80 3f 00 00 80 3f 00 00 80 3f 00 00 80 3f
       1.0 1.0 1.0 1.0
0000f0 00 00 80 3f 00 00 80 3f 00 00 80 3f 00 00 80 3f
       1.0 1.0 1.0 1.0
000100 00 00 80 3f 00 00 80 3f 00 00 80 3f 00 00 80 3f
       1.0 1.0 1.0 1.0
000110 00 00 80 3f 00 00 80 3f 00 00 80 3f 00 00 80 3f
       1.0 1.0 1.0 1.0
000120 00 00 80 3f 00 00 80 3f 00 00 80 3f 00 00 80 3f
       1.0 1.0 1.0 1.0
000130 00 00 80 3f 00 00 80 3f 00 00 80 3f 00 00 80 3f
       1.0 1.0 1.0 1.0
000140 00 00 80 3f 00 00 80 3f 00 00 80 3f 00 00 80 3f
       1.0 1.0 1.0 1.0
000150 00 00 80 3f 00 00 80 3f 00 00 80 3f 00 00 80 3f
       1.0 1.0 1.0 1.0
000160 00 00 80 3f 00 00 80 3f 00 00 80 3f 00 00 80 3f
       1.0 1.0 1.0 1.0
000170 00 00 80 3f 00 00 80 3f 00 00 80 3f 00 00 80 3f
       1.0 1.0 1.0 1.0
000180 00 00 80 3f 00 00 80 3f 00 00 80 3f 00 00 80 3f
       1.0 1.0 1.0 1.0
000190 00 00 80 3f 00 00 80 3f 00 00 80 3f 00 00 80 3f
       1.0 1.0 1.0 1.0
0001a0 00 00 80 3f 00 00 80 3f 00 00 80 3f 00 00 80 3f
       1.0 1.0 1.0 1.0
0001b0 00 00 80 3f 00 00 80 3f 00 00 80 3f 00 00 80 3f
       1.0 1.0 1.0 1.0
0001c0 00 00 80 3f 00 00 80 3f 00 00 80 3f 00 00 80 3f
       1.0 1.0 1.0 1.0
0001d0 00 00 80 3f 00 00 80 3f 00 00 80 3f 00 00 80 3f
       1.0 1.0 1.0 1.0
0001e0 00 00 80 3f 00 00 80 3f 00 00 80 3f 00 00 80 3f
       1.0 1.0 1.0 1.0
0001f0 00 00 80 3f 00 00 80 3f 00 00 80 3f 00 00 80 3f
       1.0 1.0 1.0 1.0

pre_net.1.bias f4 [128]
000000 00 00 00 00 00 00 00 00 00 00 00 00 00 00 00 00
       0.0 0.0 0.0 0.0
000010 00 00 00 00 00 00 00 00 00 00 00 00 00 00 00 00
       0.0 0.0 0.0 0.0
000020 00 00 00 00 00 00 00 00 00 00 00 00 00 00 00 00
       0.0 0.0 0.0 0.0
000030 00 00 00 00 00 00 00 00 00 00 00 00 00 00 00 00
       0.0 0.0 0.0 0.0
000040 00 00 00 00 00 00 00 00 00 00 00 00 00 00 00 00
       0.0 0.0 0.0 0.0
000050 00 00 00 00 00 00 00 00 00 00 00 00 00 00 00 00
       0.0 0.0 0.0 0.0
000060 00 00 00 00 00 00 00 00 00 00 00 00 00 00 00 00
       0.0 0.0 0.0 0.0
000070 00 00 00 00 00 00 00 00 00 00 00 00 00 00 00 00
       0.0 0.0 0.0 0.0
000080 00 00 00 00 00 00 00 00 00 00 00 00 00 00 00 00
       0.0 0.0 0.0 0.0
000090 00 00 00 00 00 00 00 00 00 00 00 00 00 00 00 00
       0.0 0.0 0.0 0.0
0000a0 00 00 00 00 00 00 00 00 00 00 00 00 00 00 00 00
       0.0 0.0 0.0 0.0
0000b0 00 00 00 00 00 00 00 00 00 00 00 00 00 00 00 00
       0.0 0.0 0.0 0.0
0000c0 00 00 00 00 00 00 00 00 00 00 00 00 00 00 00 00
       0.0 0.0 0.0 0.0
0000d0 00 00 00 00 00 00 00 00 00 00 00 00 00 00 00 00
       0.0 0.0 0.0 0.0
0000e0 00 00 00 00 00 00 00 00 00 00 00 00 00 00 00 00
       0.0 0.0 0.0 0.0
0000f0 00 00 00 00 00 00 00 00 00 00 00 00 00 00 00 00
       0.0 0.0 0.0 0.0
000100 00 00 00 00 00 00 00 00 00 00 00 00 00 00 00 00
       0.0 0.0 0.0 0.0
000110 00 00 00 00 00 00 00 00 00 00 00 00 00 00 00 00
       0.0 0.0 0.0 0.0
000120 00 00 00 00 00 00 00 00 00 00 00 00 00 00 00 00
       0.0 0.0 0.0 0.0
000130 00 00 00 00 00 00 00 00 00 00 00 00 00 00 00 00
       0.0 0.0 0.0 0.0
000140 00 00 00 00 00 00 00 00 00 00 00 00 00 00 00 00
       0.0 0.0 0.0 0.0
000150 00 00 00 00 00 00 00 00 00 00 00 00 00 00 00 00
       0.0 0.0 0.0 0.0
000160 00 00 00 00 00 00 00 00 00 00 00 00 00 00 00 00
       0.0 0.0 0.0 0.0
000170 00 00 00 00 00 00 00 00 00 00 00 00 00 00 00 00
       0.0 0.0 0.0 0.0
000180 00 00 00 00 00 00 00 00 00 00 00 00 00 00 00 00
       0.0 0.0 0.0 0.0
000190 00 00 00 00 00 00 00 00 00 00 00 00 00 00 00 00
       0.0 0.0 0.0 0.0
0001a0 00 00 00 00 00 00 00 00 00 00 00 00 00 00 00 00
       0.0 0.0 0.0 0.0
0001b0 00 00 00 00 00 00 00 00 00 00 00 00 00 00 00 00
       0.0 0.0 0.0 0.0
0001c0 00 00 00 00 00 00 00 00 00 00 00 00 00 00 00 00
       0.0 0.0 0.0 0.0
0001d0 00 00 00 00 00 00 00 00 00 00 00 00 00 00 00 00
       0.0 0.0 0.0 0.0
0001e0 00 00 00 00 00 00 00 00 00 00 00 00 00 00 00 00
       0.0 0.0 0.0 0.0
0001f0 00 00 00 00 00 00 00 00 00 00 00 00 00 00 00 00
       0.0 0.0 0.0 0.0

pre_net.1.running_mean f4 [128]
000000 2b bc 0a bc eb c7 1b bd 34 2e 84 bc 05 5e 59 3c
       -0.008467714 -0.038032454 -0.016135313 0.013267045
000010 00 b9 c6 3c bf 98 dd bb 91 b8 df ba af 4e a2 3c
       0.024258137 -0.0067625935 -0.0017068555 0.01981291
000020 9b a6 08 bd f1 76 f8 bc 68 d6 ca 3c cd 33 9d 3c
       -0.033362012 -0.030330153 0.02476044 0.01918974
000030 92 e4 2e 3b f7 70 8c bc 18 b2 80 3d eb 21 34 3d
       0.0026686531 -0.01714371 0.06283969 0.04397766
000040 1b 79 21 3d cd a4 88 3c d2 cf 33 3c 1b 8e 1e 3d
       0.039422136 0.016680146 0.010974841 0.03870974
000050 59 cf 1e 3d 03 32 09 bd 77 5d 96 38 77 ef 2b bd
       0.03877196 -0.03349496 7.1699666e-05 -0.04197642
000060 6d 20 a5 bc 59 63 7b bc c1 5a 67 3c 69 51 0f 3c
       -0.020157063 -0.015343511 0.0141207585 0.008747437
000070 54 6e 43 bc 0f 9b 14 3d df 6f 30 bd 3b 03 4f bc
       -0.01192816 0.036280688 -0.04307544 -0.012635048
000080 1b 64 c1 bc 64 fb a1 bc 1c de 01 3d 5c c2 9b bc
       -0.023607304 -0.019773193 0.03170596 -0.019013576
000090 f3 ed 61 3c 1b 30 88 bc a5 74 4d 3c ab 8a 71 3c
       0.013789642 -0.016624501 0.012540017 0.014742534
0000a0 6e 7f ad 3c 25 01 c6 bc ad f0 e0 3c b9 0b 54 bd
       0.021178927 -0.024170468 0.027458513 -0.051768992
0000b0 44 d0 2d 3d d3 c3 25 3d fa f1 2a 3c 70 d7 e8 bc
       0.042434946 0.040469956 0.010433668 -0.028423041
0000c0 d8 a5 76 bc 3f 64 33 bc 77 94 8b 3c cc 0d a2 3c
       -0.015054189 -0.0109491935 0.017038567 0.01978197
0000d0 30 f4 58 3c 9e 46 0e bd 20 c2 1e 3d 42 bc 69 3c
       0.013241813 -0.034735315 0.03875935 0.014266076
0000e0 68 44 d0 bc 08 0f bf 3a 2c 37 b9 bc 07 39 67 bc
       -0.025423244 0.0014576623 -0.022609316 -0.0141127175
0000f0 6c 30 64 3d ac 50 5a bc 6a ce 75 3c 5c 2c 3f bb
       0.05571024 -0.013324898 0.015002826 -0.0029170727
000100 32 7b b5 bc cf 6e 16 3c 38 83 e1 bc 9f b7 2f 3c
       -0.02215347 0.009181692 -0.02752839 0.010724931
000110 f8 b7 09 bd 11 a9 d7 bb 1b 5b f4 3c 0f 0d 43 bd
       -0.033622712 -0.0065814336 0.029828599 -0.047619876
000120 2c 5b 0b 3d 37 67 90 bc a4 90 8f bb 14 cf 92 bc
       0.034022495 -0.017627342 -0.004381256 -0.017921008
000130 be 43 1e bd 06 c2 21 3d 68 b8 1b bd cb 52 e5 bc
       -0.038638823 0.039491676 -0.03801766 -0.02799358
000140 9e 5e ae 3a 03 90 ca bc 71 cf 37 3c ee 79 ab bc
       0.0013303345 -0.024726873 0.0112188915 -0.020932164
000150 83 34 17 bc b8 9b 88 3c 5b e1 cc bc a4 e9 a4 bc
       -0.009228828 0.016675815 -0.025009802 -0.02013094
000160 22 7b 5c bc 0d cf 0a bc d1 6f 03 3b 44 eb 99 3c
       -0.0134570915 -0.008472216 0.0020055661 0.018788941
000170 fe 06 11 bd 04 96 75 bc 32 72 4c bc be b8 38 3c
       -0.03540706 -0.01498938 -0.012478398 0.011274515
000180 f5 09 0d bd b2 a8 34 3c e3 e1 d8 3a a4 61 41 bd
       -0.034433324 0.011026548 0.0016546812 -0.047212258
000190 4a 2b 37 3d 40 29 10 bd df a4 65 3d 1f 6a 04 bd
       0.044719018 -0.03519559 0.056065436 -0.032327767
0001a0 98 64 56 b8 03 fe 7d bc 6e d3 71 bb ae 33 f2 3b
       -5.111526e-05 -0.015502456 -0.0036899704 0.0073914146
0001b0 99 cb cd bb 11 31 2a 3d 65 79 f9 3a 3f d8 07 3c
       -0.0062803742 0.0415507 0.0019033371 0.008291303
0001c0 d3 0c 7c bc cf 56 4c 3d e6 5f 30 3c 75 4b 30 bb
       -0.015383917 0.049887475 0.0107650515 -0.0026900445
0001d0 ac f8 47 3c cc 8b 1e bc 78 1d 8e 3c 44 df 1e 3d
       0.012205284 -0.009676885 0.017348036 0.03878714
0001e0 d0 8f 47 3c af 51 bb 3c ba 6e b5 bc 38 4c 24 3c
       0.012180284 0.022866098 -0.022147525 0.010027938
0001f0 f7 98 ac 3c 2c 40 31 3d ed 02 d5 3c c5 fd b1 3b
       0.021069033 0.04327409 0.026002372 0.005431863

pre_net.1.running_var f4 [128]
000000 7c b5 2c 3e 5b c7 17 3e 87 56 a5 3e 85 a0 67 3e
       0.16866106 0.14822142 0.32292578 0.22619827
000010 14 3d 31 3e 83 76 23 3e 6a f4 87 3e 31 0d 79 3e
       0.17308456 0.15963177 0.2655366 0.24321438
000020 ef ec 73 3e a6 5e e9 3d 41 2d 19 3e f3 35 9e 3e
       0.23820852 0.11395006 0.14958669 0.30900535
000030 c1 47 6f 3e d7 63 7e 3e a2 80 86 3e 9c 1b fe 3d
       0.23367216 0.24842773 0.26270014 0.1240761
000040 45 5a 1a 3f 2c d8 87 3e 82 ff a0 3e de fe 84 3e
       0.6029399 0.26532114 0.31444937 0.25975698
000050 2a eb 6a 3e 4b 02 40 3e ef eb 21 3e e7 de 5a 3e
       0.2294127 0.18750875 0.15812658 0.21374093
000060 af 52 17 3e 60 56 63 3e 67 bc 52 3e 86 22 33 3e
       0.14777635 0.22200918 0.20579682 0.17493638
000070 7c ba 4c 3e 05 fa 31 3e dd e1 9b 3e e6 38 95 3e
       0.19993013 0.17380531 0.30445758 0.29144973
000080 d3 74 90 3e 43 38 40 3e 5f ee 4e 3e 59 f7 52 3e
       0.2821413 0.18771462 0.20208119 0.20602168
000090 8b 08 33 3e c0 6e 6d 3e 40 bb 69 3e c4 92 4f 3e
       0.17483728 0.23186779 0.22825336 0.2027083
0000a0 d8 33 27 3e 3b dd 38 3e a7 a6 c5 3e f1 12 5d 3e
       0.1632837 0.18053143 0.38603708 0.21589257
0000b0 89 dc 3a 3e ac 26 1a 3e 39 b3 62 3e 96 2c d6 3e
       0.1824819 0.15053815 0.2213868 0.4183089
0000c0 11 f6 89 3e 88 e0 98 3e d8 bf 45 3e f9 d4 40 3e
       0.26945546 0.29858804 0.19311464 0.18831243
0000d0 6f 28 29 3e dd 9e a2 3e 8a 55 35 3e e3 d2 36 3e
       0.1651933 0.31761828 0.17708412 0.17853884
0000e0 6f 80 99 3e d4 86 16 3e 55 e0 46 3e ca 18 55 3e
       0.299808 0.1469987 0.19421513 0.20810238
0000f0 78 14 33 3e 78 5c 0a 3e 1c 80 fd 3d f8 f8 36 3e
       0.17488277 0.13511837 0.123779505 0.17868412
000100 01 fb 8e 3e 60 c3 74 3e 41 7e c6 3e 37 f8 b0 3e
       0.27925876 0.23902655 0.387682 0.34564373
000110 50 19 6d 3e 03 24 95 3e a5 08 5f 3e 52 12 31 3e
       0.23154187 0.29129037 0.21780641 0.17292145
000120 09 54 30 3e 72 02 03 3f ef 33 30 3e b3 92 11 3e
       0.17219557 0.51175606 0.17207311 0.14216118
000130 86 21 5e 3e fe 38 85 3e dd 91 61 3e 91 05 22 3e
       0.21692476 0.26020044 0.22028299 0.15822436
000140 3b 86 05 3e 30 5d 65 3e 04 6c b9 3e be 19 8d 3e
       0.13039486 0.2239883 0.36215222 0.27558702
000150 a2 8c b2 3e 34 34 29 3e 8a 89 37 3e 8a aa 92 3e
       0.3487292 0.1652382 0.1792356 0.28645736
000160 83 f1 8c 3e 05 c4 01 3e 24 d2 96 3e 2b e0 0d 3e
       0.2752801 0.12672432 0.294572 0.13855045
000170 29 3f 19 3e b5 fa 82 3e f1 84 18 3e 63 91 0b 3e
       0.149655 0.255819 0.14894463 0.1362968
000180 aa bc 1b 3e 1b 32 43 3e 4a 35 e1 3e 0c 2f 08 3e
       0.15208688 0.19062082 0.4398597 0.13299197
000190 ed 40 9c 3e 0e 68 62 3e c9 78 72 3e 13 4a 49 3e
       0.30518284 0.22110006 0.23678888 0.19657163
0001a0 36 7a 8f 3e 7e 36 a9 3e af 93 72 3e 02 2d af 3e
       0.28022927 0.33049387 0.2368915 0.34214026
0001b0 0f cf 76 3e 94 e0 9f 3e 82 9c 66 3e 96 01 72 3e
       0.24102424 0.31226027 0.2252064 0.23633417
0001c0 83 b8 0e 3e 39 b7 5e 3e 23 d5 3f 3e c6 34 32 3e
       0.13937573 0.21749581 0.18733649 0.17402944
0001d0 82 28 8e 3e f1 1d 80 3e 99 8c 31 3e 91 ad 8c 3e
       0.2776528 0.25022843 0.1733879 0.2747617
0001e0 5f 38 cc 3e 69 8d 4f 3e e9 52 47 3e 81 e5 49 3e
       0.39886758 0.20268787 0.19465221 0.19716455
0001f0 45 95 2f 3e 44 ac 2b 3e ee 63 9c 3e 27 3d 4d 3e
       0.17146786 0.16764933 0.3054499 0.20042859

pre_net.4.weight f4 [64, 128]
000000 65 21 f3 bc 99 7b fb bb 63 fd 26 bd c1 3b ad bd
       -0.02967901 -0.007674646 -0.040768992 -0.08458663
000010 34 9b 32 3d cd 7c 94 bc 7b 08 10 bd 4a bb 25 bc
       0.043605044 -0.018125916 -0.035164338 -0.010115454
000020 e8 10 6d bd ea f6 eb bc 93 52 a0 bc 5c 2e 91 bd
       -0.05787745 -0.028804261 -0.019570624 -0.070889205
000030 19 84 8e bd 27 c3 c3 3c 4f cf 06 3d a8 1c 12 bd
       -0.069587894 0.023896767 0.03291255 -0.03567186
000040 3d b0 08 3c d6 ba f3 3c f9 1f 74 3d d4 e8 39 bd
       0.0083428 0.029752176 0.059600804 -0.045388058
000050 9d 40 8e 3d 6b 4f 52 3c 0d 1e 87 bc 4a 89 db 3c
       0.06945918 0.0128363175 -0.016493822 0.026798863
000060 6c e0 67 bc bc 43 27 3c 3b d5 36 bd 2b 18 ae bd
       -0.014152627 0.01020902 -0.044636946 -0.085007034
000070 27 9c 0c 3b 28 ac 94 bd 09 46 cc bc ed 8f a7 bc
       0.0021455379 -0.07259399 -0.02493574 -0.020454371
000080 a5 d7 0f 3b b3 93 9b 3c 63 1f 85 bc 76 e7 b6 3c
       0.0021948603 0.018991327 -0.016250318 0.022327166
000090 a6 9a 96 bd f0 ab 8f 3c f2 f5 1b bc 1d 68 65 bd
       -0.073537156 0.01753804 -0.009519087 -0.056007493
0000a0 01 4a 63 bd ed 4d 8f bd 6a 59 ee bc 7a 32 55 3c
       -0.055490497 -0.06997285 -0.02909537 0.013012523
0000b0 d5 ea 98 3d 0e 7c e7 3b e0 57 47 bd 82 65 1b bd
       0.07466666 0.007064349 -0.04866779 -0.037938602
0000c0 02 fb 81 bd 79 e8 5b bd ee f2 b6 bc 46 d3 98 bd
       -0.06346704 -0.0536885 -0.022332635 -0.07462172
0000d0 96 8a 7e bc 6b 02 b1 3d c2 19 54 bd 0b 84 7e 3c
       -0.015535971 0.08643039 -0.051782377 0.015534411
0000e0 46 19 25 3d 75 af 75 bd e9 8a 2b 3d ed a6 ad 3d
       0.040307306 -0.059981782 0.041880522 0.08479104
0000f0 53 94 94 3d 57 ad a3 bd 5a 69 08 bc 9e 66 ec 3c
       0.07254853 -0.07992046 -0.008325899 0.028857525
000100 9f ca 04 bd 2d 7a 82 bc 3f 07 0f bd 9a 82 59 bd
       -0.032419797 -0.015927399 -0.03491902 -0.053103067
000110 9f 50 74 3d f0 8b 80 bd a3 0e 7d 3d 65 6c ee ba
       0.0596472 -0.06276691 0.061781537 -0.0018190263
000120 ca b2 d6 3c 00 17 27 bd 88 35 a3 3d ba 53 8a bd
       0.0262083 -0.04079342 0.07969195 -0.06754251
000130 9d b7 a7 bd 1e 48 ae bc 1f c5 e0 3c 63 67 81 bd
       -0.08189318 -0.021274623 0.027437745 -0.063185476
000140 bc 19 19 bd 66 86 da 3c 8d 24 43 bd 0a 32 76 3d
       -0.037378058 0.026675414 -0.04764228 0.060106315
000150 86 3e 20 bd be 7e 62 bd 45 cc d6 bc 4b 11 e1 bc
       -0.039122127 -0.055296652 -0.02622045 -0.027474066
000160 f6 6b 4f bc 48 2d af 3d 8c 61 09 3c 08 f0 aa bc
       -0.012660017 0.085535586 0.008385073 -0.020866409
000170 d0 9b 8a 3c 76 5e 68 3c ca ca c5 bc 88 7f 89 bc
       0.01692 0.0141826775 -0.024144549 -0.016784444
000180 21 e7 34 bd 9e a4 85 3d eb 3f e5 bb 32 43 5b bb
       -0.044165734 0.06525539 -0.006996145 -0.00334568
000190 0a f2 22 3d 6a a5 ba bc 33 91 4e bd 64 13 81 3d
       0.039781608 -0.022783954 -0.05043144 0.063025266
0001a0 bd 60 a9 3c 83 a4 84 bd 71 62 98 bc 74 ca 8b 3d
       0.020676011 -0.064766906 -0.018601628 0.06825724
0001b0 ff a7 1f bd 6b 66 d3 3a 64 af 23 bd 3a 04 3c 3d
       -0.038978573 0.0016128545 -0.039962187 0.04590247
0001c0 e2 af e9 3c 75 fc 14 3b 9f 50 1e bc f6 75 23 bc
       0.02852625 0.0022733484 -0.009662776 -0.009976855
0001d0 c9 87 74 bd f1 f0 25 bd 68 fb 89 3c fd 8a 9e bd
       -0.059699807 -0.040512983 0.016843513 -0.07741354
0001e0 5c 42 83 bd ce bf 82 3c 14 3f 04 bc 99 12 88 3c
       -0.064091414 0.0159606 -0.00807168 0.01661043
0001f0 a9 40 6f 3c 39 ce 04 3c 4b a9 38 3d e3 d1 09 3c
       0.0146028185 0.008105808 0.045083325 0.008411857
000200 16 a6 ef bb 6e b7 1b 3d ba 20 2c 3c 88 a2 a9 bd
       -0.0073135 0.03801673 0.0105058495 -0.082829535
000210 bd f4 69 3c 36 1f 91 3c 53 07 76 3d fc d3 2f bd
       0.014279542 0.017715078 0.06006558 -0.042926773
000220 a2 25 7a 3d bf b1 87 3c 34 f2 1c 3d 5c 60 d8 bc
       0.061071046 0.016564248 0.03831692 -0.026413135
000230 da 1b 53 bd 17 b7 4d 3d 43 8d fd bc 9e 22 cc 3c
       -0.051540233 0.050223436 -0.030951148 0.02491885
000240 e7 b3 ae bd be 7e 47 3d 8c 72 6a 3d 97 dd 0f 3d
       -0.085304074 0.048704855 0.057238147 0.035123434
000250 b7 a6 2e bb e4 3d ad bc 73 44 ad bd 56 9f 21 bd
       -0.0026649663 -0.021147676 -0.08460321 -0.039458595
000260 b6 91 28 3c 74 b0 27 bd 94 a2 9b 3d 9e f2 1d bd
       0.010288646 -0.040939763 0.07599369 -0.038561456
000270 9d 24 0f bd 72 9c a9 bc 4f 7e a8 3c 47 0f d5 bc
       -0.034947027 -0.020704482 0.020568041 -0.026008261
000280 9d b5 b1 bc 86 11 a9 3d 48 83 2e 3d e1 fd a1 bd
       -0.021693045 0.082552955 0.04260567 -0.07909752
000290 94 52 35 bd 0b 58 18 bd e7 16 72 3b e5 a3 4e bc
       -0.044268206 -0.03719334 0.003693992 -0.012612318
0002a0 03 da 11 bd 9f c2 39 bd f5 55 26 3d be 5d a5 3d
       -0.035608303 -0.04535162 0.04060932 0.080745205
0002b0 d0 b9 8d bd d2 af 0c bc f2 6e a9 3c 65 df 1d ba
       -0.069202065 -0.008586841 0.020682786 -0.0006022363
0002c0 74 20 58 bd b6 96 6c bd a3 02 7f 3d 5e 18 a4 3d
       -0.052765325 -0.057760917 0.062258374 0.0801246
0002d0 84 a3 79 3c 11 44 b0 bd ec c7 22 bc 7e 86 ea 3b
       0.015236739 -0.08606733 -0.00993536 0.007157146
0002e0 68 76 0b bd e3 dd cc bc eb ec 0c 3d fb ca 1a bd
       -0.034048468 -0.025008148 0.03440563 -0.037791234
0002f0 8d 9e 8d 3d 3f 0a 0a 3d d9 16 c2 bc 44 29 a6 3c
       0.06915007 0.033701178 -0.023692535 0.020283349
000300 ec f4 4a 3c d4 74 ac bc 2e 76 2e 3d 69 75 9a bb
       0.0123874955 -0.021051802 0.042593174 -0.0047137034
000310 ad 66 87 bd 77 6d 82 bd 7f ac 0e bc 52 1b 7f 3b
       -0.06611381 -0.06368535 -0.008708118 0.0038926196
000320 62 9d 23 3c fb bc 5e bd 98 8c 65 bc 3a e5 aa 3c
       0.009986253 -0.054379445 -0.014010571 0.020861257
000330 1b 0c 0e bd 13 17 a5 3d 5c f9 45 3d 10 81 49 3d
       -0.034679513 0.08061042 0.04833351 0.04919535
000340 e4 bd b7 bc ea 23 98 3d 70 95 94 3d 57 01 3b bd
       -0.022429414 0.07428725 0.072550654 -0.045655575
000350 3b a4 08 3d 89 e9 67 3d 9b 03 d2 3c d7 b1 b2 bd
       0.033359747 0.0566192 0.025636485 -0.087253265
000360 35 6b 98 bd ee 5e 50 bd 45 22 b1 bd 8c d5 a3 3d
       -0.07442323 -0.050871782 -0.086491145 0.07999715
000370 ff a5 da 3c bb 19 ab bc 4d 6e ae bc e4 6c a6 3d
       0.026690481 -0.020886293 -0.02129283 0.08126238
000380 67 a4 bd bc 8c ba 88 3d fe ea 61 bd c2 20 c0 3b
       -0.023149682 0.06676206 -0.055155747 0.00586328
000390 09 6e 0a bd 81 5b 48 3d f4 49 4d bd f1 62 ae 3d
       -0.033796344 0.04891539 -0.050119355 0.08514965
0003a0 fe 3f 55 bd 70 c2 34 bd 8a f2 99 3d 12 2d a1 bc
       -0.05206298 -0.044130743 0.07516964 -0.019674812
0003b0 f7 8a 3a 3d 08 f1 a6 3d 26 27 b2 bb 64 82 40 bd
       0.045542683 0.08151442 -0.0054367958 -0.04699935
0003c0 b9 9a fd bc 19 bb 90 bd 5b c2 93 3d 65 fd 0e bd
       -0.030957567 -0.07066936 0.07214805 -0.034909625
0003d0 9a f1 94 3d c5 93 64 3d 10 71 aa bc 8f c2 cb ba
       0.07272644 0.055804987 -0.020805866 -0.0015545654
0003e0 c6 93 a6 bc 19 0d 10 3d 41 08 50 bd be 14 b4 3d
       -0.020334136 0.03516874 -0.05078912 0.08793019
0003f0 9e 45 b3 3c 1e 82 8f bd 38 15 b3 3d 8a 80 02 3d
       0.021883782 -0.0700724 0.087442815 0.031860866

pre_net.4.bias f4 [64]
000000 83 32 79 bc f1 82 90 bc 7a cd 83 bd cc 15 07 bd
       -0.015209797 -0.017640563 -0.06435676 -0.03297977
000010 d4 31 a1 3d 75 74 21 3d b2 8c 82 3d 70 5e 5c bd
       0.07870832 0.039417703 0.06374492 -0.053801
000020 a9 6c 9a bc 8f 88 5b bd b7 8e 84 bd 22 f9 a4 3d
       -0.018850641 -0.05359703 -0.06472533 0.08055331
000030 51 e7 a4 3d 58 ef 05 3c a7 b4 af 3c a5 2d 06 3d
       0.080519326 0.00817474 0.021448446 0.032758374
000040 ab 64 99 bd 9f 24 12 bd 24 8e 4e 3d 4e dc b2 bd
       -0.07489904 -0.035679456 0.050428525 -0.08733426
000050 37 b2 a8 3c a6 e2 55 bd 9c fe a3 3d 3d d7 a6 3d
       0.020592792 -0.052218102 0.08007547 0.08146522
000060 3f ea 21 3b 88 57 92 bc 74 80 97 bb 93 39 8b 3d
       0.0024706272 -0.017864004 -0.004623467 0.06798091
000070 5a 41 9d bd f4 17 f8 3c 19 30 89 3d 25 23 70 3d
       -0.076784804 0.03028486 0.06698627 0.058627266
000080 1e 36 d2 bc 46 10 dd 3c 0c f2 a1 3c d4 0f 16 bc
       -0.02566057 0.026985299 0.019768737 -0.009159047
000090 22 74 92 bd bd d6 8d 3d 5e 2c 98 3d c2 e1 9d bd
       -0.07151057 0.06925724 0.07430337 -0.077090755
0000a0 1c 4f 06 3c 6f 7f 1e 3d 71 fa 69 3d d1 a0 3a 3d
       0.008197572 0.03869575 0.057123605 0.045563523
0000b0 2f d1 fa bc 32 e8 ec 3c 48 ed 43 3d 0c 2d 86 3d
       -0.030617325 0.028919313 0.04783371 0.06551561
0000c0 1c c7 67 bd 4b 72 d5 3b 1a 35 9c 3d 32 a4 50 3d
       -0.05658637 0.006513869 0.07627316 0.05093784
0000d0 7f b4 9a 3d 66 dc 82 3c 0f d0 0a bd 55 1b 3e 3b
       0.07553958 0.015974235 -0.033889826 0.002900799
0000e0 b3 8a 4b ba 14 2d 88 3d 0d 11 e9 bc e7 6f a8 bd
       -0.0007764503 0.06649223 -0.028450513 -0.08224469
0000f0 07 92 85 3d db 42 8a bd b9 7c ea 3c 29 e2 3c 3d
       0.06521993 -0.06751033 0.028623926 0.04611412

pre_net.5.weight f4 [64]
000000 00 00 80 3f 00 00 80 3f 00 00 80 3f 00 00 80 3f
       1.0 1.0 1.0 1.0
000010 00 00 80 3f 00 00 80 3f 00 00 80 3f 00 00 80 3f
       1.0 1.0 1.0 1.0
000020 00 00 80 3f 00 00 80 3f 00 00 80 3f 00 00 80 3f
       1.0 1.0 1.0 1.0
000030 00 00 80 3f 00 00 80 3f 00 00 80 3f 00 00 80 3f
       1.0 1.0 1.0 1.0
000040 00 00 80 3f 00 00 80 3f 00 00 80 3f 00 00 80 3f
       1.0 1.0 1.0 1.0
000050 00 00 80 3f 00 00 80 3f 00 00 80 3f 00 00 80 3f
       1.0 1.0 1.0 1.0
000060 00 00 80 3f 00 00 80 3f 00 00 80 3f 00 00 80 3f
       1.0 1.0 1.0 1.0
000070 00 00 80 3f 00 00 80 3f 00 00 80 3f 00 00 80 3f
       1.0 1.0 1.0 1.0
000080 00 00 80 3f 00 00 80 3f 00 00 80 3f 00 00 80 3f
       1.0 1.0 1.0 1.0
000090 00 00 80 3f 00 00 80 3f 00 00 80 3f 00 00 80 3f
       1.0 1.0 1.0 1.0
0000a0 00 00 80 3f 00 00 80 3f 00 00 80 3f 00 00 80 3f
       1.0 1.0 1.0 1.0
0000b0 00 00 80 3f 00 00 80 3f 00 00 80 3f 00 00 80 3f
       1.0 1.0 1.0 1.0
0000c0 00 00 80 3f 00 00 80 3f 00 00 80 3f 00 00 80 3f
       1.0 1.0 1.0 1.0
0000d0 00 00 80 3f 00 00 80 3f 00 00 80 3f 00 00 80 3f
       1.0 1.0 1.0 1.0
0000e0 00 00 80 3f 00 00 80 3f 00 00 80 3f 00 00 80 3f
       1.0 1.0 1.0 1.0
0000f0 00 00 80 3f 00 00 80 3f 00 00 80 3f 00 00 80 3f
       1.0 1.0 1.0 1.0

pre_net.5.bias f4 [64]
000000 00 00 00 00 00 00 00 00 00 00 00 00 00 00 00 00
       0.0 0.0 0.0 0.0
000010 00 00 00 00 00 00 00 00 00 00 00 00 00 00 00 00
       0.0 0.0 0.0 0.0
000020 00 00 00 00 00 00 00 00 00 00 00 00 00 00 00 00
       0.0 0.0 0.0 0.0
000030 00 00 00 00 00 00 00 00 00 00 00 00 00 00 00 00
       0.0 0.0 0.0 0.0
000040 00 00 00 00 00 00 00 00 00 00 00 00 00 00 00 00
       0.0 0.0 0.0 0.0
000050 00 00 00 00 00 00 00 00 00 00 00 00 00 00 00 00
       0.0 0.0 0.0 0.0
000060 00 00 00 00 00 00 00 00 00 00 00 00 00 00 00 00
       0.0 0.0 0.0 0.0
000070 00 00 00 00 00 00 00 00 00 00 00 00 00 00 00 00
       0.0 0.0 0.0 0.0
000080 00 00 00 00 00 00 00 00 00 00 00 00 00 00 00 00
       0.0 0.0 0.0 0.0
000090 00 00 00 00 00 00 00 00 00 00 00 00 00 00 00 00
       0.0 0.0 0.0 0.0
0000a0 00 00 00 00 00 00 00 00 00 00 00 00 00 00 00 00
       0.0 0.0 0.0 0.0
0000b0 00 00 00 00 00 00 00 00 00 00 00 00 00 00 00 00
       0.0 0.0 0.0 0.0
0000c0 00 00 00 00 00 00 00 00 00 00 00 00 00 00 00 00
       0.0 0.0 0.0 0.0
0000d0 00 00 00 00 00 00 00 00 00 00 00 00 00 00 00 00
       0.0 0.0 0.0 0.0
0000e0 00 00 00 00 00 00 00 00 00 00 00 00 00 00 00 00
       0.0 0.0 0.0 0.0
0000f0 00 00 00 00 00 00 00 00 00 00 00 00 00 00 00 00
       0.0 0.0 0.0 0.0

pre_net.5.running_mean f4 [64]
000000 32 2c ea be ab 4b 15 3d 86 1b e5 bd b1 54 34 be
       -0.45736843 0.036449116 -0.1118689 -0.17610432
000010 b4 20 d7 bd a0 24 e0 be 8c 06 45 be 77 27 1e be
       -0.105042845 -0.43777943 -0.19240779 -0.15444742
000020 f5 da b7 bd 83 4e d2 bd 65 e8 0f be 4b fe 8a 3d
       -0.089773096 -0.10268881 -0.14053495 0.06786784
000030 82 5a 16 3e 25 c4 28 be 2a 41 42 be c4 61 7f bd
       0.14682963 -0.16481073 -0.1897017 -0.062349096
000040 b3 c1 62 bc 61 ef eb be 87 49 49 be 50 2b 83 be
       -0.013840127 -0.4608107 -0.19656955 -0.25618982
000050 ac 70 0b be 60 ba 2f be 68 47 39 3e 94 b3 3e 3f
       -0.136172 -0.1716094 0.18093646 0.74492764
000060 85 4e e2 3d 89 67 97 3e 9a 33 9f 3d b7 0e 2b 3d
       0.11050133 0.2957118 0.07773514 0.04176208
000070 f2 3c df 3d a3 aa 67 3e b0 17 f9 3e bc bf 42 bd
       0.10900296 0.22623686 0.48650885 -0.047546133
000080 28 1a a3 3d a9 20 22 3d 5d 41 a0 be 47 d7 b5 3d
       0.07963973 0.03958193 -0.31299868 0.088789515
000090 78 75 19 3d 7e ae d4 bd 77 64 b8 be 57 b4 a2 bd
       0.037465543 -0.10384844 -0.3601415 -0.07944553
0000a0 90 6c db be f4 18 40 be 34 16 89 3e d3 b0 6b be
       -0.42856264 -0.18759519 0.26774752 -0.23016672
0000b0 12 71 0b 3e 6d 3e 00 3d d1 e1 b2 bc 0e d2 14 3f
       0.13617352 0.031309534 -0.021836193 0.5813302
0000c0 70 96 3a be 00 48 bd bc a8 2e db 3d 41 2b 02 3e
       -0.1822145 -0.023105621 0.10702258 0.12711813
0000d0 39 17 03 3d 8b ad e7 bd 9c 8f 34 3d b3 5f 4c 3d
       0.03200457 -0.113123976 0.04408227 0.049895953
0000e0 4d d6 2f be 9b cc ef 3d 9b 53 93 be e7 42 18 3e
       -0.17171593 0.11708947 -0.28774723 0.14869271
0000f0 5b 69 26 3e e1 03 c2 bd 68 11 a9 bd af 80 a9 3d
       0.16251127 -0.09473396 -0.08255273 0.082764976

pre_net.5.running_var f4 [64]
000000 eb 28 6c 3e d8 7f 25 3e 6c 6a 1c 3e 03 f0 17 3e
       0.23062484 0.1616205 0.15274972 0.14837651
000010 67 bd 2c 3e 62 d7 7d 3e 0f 84 6f 3e 6e b2 0a 3e
       0.16869126 0.24789193 0.2339022 0.13544628
000020 c6 3a 32 3e 4e 6e 66 3e d4 54 39 3e f5 37 fb 3d
       0.17405233 0.22503015 0.18098766 0.12266532
000030 8c 04 57 3e 52 e9 3b 3e a3 79 6b 3e 83 08 63 3e
       0.20997828 0.18350723 0.2299562 0.22171216
000040 40 c3 6a 3e 48 d7 1c 3e 5b 3c 3b 3e 30 3d 84 3e
       0.22926044 0.15316498 0.18284743 0.25827932
000050 30 aa 7a 3e 0f 73 37 3e 43 3d 3d 3e 58 f5 7e 3e
       0.24478984 0.17914985 0.184804 0.24898279
000060 55 82 1a 3e 65 c0 28 3e 2a f8 0f 3e e8 b6 48 3e
       0.1508878 0.16479643 0.14059511 0.19601023
000070 dc 0e 3e 3e 57 a0 34 3e b7 a3 67 3e f7 18 3d 3e
       0.18560356 0.1763929 0.22621046 0.18466555
000080 30 34 03 3e 62 5f 49 3e 4f 3e 47 3e ee de 38 3e
       0.12812877 0.19665292 0.19457363 0.18053791
000090 60 b3 2e 3e eb 30 08 3e ed fd 95 3e 42 2c 2a 3e
       0.17060614 0.1329991 0.29295292 0.16618446
0000a0 de 2a 3e 3e b5 80 1f 3e bd f9 3c 3e da 1d 32 3e
       0.1857104 0.15576442 0.18454643 0.173942
0000b0 e7 71 40 3e 84 f1 22 3e 08 b7 2f 3e b1 b8 5b 3e
       0.1879345 0.15912443 0.17159665 0.21457173
0000c0 79 c1 5d 3e 7b e4 3b 3e 19 32 2f 3e f6 12 f5 3d
       0.21655835 0.18348877 0.17108954 0.11966507
0000d0 82 0e 29 3e 51 c5 55 3e 1b 39 51 3e 21 4b 28 3e
       0.1650944 0.20876051 0.2043194 0.1643491
0000e0 39 47 20 3e 15 5c 46 3e 42 4c 22 3e 4d d8 3e 3e
       0.1565217 0.19371064 0.15849403 0.186372
0000f0 d8 53 23 3e 96 2a 52 3e 63 83 18 3e e5 30 58 3e
       0.15949953 0.20524058 0.1489387 0.21112402

pre_net.8.weight f4 [8, 64]
000000 d4 53 8c bd 10 d8 a9 bc 38 32 94 3c 94 1d be bd
       -0.068519264 -0.02073291 0.018090352 -0.09282985
000010 52 a6 e8 bd c6 7b c9 bd c0 e4 91 bb 1e 65 fa bd
       -0.11359848 -0.09838061 -0.004452318 -0.12226318
000020 7c 29 6e bd e8 c2 e9 bc e2 0b d7 bd ae 1a ff bd
       -0.05814503 -0.028535321 -0.10500313 -0.124562606
000030 d8 65 ff 3c d4 13 0f 3d 30 d0 d3 bc e0 4f 50 3c
       0.031176493 0.03493102 -0.025856107 0.012714356
000040 60 41 af bc 6e 0e cd 3d a8 1c a0 3d 58 fa 42 3d
       -0.021393478 0.10012518 0.07817966 0.047602028
000050 28 e6 8a bc 28 d4 b6 3c 30 87 08 bd 0e db f8 bd
       -0.01695545 0.02231796 -0.03333205 -0.12151156
000060 94 b4 c7 3d 5c 6a 16 3d a0 c7 e6 bc e4 8a d9 bd
       0.097512394 0.036722526 -0.02817136 -0.106221944
000070 ac ea 64 3d 46 47 98 bd 64 46 0f 3d 9e 29 d1 3d
       0.055887863 -0.07435469 0.03497924 0.10213016
000080 d8 4e b3 bc 90 50 6e bc 62 16 a3 bd d0 81 ca bd
       -0.021888182 -0.014545575 -0.079632536 -0.09888041
000090 4c a6 4c bd 66 55 a6 bd b4 47 6d 3d 76 22 f4 bd
       -0.04996328 -0.08121757 0.05792971 -0.119206354
0000a0 66 c5 e8 bd 5c 73 1c 3d f2 e9 bc bd 18 cc 35 bd
       -0.11365776 0.038195953 -0.09224309 -0.044384092
0000b0 be ee cd 3d 58 5c 91 3c 68 53 52 bd 80 0f 50 3c
       0.10055302 0.017744228 -0.051349074 0.012699008
0000c0 10 af 68 3c 20 61 cf bb a0 42 f3 bd 2c 77 f4 3d
       0.014201894 -0.006328717 -0.11877942 0.11936793
0000d0 ce 5c ad bd 9c 23 0d bd 84 bb 67 bd b8 3d d2 bc
       -0.08464967 -0.034457788 -0.056575313 -0.025664195
0000e0 80 31 c2 bd 78 81 bc 3d 92 fe c8 3d 7c 62 c4 bd
       -0.094820976 0.09204382 0.098141804 -0.09589097
0000f0 56 43 ee bd 72 74 e4 bd 20 89 5f 3c 10 5b 6d 3d
       -0.11633937 -0.11155023 0.013643533 0.057948172
000100 d2 a1 8e 3d ce b3 a3 3d 20 96 fc bc 30 ef ba bd
       0.069644585 0.079932794 -0.030833304 -0.09127653
000110 d0 e7 0b 3c 56 c5 e5 bd 50 4b a9 bd c4 b8 09 3d
       0.008539155 -0.112192795 -0.08266318 0.03362347
000120 d0 36 f6 bd 32 96 99 3d 04 0e ce 3d 48 6b 7e 3d
       -0.120221734 0.074993506 0.10061267 0.06211403
000130 54 00 4b bd 48 26 31 3d 7e d7 d5 3d 22 ca cf 3d
       -0.04956086 0.0432494 0.104414925 0.10145976
000140 b6 32 d4 bd 00 a9 9c ba bc 72 20 bd 4c 76 49 3d
       -0.10361235 -0.0011952221 -0.03917192 0.049185082
000150 70 5d 3a 3d d0 69 9c bc 80 a4 21 3c f0 19 3d bd
       0.045499265 -0.019093424 0.00986588 -0.046167314
000160 7a b0 d0 bd ea 37 d0 3d 18 53 0d 3d c0 fc 76 3b
       -0.1018991 0.10166915 0.034503073 0.0037687272
000170 0e b9 b3 bd 10 e2 6f bc 76 34 de bd 88 74 53 bd
       -0.08775531 -0.0146413 -0.1084985 -0.051624805
000180 2c 63 97 bd 10 e6 3e bd 5c 83 cf 3d 90 66 f1 3d
       -0.073919624 -0.046606123 0.10132477 0.1178714
000190 ba 2f 8d 3d 78 88 96 bc 38 99 10 3d 78 91 c7 bd
       0.06893869 -0.01837562 0.03530237 -0.09744543
0001a0 ec 05 40 3d d0 a0 52 bc 2a f6 9e bd e0 d1 8f 3d
       0.046880648 -0.0128557235 -0.07761796 0.07022452
0001b0 7c 70 86 bd 8a 3a 87 bd 60 e7 af bd f4 fd 68 bd
       -0.065644234 -0.06602962 -0.08589053 -0.056882814
0001c0 00 35 f3 3a 58 24 09 3d cc 49 82 bd 24 c1 f2 3d
       0.0018555224 0.033481926 -0.06361732 0.11853245
0001d0 1a ce ff 3d 8c 30 e1 bd 48 c4 d5 bd 3a 0a a9 bd
       0.12490483 -0.10995588 -0.10437828 -0.08253904
0001e0 fc d6 ee bd e8 16 12 bd c8 4f b8 3c f2 34 99 bd
       -0.11662099 -0.035666376 0.02249898 -0.07480802
0001f0 6c 77 dc 3d 6c 0b e2 bd 6c aa e3 3d 32 42 a1 3d
       0.107649654 -0.11037335 0.1111649 0.07873954
000200 38 e8 d4 bc 92 f3 f9 bd 00 dc fb 3c 70 2a a2 bd
       -0.025989637 -0.122046605 0.030744553 -0.079182506
000210 50 d6 13 3d 24 60 14 3d da fe b9 bd 4c dd 34 3d
       0.036093056 0.0362245 -0.09081812 0.044156358
000220 10 a5 ab bd 00 ba 1b bc 80 02 86 ba 6e f9 ed bd
       -0.083810925 -0.009504795 -0.0010224134 -0.116198406
000230 20 84 33 bc e0 02 0c 3c 2e 75 bc bd 94 dc 13 3d
       -0.010956794 0.008545607 -0.09202038 0.03609903
000240 ee 61 ee bd 00 8f cd 3a 60 82 ef 3b be d4 a3 3d
       -0.11639772 0.0015682876 0.007309243 0.07999562
000250 70 2d e2 3c 08 09 66 bd 90 20 31 bc 24 ae 41 bd
       0.027609557 -0.056160957 -0.010810986 -0.047285214
000260 28 e0 19 bd 0c bb 07 3d d0 1c 40 3d 82 38 f4 bd
       -0.037567288 0.033137366 0.046902478 -0.119248405
000270 f4 3d 15 bd d0 48 27 3d 42 54 98 bd 50 ba 06 3c
       -0.036436036 0.040840924 -0.07437946 0.008223131
000280 94 e0 7f 3d 50 0d f6 3c d8 2e eb bc c2 55 92 3d
       0.062470034 0.030035645 -0.02870886 0.07145263
000290 92 3c ed 3d 60 2d c6 3b 14 dd 0c bd 80 2e 74 bd
       0.115838185 0.0060478896 -0.034390524 -0.05961466
0002a0 c8 fd 84 3c f6 f7 bb bd c0 ad 3b 3c c0 09 10 3b
       0.016234294 -0.09178154 0.011454999 0.0021978468
0002b0 36 73 d6 bd c0 de a4 3c 00 74 61 b9 50 80 af bc
       -0.104711935 0.020125747 -0.00021500885 -0.021423489
0002c0 2c 4d ea bd 6e 55 e4 3d 60 2f 82 bc 3c 5b 78 3d
       -0.114405006 0.11149107 -0.01589173 0.060633883
0002d0 3a 36 f3 bd 06 84 fa 3d f0 8b dc bc e8 30 77 3d
       -0.11875577 0.12232213 -0.026922196 0.060349375
0002e0 94 2c 83 3d 34 7f 59 3d ca 15 ca 3d f0 a7 70 bc
       0.06404987 0.053099826 0.09867437 -0.014688477
0002f0 a4 cb b5 3d 6c c3 75 3d 42 d9 bb 3d 20 a8 55 bd
       0.08876732 0.060000822 0.09172298 -0.05216229
000300 b8 d5 e7 3c 64 53 16 bd ec 30 9a 3d 8c 83 5d 3d
       0.028300151 -0.03670062 0.07528862 0.05408053
000310 56 6e dc bd 96 a3 d3 bd c6 78 9a bd b2 22 a1 bd
       -0.107632324 -0.10333936 -0.07542567 -0.07867946
000320 30 70 48 3c 4e 0b a8 bd 1c 85 c8 bd a2 55 ee 3d
       0.012233779 -0.08205281 -0.097910136 0.11637427
000330 b0 d4 9d bd 00 17 fc 3d 04 98 0f 3d de 11 ef bd
       -0.077065825 0.123090744 0.035057083 -0.1167333
000340 1c 96 51 3d 00 e4 67 3a 00 d2 6b bc cc 5f 32 bd
       0.051168546 0.00088459253 -0.01439333 -0.04354839
000350 40 17 d2 bb c0 2f 64 3c 7c 09 08 3d f0 d8 9e bc
       -0.006411463 0.0139274 0.03321217 -0.019390553
000360 84 b4 cf 3d a2 24 a7 bd ec 46 e3 3d 30 cb 81 3d
       0.101418525 -0.08161284 0.11097512 0.06337583
000370 12 b7 86 3d 3c 81 9e 3d 80 61 0c 3c 48 d4 a2 bd
       0.06577887 0.07739493 0.008568168 -0.07950646
000380 14 3f 7b 3d 78 92 69 3d 80 c0 8e ba 44 70 23 bd
       0.061339453 0.05702445 -0.001089111 -0.039901987
000390 be f8 e3 3d 30 21 55 3c 5c a9 f4 bd dc 3d 87 bd
       0.11131428 0.013008401 -0.11946365 -0.066035956
0003a0 9c fc 4c 3d ce 74 f9 bd ae 11 ed bd 80 3a 4a bb
       0.050045595 -0.12180482 -0.11575638 -0.0030857623
0003b0 fe 8c b6 bd 90 2f 4d 3d 18 f6 a7 bc 80 bd 32 3d
       -0.08913611 0.050094187 -0.020503089 0.043637753
0003c0 64 05 d6 bd e0 f6 b2 bd 68 83 7b bd b0 d9 4b 3d
       -0.10450247 -0.08738494 -0.061404616 0.04976815
0003d0 14 f5 ca 3d 60 16 26 bc 26 40 95 bd 5e f6 fe bd
       0.09910026 -0.010137171 -0.07287626 -0.124493346
0003e0 d8 01 29 3d 6e 55 aa bd 00 9f d0 3c 78 bf f5 3d
       0.041261524 -0.08317076 0.025466442 0.119994104
0003f0 40 66 80 bd 28 83 59 bd dc 8a 7e bd 2e b0 a5 3d
       -0.06269503 -0.053103596 -0.062144145 0.08090244

pre_net.8.bias f4 [8]
000000 c0 66 90 bb a0 d2 4a bd b0 4c 24 3d e0 da 11 bd
       -0.00440678 -0.049517274 0.040112197 -0.035609126
000010 3c 83 6c 3d 3c 8b 62 bd 24 81 70 3d c4 7d 71 bd
       0.057742342 -0.055308565 0.058716908 -0.05895783
