classical/feedforward/models/best_feedforward_model.pt (torch, 222462 bytes, 21 tensors)

model.0.weight f4 [256, 32]
00000000: 6c17 0ebe fc90 d3bc 476c f33d adb0 8bbd
00000010: 7999 3a3e e004 2b3d 68db 35be 91ae 01be
00000020: d44b fdbc 5f2f eb3d 4523 4dbe 472a 193e
00000030: 0037 683d f43b 3e3e b155 c53d 0852 8c3c
00000040: cc86 58be a321 31be e502 103e 6a84 c43c
00000050: 54e8 f7bd c2d2 b73d 4d5e 26be 2ff4 b6bc
00000060: d492 23be 0436 973c 5229 86bd adb7 68bc
00000070: c30e 163e bf25 15be 397d dd3d 1adc 813d
00000080: 83e3 1d3e c11e 8abd d605 963d 6c93 8d3d
00000090: a684 443e cdb2 2c3e 1090 03bb 8e3a 62be
000000a0: d78c 173d 038d 74bd ca41 8b3d 5dce f4bc
000000b0: 612a 0d3d 81b8 2cbd 235c 56bd d61a 003e
000000c0: b973 fabd fb79 83bd 0088 8fbd 8a9a 103e
000000d0: 516f 223e 3e7c ab3d 0685 2cbe 4aff 2cbe
000000e0: 251c 21be fc59 75bd 6a90 13be 3f4b 003e
000000f0: 8eb2 6c3d 3d80 36bd 8419 ee3d 3c42 ccbd
00000100: 6cad 0abe 813c e53c 13bb 9cbd b4ef a8bd
00000110: a470 e8bb da39 b7bd 5bae acbd 3cbe 3ebd
00000120: 0889 e13d eb24 adbd d40d d8bd 4c30 903d
00000130: 54a5 31be 4bc6 0cbe 14df 0b3e b939 f03c
00000140: 83cf ba3d acf0 963b b2c2 03be cfe8 94bc
00000150: 8589 ddbc 6551 d0bd 6d51 28be 9a89 e93d
00000160: a9dc 0bbe cb35 b7bd 1223 b8bd 5031 673c
00000170: 0fb0 2abe 6322 b53d 7bf6 28bd 44da 3a3e
00000180: 06cf 943d c53a 753c 487c 94bd 61c0 693d
00000190: c63a a73d db2a 0cbe 068e f0bd 477c e3bd
000001a0: 12aa 173d 688a 0f3c 8ef8 e73d 5e7a c5bd
000001b0: ac6c febd 85c0 f0bd 2c6a 933d 7880 593d
000001c0: 8d0a 5c3e 0e39 593e 76a2 013e e1f7 a53d
000001d0: 20d8 47be b500 d03c 804c 063e 2d51 81bd
000001e0: 6d01 143e 78e0 debd 2f13 e53d 0780 7c3c
000001f0: 3111 43be c682 fa3d 5e69 c1bd 9fdf ce3d
00000200: ffd9 28be 1ebd 113e 8f0b 553e 40d9 053e
00000210: b062 90bc da0d 433e 25fe f6bd 39ea cabd
00000220: 3330 163e d57e babd e76d ce3d 82aa 89bd
00000230: 796c c1bd 3aee f1bd e7b5 e5bd 9761 5c3c
00000240: 803c 7a3b 1458 28be e2e3 db3d 3ed9 2cbe
00000250: 3a9b a8bd 0b29 083c fbf0 dfbc 19c7 09be
00000260: 2f21 a23d c70a f43d 7f5d 97bd 0f3f c73d
00000270: 54ee bb3d 5366 3f3c be43 cebd 7ed0 d3bd
00000280: 6350 053e aa8e d4bd 8194 423e b8b4 2d3e
00000290: 6e1e 643d 3a11 26be c22e 0d3e 6d6e 0e3d
000002a0: d82a b03d 97cd a53d 4cc3 49bc 7c20 323d
000002b0: 3df4 a33d bfbe 00be 1b3b aebd 09ac b0bb
000002c0: 73c2 c8bd 6add c83d 5449 68be 1432 aebd
000002d0: a67d 5fbd d334 f83d eafa 72bd f767 1bbd
000002e0: e0c1 cd3d 984b 913c feab 2d3d bc02 c33d
000002f0: 6361 533e 6e78 e2bd cd06 7bbd 3300 d5bd
00000300: bb92 2cbe a276 9e3c e192 98bd 2c52 97bd
00000310: 7cb1 37be 4b9f a93c 72fe 3bbe 337a 26bc
00000320: d80e 183e 4961 be3d 516f 2d3d 277e b23d
00000330: 2a52 23be a9b3 083e a86a 5a3e 5ae3 153e
00000340: 1844 17be 642c 3fbe 4506 babd 88ab cb3d
00000350: 322f 323e 84dc 2c3e 5d8f eabd 3c29 e7bd
00000360: d072 19be ce24 fbbd f907 13be f86f 083e
00000370: d4b2 de3d b7d2 efbd 20bb 3c3c 316e 31be
00000380: df85 9abd c34f ffbc 1b22 133e fd21 0a3e
00000390: 9942 e4bb 7f2c 913d 4fc2 cd3d c77f f33d
000003a0: 0986 2e3e 7e5e 0dbe 5c87 bebd ce2c 053d
000003b0: 4e49 8f3d 14bb d83d 2780 f5bd 8516 383a
000003c0: a04d 843e db0d 6d3e 6685 463e 8ac5 38bc
000003d0: fc96 e7bd af33 0a3e adb3 2f3d bdda 4c3d
000003e0: d72f f83d b60f 9b3c a3a0 4bbc b53b 933d
000003f0: 1020 53be 13fe f2bd a347 55bc 6880 d0bd
-0.13876122 -0.02582597 0.11885887 -0.068208076 0.18222608 0.041752696 -0.17759478 -0.12664248
-0.030919947 0.11483645 -0.20032986 0.14957534 0.056693077 0.18577558 0.09635485 0.01712896
-0.21145171 -0.17297988 0.14063604 0.023988921 -0.1210486 0.08975746 -0.1624691 -0.022333233
-0.15973979 0.018458374 -0.0655085 -0.014203948 0.14654069 -0.1456518 0.108149 0.06340809
0.1541882 -0.06744147 0.07325332 0.06912884 0.19191226 0.16865082 -0.0020074882 -0.2209265
0.03699955 -0.05970479 0.06799658 -0.029883558 0.034464244 -0.042168144 -0.052333962 0.12510237
-0.122291036 -0.0641975 -0.07008362 0.14121452 0.15862776 0.08373307 -0.1684762 -0.1689426
-0.15733393 -0.05990027 -0.14410558 0.12528704 0.05778747 -0.04455589 0.116259605 -0.09973571
-0.13542718 0.027982952 -0.07652869 -0.08248845 -0.007093506 -0.08946581 -0.08431693 -0.04656814
0.11012465 -0.08454307 -0.105495125 0.07040462 -0.17348224 -0.13747518 0.13659316 0.0293244
0.09121611 0.004606327 -0.12867239 -0.018177418 -0.027043113 -0.10171775 -0.16437311 0.114031985
-0.13658394 -0.08945807 -0.08991064 0.014110878 -0.16668724 0.08844449 -0.041250687 0.18247324
0.07266049 0.014967625 -0.07250267 0.057068232 0.08165507 -0.13688223 -0.11745839 -0.111076884
0.037027426 0.008761026 0.11326705 -0.0964248 -0.12423071 -0.1175547 0.07197985 0.053101033
0.214884 0.21213171 0.1265963 0.0810392 -0.19516039 0.025390962 0.1311512 -0.06314311
0.14453669 -0.10882658 0.111852996 0.0154113835 -0.19049527 0.12231974 -0.09443925 0.10101246
-0.16489409 0.14232299 0.2080519 0.13071156 -0.017625183 0.19048253 -0.12060193 -0.09907956
0.14666824 -0.091062225 0.10079556 -0.06721975 -0.09444518 -0.11813016 -0.11216336 0.013451002
0.0038183033 -0.16439849 0.107368246 -0.16879746 -0.08232732 0.008310567 -0.027336588 -0.13454856
0.079164855 0.11916118 -0.0739088 0.09728824 0.09176317 0.011682111 -0.100715145 -0.10342501
0.13018946 -0.103787735 0.19001962 0.1696347 0.055693083 -0.16217509 0.13787368 0.03477328
0.08601922 0.08095854 -0.012314629 0.04348801 0.08005569 -0.12572764 -0.08507367 -0.005391602
-0.09802713 0.098078564 -0.22684222 -0.085056454 -0.054563187 0.121194504 -0.05932132 -0.037940945
0.10046744 0.017736241 0.042400353 0.09522006 0.20642619 -0.110581264 -0.061285783 -0.104004286
-0.16852848 0.019343678 -0.0744989 -0.0738872 -0.17938799 0.02070584 -0.18358782 -0.0101609705
0.14849412 0.092958994 0.042342488 0.08715468 -0.15949312 0.13349785 0.21329749 0.14637509
-0.1477207 -0.18669277 -0.09083227 0.09944826 0.17400816 0.16880995 -0.114531256 -0.11287162
-0.14985204 -0.12262879 -0.1435851 0.13323963 0.108739525 -0.117101125 0.011519223 -0.17327191
-0.07545065 -0.031165963 0.14368479 0.13489528 -0.006965947 0.07088565 0.10046827 0.11889606
0.17043318 -0.13805577 -0.093031615 0.032513432 0.06996404 0.10582557 -0.11987334 0.00070223986
0.25840473 0.23149817 0.19386825 -0.011277566 -0.11308095 0.13496278 0.04289596 0.050013293
0.121185 0.01892839 -0.0124284355 0.071891226 -0.206177 -0.11864867 -0.013017568 -0.101807415

model.0.bias f4 [256]
00000000: 547c 0e3e 84e4 89bd b7bc 203e 421a 02bd
00000010: 8a53 703d ff36 0bbe 4e87 26be 4333 67bc
00000020: e772 0cbe 2336 f4bd a704 b1bd 2c17 96bd
00000030: 6591 f73d b0e2 283d 9c7b e9bc 6be9 1cbe
00000040: 2702 1e3e 53d7 36bd 0998 053d aca1 4d3d
00000050: aa7c e83d ff44 f33c e1e4 253e 7516 07bd
00000060: 5230 d2bb 2b59 1ebd 70c2 20be 723e cfbd
00000070: a2de e7bd 3120 173e bbff fd3d fe55 843d
00000080: f8f7 c23d 70fb af3c 95df d73b f02d f4bd
00000090: 8ba3 27be d6ce 24be b34b 96bd 9a8d e33d
000000a0: d39e d83d 5f8c 20be e7f6 29be 78c8 cf3d
000000b0: 23a5 fc3d 03a8 f73d 1a87 8ebd b437 0fbe
000000c0: cc00 febd 1a67 3b3d 5896 e93b fc11 6bbc
000000d0: e549 e7bd 9ec9 0f3e 2b2f 23bd 1027 db3d
000000e0: 57cf cfbd 7f22 9dbd 94dd d43d f99f 3b3d
000000f0: 07ad a6bc d439 19be 375f 5fbd b468 1cbd
00000100: 3b63 ff3d 61ab 2c3d 5cd2 113e 6910 f2bd
00000110: 2439 eabd e796 cebd 161a e1bd c3a9 47bd
00000120: 93ea a1bc 94ec d23c c1c2 9abc 902f e23d
00000130: 208c 51bd f2d8 b03d 90d2 2c3e 7b77 233b
00000140: 097e 1a3e c5b3 953d 704c c5bd e560 9a3c
00000150: 899b 053d cdfc 803d 4bb2 aa3d 5411 883c
00000160: 4f33 a7bd 0edd 6dbc 4ba0 343e bcc8 60bd
00000170: c981 b83d 026b 86bd 92af 74bd 18e5 ffbd
00000180: d655 90bd 55fa 533c b616 953d 194d c3bd
00000190: a579 813d 4dc8 ebbd d733 a2bd 0ccd 30be
000001a0: 385d 14be e2ac 3f3d 5ece 443d 1426 32be
000001b0: c2e8 74bd 36bb 733b 99f0 053e e968 18be
000001c0: b388 88bc 3066 a1bc 41df 343c 0f3f 0e3d
000001d0: 40e8 33be fbef a6bd 3c0c 9bbc 1b6a 4b3d
000001e0: a1c6 653a ae85 f4bd 49bf cc3d 9225 60bd
000001f0: 5290 e53d 7d7b 4a3d 4d0c c2bc 059b d7bd
00000200: ae7c 29bd 31ad b03d 0525 2a3d 7237 b2bd
00000210: b5bf db3c 7110 6abd 21f4 133e e89d bc3d
00000220: 2fa4 f3bd d03c 483d 21a9 203e 7f7b 86bd
00000230: a20b 76bd 38a7 04be 6efb 9bbd e3f7 ae3d
00000240: 3d5d eabd 0baf cbbd 8c94 19be e2eb 95bc
00000250: 08a8 b03d 063d 033d 2fb1 0f3e d362 0f3d
00000260: 5ec5 053e 5806 be3d 4eb7 803d fa10 93bd
00000270: d0ef 323e d10e a2bd 6c49 87bd 99d2 03bd
00000280: 39e4 c03c 747f 31be 5d3c a63d 18a6 80bd
00000290: e454 20bd e6ee 223e 9b1c c43d 57e9 333e
000002a0: ff0b febd 8bef 143e 6aa7 2dbe 2eec db3c
000002b0: 98d2 95bc 924b d1bd d609 ce3d 8820 10be
000002c0: 29f2 15bc a065 c33d 1ea1 c9bd 47cb d6bc
000002d0: 1863 383d b1bc 73bd 390e 663d cdfd 1abe
000002e0: 38fb 7ebd e7d8 583c edeb af3c 1e30 b63b
000002f0: e5b8 cd3d 9d2d 57bc e3e5 98bd 8d8f fb3d
00000300: 3d5e f73b 2f0b 163e 0f73 103e cfa2 093e
00000310: c9e7 b33d e609 9d3d 61cd 993c 004b 193d
00000320: ef88 88bd 800e b33d 6c37 193e a736 093e
00000330: bfa9 f93d 3f0d 313e 95ff 05be ef2b 123e
00000340: 38bf 803d d0f5 71bd 7890 b63d d619 15bd
00000350: 5baf 49bb cbeb 1abe c82f 4cbd 527b d9bd
00000360: 6936 143e 17f1 173c b1e0 943d 86d8 3b3d
00000370: 4f08 d9bd 770e 233e 2ee2 2d3e c373 09be
00000380: 7daa 123e c161 10bd 3d84 233e 8adc 03be
00000390: 8537 fdbd ae04 953d 6b20 513d e280 54bd
000003a0: 6ebb 2fbe b589 aebd f815 cbbd dbb5 ac3d
000003b0: 5fdc cf3d ac20 38bd e60d b43d 53a5 0dbe
000003c0: e21b 0e3e 9438 31be 20be 203d 2607 2f3e
000003d0: cfe2 823d c600 31be 5363 2abc 1c36 ae3d
000003e0: d6c3 603c 157f 63bd 73ad 4bba 79bf 943d
000003f0: 195d 2bbe b3b4 3a3c e754 64bd e3de c33d
0.13914615 -0.06733039 0.15696989 -0.031763323 0.05867342 -0.13595198 -0.16262552 -0.014111343
-0.13715707 -0.11924388 -0.086434655 -0.073286384 0.12088279 0.04123181 -0.028501324 -0.15323417
0.15430509 -0.044638943 0.032615695 0.05020301 0.11351903 0.029695986 0.16200592 -0.0329804
-0.0064144516 -0.038659256 -0.15699172 -0.101193324 -0.11321761 0.14758374 0.12402292 0.06461714
0.095199525 0.0214822 0.0065879324 -0.119228244 -0.1637098 -0.16094527 -0.07338657 0.11110993
0.10577168 -0.15678547 -0.16598092 0.10145658 0.12336185 0.120925926 -0.06959362 -0.13986093
-0.12402496 0.045752622 0.007128518 -0.0143475495 -0.11293391 0.14041755 -0.039839905 0.1070081
-0.10146969 -0.07672595 0.10393825 0.04580686 -0.020346178 -0.14963466 -0.054534163 -0.03818579
0.124700986 0.042155627 0.14240402 -0.11819536 -0.1143668 -0.10087376 -0.109913036 -0.04874588
-0.019765174 0.025747575 -0.018891694 0.11044228 -0.051159024 0.08635129 0.16877198 0.0024943042
0.15087141 0.07309679 -0.0963372 0.018845031 0.032619033 0.06298218 0.08334788 0.016609825
-0.08164083 -0.014518036 0.17639272 -0.054878935 0.090091296 -0.06563379 -0.05973775 -0.12494868
-0.07047622 0.012938102 0.072797224 -0.095361896 0.0632203 -0.11512814 -0.07920044 -0.17265719
-0.14488685 0.046795733 0.04804837 -0.17397338 -0.059792288 0.0037190444 0.13080062 -0.1488377
-0.016666746 -0.019702047 0.011039556 0.034728106 -0.17569065 -0.081512414 -0.018926732 0.049661737
0.0008765255 -0.1193956 0.09997422 -0.05472333 0.112091675 0.049434174 -0.023687506 -0.105276145
-0.04137867 0.08626784 0.04153921 -0.087019816 0.026824811 -0.057144586 0.14448597 0.09209806
-0.1189655 0.04888612 0.15689518 -0.06566524 -0.060069688 -0.12954414 -0.07616316 0.085433744
-0.11443565 -0.09945496 -0.14998072 -0.018300954 0.086257994 0.03204062 0.14032434 0.035006355
0.13063571 0.09278554 0.062849626 -0.071809724 0.17474294 -0.07912982 -0.06605801 -0.032183263
0.023546325 -0.17333776 0.08116982 -0.0628168 -0.039143458 0.15911445 0.095757686 0.17569481
-0.12404632 0.14544503 -0.16958395 0.026846018 -0.018288895 -0.10219492 0.1006047 -0.1407491
-0.009151974 0.09540868 -0.09845184 -0.026219977 0.04501638 -0.059506122 0.056165908 -0.1513588
-0.0622513 0.013235307 0.021474803 0.0055599352 0.100450315 -0.013133434 -0.074657224 0.122832395
0.007549076 0.14652704 0.14106391 0.13441013 0.08784444 0.076679036 0.01877469 0.03742504
-0.06666743 0.08743 0.14962548 0.13399754 0.121905796 0.17290209 -0.13085778 0.14274572
0.06286472 -0.059072316 0.08914274 -0.036401592 -0.0030774686 -0.1512901 -0.049850255 -0.106192246
0.14473881 0.009273789 0.07269419 0.04586079 -0.10597288 0.15923487 0.16980812 -0.13423066
0.14322849 -0.035249475 0.15968414 -0.12877098 -0.12364105 0.07276283 0.051056307 -0.051880725
-0.17161343 -0.08522359 -0.099162996 0.08433124 0.10149454 -0.044953033 0.087917134 -0.13832597
0.13877824 -0.17306739 0.039243817 0.1709257 0.063909166 -0.17285451 -0.010399657 0.08506414
0.013718566 -0.055541117 -0.00077696814 0.07263083 -0.16734733 0.011395621 -0.05574503 0.09563997

model.1.weight f4 [256]
00000000: 73f6 783f 30da 7c3f 1ee6 7e3f 00d7 7f3f
00000010: d61b 803f f0c6 7d3f 4ee8 7c3f 2242 823f
00000020: 8935 843f c636 823f 9c21 803f 31fd 813f
00000030: 4bf6 7d3f 907a 7f3f a1c1 803f 19af 7c3f
00000040: c771 803f 64b5 853f c41b 7f3f 8767 813f
00000050: 8156 7f3f 1978 7e3f cc7a 7e3f 42cb 773f
00000060: 74ec 743f a757 7a3f a2a0 783f 55d1 7f3f
00000070: 8f75 733f cb1e 833f 2a56 7b3f f99d 873f
00000080: adef 7f3f d19d 7b3f bae7 773f 595c 7e3f
00000090: cf87 7c3f 056f 7d3f c987 823f c2de 7f3f
000000a0: 4b4d 7d3f 0d98 803f 02c6 823f 57c6 7c3f
000000b0: b344 7e3f f10f 773f 74cf 853f ab06 823f
000000c0: caf4 7a3f 7225 773f 899a 843f 0f1b 793f
000000d0: 4162 7d3f 4b7b 7d3f c342 803f a71e 7c3f
000000e0: 0b63 823f 017c 833f d7ff 813f ca2f 793f
000000f0: 8ad6 7e3f ce2f 7a3f 2cec 803f c8fa 783f
00000100: 8ea5 7d3f 7678 7a3f 91ef 7c3f f7b2 843f
00000110: 216d 7c3f 421b 7f3f aadc 773f dda4 793f
00000120: 459f 823f e2ac 803f df3d 803f f472 7b3f
00000130: 8ccc 803f 6a7c 823f fa1d 793f 4e8c 813f
00000140: 27c2 7b3f 44f7 763f 5b32 7b3f 86ce 7a3f
00000150: 70f3 813f 641c 803f fe89 803f 6ace 7e3f
00000160: 2b6f 803f 78ae 7d3f e5e5 843f 2d48 833f
00000170: c2a2 773f be19 763f 3144 7f3f 7bfb 823f
00000180: cd72 7e3f a680 7c3f 5161 7f3f 7bd3 793f
00000190: 5b60 7c3f 3fb8 7c3f dad8 803f e711 7c3f
000001a0: 5a1b 853f 2dbd 843f aa09 823f cdc0 7a3f
000001b0: 59e0 7d3f ccee 813f f283 813f 27b1 7c3f
000001c0: 3856 823f 663c 7e3f d33c 823f 5c3f 823f
000001d0: b14b 803f 2d5b 7e3f 86f1 843f ffa4 783f
000001e0: afc2 7e3f ef14 843f 5e1c 823f 2eab 843f
000001f0: ae23 813f be35 803f 04d0 833f b527 7e3f
00000200: 77ee 803f 98d0 793f 6036 7f3f 35c4 7f3f
00000210: 1adf 803f d382 833f f08c 843f db0a 803f
00000220: d3d3 853f 5a04 7b3f 11c5 7c3f 136c 7f3f
00000230: 2781 823f 8236 823f 7272 853f 59ed 823f
00000240: e94d 7a3f 5474 873f 7836 873f c3b7 783f
00000250: 1b6e 7b3f 6c5d 813f 6646 833f 5c1e 803f
00000260: 6beb 803f 7474 7f3f 9c95 7f3f 65c2 7a3f
00000270: 767a 793f 64ec 813f 7dac 7c3f 8ae4 813f
00000280: 9803 823f fd97 813f 9fe6 813f 08e7 823f
00000290: 1e73 7c3f 152f 803f baf8 773f adbb 793f
000002a0: 4eb6 823f 49bc 7a3f d6d6 743f 1ad1 733f
000002b0: 74da 763f 5ceb 803f bf17 803f 13d4 823f
000002c0: d845 823f 736b 813f 9a7e 773f 0110 7f3f
000002d0: aa10 7e3f c351 773f 693e 843f 1ba0 793f
000002e0: 57a9 7e3f 1bbd 883f dd80 7f3f cd56 843f
000002f0: 48c0 773f 78b0 823f 6d06 783f 2cf0 7b3f
00000300: 2861 7d3f 4143 783f abf3 7b3f cc1a 863f
00000310: 3210 7e3f a72e 823f 90ff 873f e632 823f
00000320: 1943 843f 48a6 823f 0638 793f d7de 833f
00000330: f2bd 783f 4b6b 7d3f dc6f 813f c495 823f
00000340: 7317 793f 513d 7b3f 3a1d 813f e2e3 793f
00000350: 313d 7e3f 434f 7b3f df72 813f e620 793f
00000360: ae7c 7d3f 1c12 7b3f 835f 803f 347e 7f3f
00000370: 449c 7c3f ee05 7f3f 1f3b 833f 8715 7f3f
00000380: 7cde 813f 479a 843f 28cb 7d3f 1238 7f3f
00000390: f3e4 763f e19f 7e3f 7182 763f c703 7e3f
000003a0: 1d64 7b3f dc0b 893f f9f9 743f eb52 7b3f
000003b0: e930 823f 49b8 823f 5768 813f 28f3 7f3f
000003c0: 3505 813f 92a6 833f 8bfa 7f3f f597 783f
000003d0: 0201 833f 6cd0 773f 29a0 7a3f ca39 7f3f
000003e0: 4cfb 743f 4307 7e3f 770d 803f 756d 813f
000003f0: 7235 783f 2eb0 7c3f a454 7b3f 254f 803f
0.9725105 0.9877043 0.9956988 0.9993744 1.0008495 0.9913168 0.9879197 1.0176432
1.0328838 1.0172966 1.0010257 1.0155393 0.9920394 0.9979639 1.0059091 0.9870468
1.0034722 1.0445981 0.9965174 1.0109719 0.9974137 0.99402004 0.99406123 0.9679452
0.956733 0.97789997 0.97120106 0.9992879 0.95101255 1.0243772 0.9817835 1.0595084
0.9997509 0.98287684 0.9683796 0.9935966 0.9864473 0.9899753 1.0197688 0.99949276
0.98946065 1.0046402 1.0216677 0.9874014 0.99323577 0.965087 1.0453935 1.0158285
0.9802977 0.9654151 1.035966 0.97306913 0.9897805 0.99016255 1.0020374 0.9848427
1.0186476 1.0272218 1.0156201 0.97338545 0.9954611 0.97729194 1.0072074 0.9725766
0.9908074 0.9784006 0.9880305 1.0367116 0.9860402 0.9965097 0.9682108 0.97517186
1.0204855 1.005276 1.0018882 0.9822228 1.0062423 1.0194218 0.97311366 1.0120943
0.9834313 0.9647105 0.9812371 0.9797138 1.0152416 1.0008664 1.0042112 0.9953371
1.0033926 0.99094343 1.0382658 1.0256401 0.96732724 0.9613303 0.99713427 1.0232996
0.9939392 0.986338 0.9975787 0.9758832 0.98584527 0.9871864 1.0066178 0.98464817
1.0398972 1.0370232 1.0159199 0.9795044 0.9917045 1.0151 1.0118392 0.98707813
1.0182562 0.9931091 1.0174812 1.0175586 1.0023099 0.99357873 1.0386207 0.97126764
0.99515814 1.0318888 1.0164907 1.036474 1.0089014 1.0016401 1.0297856 0.9927934
1.0072774 0.97583914 0.99692345 0.99908763 1.0068085 1.0274299 1.0355511 1.0003313
1.0455269 0.98053515 0.987382 0.99774283 1.0195664 1.0172884 1.0425551 1.0228683
0.9777513 1.0582376 1.0563498 0.971554 0.9821488 1.0106635 1.0255859 1.0009265
1.0071844 0.9978707 0.9983766 0.9795287 0.97452486 1.0150266 0.98700696 1.014787
1.0157347 1.0124508 1.0148505 1.0226755 0.98613155 1.0014368 0.968639 0.97551996
1.0211885 0.9794355 0.95640314 0.9524094 0.96427083 1.0071826 1.0007247 1.022097
1.0177565 1.0110916 0.96677554 0.99633795 0.9924418 0.96609133 1.0331546 0.97509927
0.9947714 1.068271 0.99806005 1.033899 0.9677777 1.0210104 0.96884805 0.9841335
0.98976374 0.9697762 0.9841868 1.0476928 0.9924346 1.0170487 1.0624866 1.0171783
1.0332977 1.0206995 0.9735111 1.030238 0.97164834 0.9899184 1.0112262 1.0201955
0.97301406 0.98140436 1.0087044 0.97613347 0.9931212 0.9816782 1.0113181 0.97315824
0.9901837 0.9807451 1.0029148 0.99801946 0.9867594 0.99618423 1.0252417 0.99642223
1.0146022 1.0359582 0.99138117 0.9969493 0.964431 0.99462706 0.9629279 0.99224514
0.98199636 1.0706744 0.9569393 0.981734 1.0171176 1.0212489 1.0109967 0.999804
1.0079714 1.0285208 0.99991673 0.9710687 1.0234683 0.968024 0.97900635 0.99697554
0.9569595 0.9922983 1.0004109 1.0111529 0.9695655 0.9870633 0.98176026 1.0024153

model.1.bias f4 [256]
00000000: 3d8e 5cbd 2f01 39bb 26db c83b e2e5 00bd
00000010: 2b66 9ebc dd4d 35bd ec77 0fbd 69d2 e7bb
00000020: 07a4 38bc 52ef 02bd 11d5 30bc 7ed3 e6bc
00000030: c0ba 35bd 674c 1d3c 76b8 70bc 647b 2f3b
00000040: ea6b 523b 9515 823d bab5 dd3b 369d c5bc
00000050: e572 67bb f7e2 ce3c e11c e8bc d4be 03bd
00000060: 2b7c f1bc 7163 f6bc 8986 493c 611f e8bc
00000070: ebab 25bd ad44 17bd 3e8c fe3a 3747 bfbc
00000080: 416b 26bd ab5e 00bd 5500 2fbd 2a9b e9bc
00000090: caff 0b3c eaa4 06bc 3c4f 9abc 3739 6cbc
000000a0: 343e afbc d539 b93c e98c 8bbc bfa7 93ba
000000b0: 693c 9dbb e51c 58bd 7435 86bc cb83 ce3b
000000c0: 3557 baba 5055 51bd e93a 413d a6ff 37bd
000000d0: e4d8 e7bc 487e b5bc 97d3 bfbc f673 05bd
000000e0: 54f5 723c 0363 a2bc 41d4 f7bb d5a2 03bc
000000f0: 10d3 a539 7857 d4ba 67f7 293b 94ab 3cbc
00000100: 9a96 1bbd f2ab b3bc b0c5 e5bc 2796 06bb
00000110: 1b3b d4bc 7db2 ac3a 6ebf 06bd f190 84bd
00000120: 66d2 a93c daf4 353a f655 3f39 686f cdbc
00000130: 5c30 44bb 8b6d 37bc 6630 32bd f873 8fbb
00000140: f82a 71bb 883b c9bc 0147 11bd af74 0abb
00000150: ff09 a6bd 5e86 4c3c 118d cebc 0712 d1bc
00000160: 9878 303c 79b4 a63c 88bd 9e3c b725 56bc
00000170: 48ec 57bc e8d7 6bbd 34ac fc3b f730 6bbc
00000180: c353 c9ba 4be1 09bd d97d 353c b539 a0bc
00000190: db0e 35bc 51e8 2abd 74b2 debb 1cdb 6fbd
000001a0: 4a7a ffbb 6c00 06bd f125 23bd cac3 f5bc
000001b0: ee36 88bc ceb9 12bd 4892 21bc 3a43 863c
000001c0: cef3 613c b885 d9bc 5688 44bd f045 49bd
000001d0: 4fc4 f1bc f825 81bc 4c49 0abd e35b ef3b
000001e0: 1156 d9bc 4b88 e1bc 78ac df3c 8e90 8dbd
000001f0: a2cf 6e3c 0667 adbb 15b2 59bd 0213 17bd
00000200: e67f d8bb 7384 d13b de02 9bbc cafb db3b
00000210: 747d edbc a7f9 223a 6c40 893b 250b 45bc
00000220: bc3b 90bd b7f4 51bd 77b3 76bc c21e 71bc
00000230: ccc0 0e3c aa0f 6439 609a b1bc 412a 023c
00000240: af91 eebb 91ea 193d 8962 85bc 2446 51bd
00000250: d06e 9bbc 8080 13bd e21a 083c e49a 2b3c
00000260: 379d 063d c068 2cbc 178b 113c d577 1bbd
00000270: e073 c6bc 04cb c1bc 514f 4cbc 6411 cf3b
00000280: 763e 25bc 972e 083c e8a9 81bc 1338 eabc
00000290: 3ad2 743a 9e1a 4d3c d416 ffbc dfe6 d7bc
000002a0: 811b 0abb 0d36 d8bc 3f76 fabc 3504 0fbd
000002b0: 34d5 efbc 060f 693a f50f a0bc 52b2 90bc
000002c0: 9f40 ce3a 39b1 f9bc fc64 19bd b737 8fbc
000002d0: 6346 f9bb 8eaa dfbc eb16 a53b 26a2 5ebc
000002e0: 4994 dfbc d0ad d9bc 0d57 373b ccb3 b1bc
000002f0: 8ed4 92bc a9cc e1bb cf9b a1bc 4c05 0fbd
00000300: 3585 35bb 0986 31bb 6e6c 4abd cac3 40bd
00000310: fb11 423b b966 9d3c e177 b9ba 8e00 263a
00000320: f554 afbc 757f 823a f622 49bd 3ec8 51bb
00000330: 5f42 babc 38dc a2bc 5e87 8dbc ed0b 92bb
00000340: 9885 13bd 93e7 8bbc d400 5bbc 5452 17bd
00000350: 7da6 47bc 9fb6 9e3c 0d8e afbc cf6f adbc
00000360: a561 e7bc b209 18bd 6018 cb3c f8ac db3b
00000370: fce6 e1bc 8161 92bc 1cc4 82bc a7a8 a7bc
00000380: cea3 04bb 6ee0 de3c 0e93 10bc 035b 68bc
00000390: c00c 31bc 85fc aebc 4566 cdbc 7fa1 f43b
000003a0: e1f3 9abc 8418 313c 7713 0dbd ff59 76bb
000003b0: 5086 7c3d 3067 a8bc 0cf5 603c 59d0 c6bc
000003c0: eebf 143c 689a 7d3d 9f15 babc 90fb 7ebc
000003d0: f683 7ebc c38c 64bd 7c12 5ebc 52ec b5bc
000003e0: 2c59 2cbd 3cd7 263a 78a6 b63c 3c4d 9b3c
000003f0: f6ad e6bc 488e d9bb 8313 12bc 149b 8dbc
-0.053846586 -0.0028229465 0.00612964 -0.031469233 -0.019335827 -0.04426371 -0.035026476 -0.0070746434
-0.011269576 -0.031966515 -0.0107929865 -0.02817702 -0.04436755 0.009600735 -0.014692416 0.0026776427
0.0032107779 0.06351773 0.0067660483 -0.024122816 -0.0035316285 0.02525471 -0.028334083 -0.03216441
-0.029478153 -0.030076714 0.012300142 -0.028335275 -0.040447157 -0.03693073 0.0019420458 -0.023349388
-0.04062963 -0.031340282 -0.042724926 -0.02851637 0.008544872 -0.0082180295 -0.01883661 -0.014417938
-0.021391965 0.022610584 -0.017034965 -0.0011265202 -0.004798461 -0.05276193 -0.01638291 0.006302332
-0.0014216664 -0.05110675 0.04717532 -0.04492154 -0.028301664 -0.022154942 -0.023416324 -0.032581292
0.014828999 -0.019822603 -0.0075631444 -0.008034428 0.00031628506 -0.0016200384 0.0025934817 -0.011515517
-0.03798542 -0.021932576 -0.028048366 -0.0020536275 -0.02590709 0.0013175752 -0.032897405 -0.06472958
0.020730209 0.0006941088 0.00018247202 -0.025077537 -0.002993605 -0.011195551 -0.043503188 -0.004377838
-0.0036799293 -0.02456452 -0.035468105 -0.0021126678 -0.08107375 0.0124832075 -0.02521375 -0.025521291
0.010770939 0.020349728 0.019377485 -0.013070515 -0.013178892 -0.05757895 0.007710958 -0.014354936
-0.0015360046 -0.03366212 0.011077368 -0.019558767 -0.011050905 -0.04172546 -0.0067961756 -0.05855857
-0.0077965604 -0.032715246 -0.039831106 -0.030000586 -0.016627755 -0.03582173 -0.009861536 0.016389478
0.013791038 -0.02655302 -0.047981583 -0.049138963 -0.029512553 -0.015765175 -0.033761308 0.007304655
-0.026530297 -0.02753081 0.02730392 -0.06912337 0.014575871 -0.0052918224 -0.053148348 -0.03688336
-0.0066070436 0.006393963 -0.018922266 0.006713365 -0.028990485 0.00062170107 0.004188588 -0.012026583
-0.070426434 -0.05125877 -0.015057436 -0.014716806 0.008712959 0.0002174961 -0.021680057 0.007944644
-0.0072805504 0.037577216 -0.016282337 -0.051092282 -0.018973738 -0.03601122 0.008307191 0.0104739405
0.032864776 -0.010523021 0.008883259 -0.037956078 -0.024225175 -0.023656376 -0.012470082 0.006319212
-0.010085693 0.008311889 -0.015828088 -0.028591191 0.00093391875 0.012518553 -0.031138815 -0.026355205
-0.0021073523 -0.02639296 -0.030573962 -0.03491612 -0.029276468 0.00088904833 -0.019538859 -0.017663155
0.0015735811 -0.030480014 -0.03744982 -0.017482622 -0.0076072677 -0.027303007 0.0050381324 -0.013588464
-0.027292388 -0.026572138 0.002797547 -0.02169218 -0.01792362 -0.0068908525 -0.019727616 -0.03491716
-0.0027697806 -0.0027087948 -0.049419813 -0.04706172 0.0029612768 0.019214021 -0.0014150107 0.000633248
-0.021402815 0.0009956198 -0.049105607 -0.0032010223 -0.022736726 -0.0198804 -0.017276462 -0.004456988
-0.036016077 -0.017078197 -0.013366897 -0.03694375 -0.01218569 0.01937419 -0.02143004 -0.021171479
-0.028244803 -0.03711862 0.024791896 0.006703969 -0.027575962 -0.01786876 -0.015962653 -0.020466162
-0.0020239237 0.027206626 -0.008824123 -0.014181855 -0.0108062625 -0.021360645 -0.02507318 0.007465541
-0.018915119 0.010809068 -0.03444239 -0.0037590263 0.061651528 -0.020557016 0.013730299 -0.02426927
0.009078963 0.06191483 -0.022715388 -0.015562907 -0.015534392 -0.055798303 -0.013554212 -0.022207413
-0.04207723 0.000636447 0.022296175 0.018957727 -0.028159123 -0.0066392757 -0.008915785 -0.017285861

model.1.running_mean f4 [256]
00000000: ab04 2a3e f889 1bbd 00df 863c 8a37 5abe
00000010: 246b 85be 0759 0abe 4cc0 f3bd 6933 b7bd
00000020: 3da5 5bbe 62a1 fbbd ca5b 2abe 992c b2bd
00000030: d58d 1ebe 8218 b1bc 9898 27be f92e b43c
00000040: cf04 2e3e 8938 b2bd 51a6 06be 6887 693d
00000050: 9941 743e a484 cb3c 05b8 a03e ce12 433d
00000060: 4eef cb3d c6e7 2d3c 61b4 b13c bfa3 88bd
00000070: 4274 42be d9d8 2e3e 5668 e63d 3404 e23d
00000080: 0649 1d3d e859 24be 22c3 a9bd 0c56 5cbe
00000090: 3b55 58be 6f51 11be cc46 663d c986 283d
000000a0: eebd 3bbe 1962 6cbe 2330 37be fe0e f7bd
000000b0: ba11 863e 0b9f a43e 0192 3dbe 3e2d 81be
000000c0: 27bf 31be 4b02 b53c 9f6f 213e e1a4 eb3d
000000d0: 7996 5a3c b0dd ab3d a2d3 79be 4a5d 543e
000000e0: e9da 8fbe 41fd 5ebd 732c 8a3e 035c 523e
000000f0: ead7 48be 83b6 5b3e 7c04 2bbe 4576 4f3d
00000100: f98f 443e 9420 0e3d d447 f93d abc2 dfbd
00000110: f765 90bd 4e26 b7bd eca0 ce3d 9e47 f0bd
00000120: 0526 17bd 1bcb 073c 596e 10bd 42b2 853e
00000130: 7f3d 51bd f364 613d 9dcc 573e 80ff 8739
00000140: 957a 763e 1946 223d e5a7 e83d fe26 323d
00000150: c235 923d f502 6c3d 8f51 bfbd 40c1 2cbe
00000160: be8f 48bd 83df 3f3d 0dff 0ebd 68ce f73a
00000170: 75e1 983c 412d 1c3d f15f 30bd ddbf 8dbe
00000180: 6438 a9bc 4172 bdbc b5e0 9f3e d098 133e
00000190: 2641 e03d c87d 65bb bc49 52be 4d88 ddbd
000001a0: 1334 44be 0a93 85be 4445 073e 8086 c4be
000001b0: 4ecb 073e e043 873d 8a21 383e 9766 30be
000001c0: 95a8 31bd 3552 dabd 338d 5bbc cf7a e13b
000001d0: b54d 72be e98d a9be 40b0 c4bd f745 9ebc
000001e0: e869 e7bd 831b 46be 712c 163d 7baa 1dbd
000001f0: f4b6 6e3e f144 193e f679 4dbd fa88 6ebe
00000200: ee93 bcbd 6e86 cdbd 8376 a43d 5305 8dbe
00000210: 06da ba3c bc43 1b3d 1e34 db3d c3a7 243e
00000220: 0ac1 c4bd 1471 02bc d47e 9d3e 71dc 4c3d
00000230: 416a b1be 908f e2bd ab39 e8bd 079d 643c
00000240: 9993 03be 0305 c1bd 2bf0 b7be 2010 4f3e
00000250: c86b 363e 3760 3fbe 53fb 503e 352a 403e
00000260: 67a7 fdbb 04d0 833e fd00 2d3e 2855 f6bc
00000270: b7c5 2e3d 1518 fdbd 7f8f 3d3d cf94 55be
00000280: a1ab 753d 3dfe 57be 2499 4c3b cdec 3cbe
00000290: 9bb8 8dbd fa30 14bd 729b 9a3e 5e44 273e
000002a0: e808 87be 4510 653d 2b21 2cbe 6b6b 163e
000002b0: 0fe1 4a3e 0736 3e3e af77 823d 0890 79be
000002c0: e848 eebd 840d d0ba ae27 973d 33f3 43bd
000002d0: 8951 15bd f11a e9bd 839e 63bd 58a8 b93d
000002e0: 8a46 343d 4a18 6fbc 185e 83bd 3cde 93bc
000002f0: 6c0c b13e ee30 6abe 21a4 6f3d b9e7 8e3d
00000300: 9624 9b3c f469 cd3d 122d 2e3c 986f c33d
00000310: 7077 523e ccf2 7f3d a0e7 7c3c 2a8d a63d
00000320: 3cf7 93bd 6cf2 d6bb 804f dd3d 6498 6b3c
00000330: 2bd8 413e 1bba 123e d3df 2cbe 43c9 903e
00000340: 1b48 443e 1ecb ec3c 9bd5 b33d ec04 7a3d
00000350: 3747 e73d d5d5 9dbd f5a3 52bd 3995 28bd
00000360: 501a cd3d 6311 f33c b76a 423c 9b24 dc3d
00000370: 7dc2 c2bd 12a5 543e 1e87 0d3e 326e cfbe
00000380: ce0f 2f3e 46a3 b83c 6aa6 743d 602c 5cbd
00000390: eb7a abbe 95c8 273e fa90 b13e d1cf ae3d
000003a0: a57e 66be 9cc1 31bd 1bf8 903d 1c80 b03e
000003b0: a0c6 623e 2578 57bd 14fd 7d3e a586 fdbd
000003c0: 4d98 ba3e 2176 60be d6a7 163e 243f 023e
000003d0: 4b4d 9e3c 571c 6abe 3bb1 40be 585c 1c3e
000003e0: 8865 f5bb 17fd 123d 5702 44bd 0e77 9e3e
000003f0: 174d 39be d729 663d 6d34 4dbe 4fcc e43d
0.16603343 -0.037973374 0.016463757 -0.21310249 -0.26058304 -0.13510524 -0.11901912 -0.089453526
-0.21449752 -0.12286641 -0.16636577 -0.086999126 -0.15483792 -0.021618132 -0.16366804 0.021995055
0.16994022 -0.087021895 -0.13149382 0.0570139 0.23853149 0.024843521 0.31390396 0.047625355
0.09957753 0.010614341 0.021692457 -0.06671857 -0.18989661 0.17074908 0.11250369 0.11035958
0.03839972 -0.16049922 -0.08289172 -0.215172 -0.21126263 -0.1419122 0.05621986 0.041144166
-0.18334171 -0.23084296 -0.17889456 -0.120634064 0.261854 0.3215259 -0.18512727 -0.2522983
-0.17358075 0.02209582 0.15765236 0.115060575 0.01334154 0.08391893 -0.24397138 0.20738712
-0.28096703 -0.05444074 0.26987037 0.20542912 -0.19613615 0.21456341 -0.1670093 0.0506499
0.19195546 0.034699038 0.12171903 -0.10925802 -0.07050698 -0.08942853 0.10089287 -0.1173241
-0.036901493 0.00828817 -0.035261486 0.26112562 -0.051084038 0.055027913 0.21074148 0.0002593957
0.24070199 0.03961763 0.11360148 0.043494217 0.0713916 0.057620008 -0.09341728 -0.16870594
-0.04896521 0.046844017 -0.034911204 0.0018906118 0.018662194 0.038129095 -0.043060247 -0.27685443
-0.020656772 -0.02312577 0.31226125 0.14413762 0.10949926 -0.0035017598 -0.2053594 -0.10817013
-0.1916049 -0.26088744 0.13210016 -0.38383865 0.13261148 0.06604743 0.17981544 -0.17226635
-0.043373663 -0.10660211 -0.013400364 0.006881095 -0.23662455 -0.3311608 -0.096039295 -0.019320471
-0.11299497 -0.19346432 0.036663476 -0.03849266 0.23311979 0.14967705 -0.05016514 -0.2329444
-0.09207903 -0.10035406 0.08030417 -0.27543125 0.02280904 0.037906393 0.107033 0.16079621
-0.09607132 -0.00796153 0.30760825 0.050014917 -0.34651378 -0.110625386 -0.11339124 0.013953454
-0.12849273 -0.09424784 -0.3592542 0.20220995 0.17814553 -0.18689047 0.20408373 0.187661
-0.007740903 0.2574464 0.16894908 -0.030069903 0.042669024 -0.12358109 0.046279427 -0.20857547
0.05997813 -0.21093078 0.0031219209 -0.18449707 -0.06919976 -0.03617952 0.3019672 0.16334674
-0.26373982 0.05592372 -0.16809528 0.14689414 0.19812416 0.18575297 0.06370484 -0.2437135
-0.116349995 -0.0015873169 0.07380615 -0.047839355 -0.03645471 -0.11382092 -0.05557109 0.09065312
0.044012584 -0.014593193 -0.06414431 -0.018050306 0.3457979 -0.22870228 0.058506135 0.06977791
0.018938344 0.100299746 0.010630863 0.09542769 0.20553374 0.06248741 0.015436083 0.08132394
-0.072248906 -0.0065596607 0.10806179 0.0143795945 0.18930118 0.14328806 -0.16882257 0.2827855
0.19168131 0.028905448 0.087809764 0.06103985 0.1129288 -0.07706801 -0.051425893 -0.041157935
0.10014784 0.029671377 0.011866263 0.107491694 -0.09509752 0.20766094 0.13821074 -0.4051376
0.17095873 0.022538792 0.059729017 -0.053753257 -0.33492216 0.1638511 0.3468092 0.085357316
-0.22509249 -0.04339753 0.07078572 0.3447274 0.22146082 -0.052604813 0.24803573 -0.12379197
0.3644432 -0.21920063 0.14712462 0.12719399 0.019323966 -0.22862373 -0.18817608 0.15269601
-0.00748891 0.035885897 -0.047853794 0.30950207 -0.18095814 0.056192245 -0.2003953 0.11171781

model.1.running_var f4 [256]
00000000: 7a7d ac3e eb9b 9b3e 29e9 a43d de46 9b3e
00000010: 8d5b b13e bd9c e43d f6b4 4b3e 8584 923d
00000020: 0c6f 5a3d 8ac5 7d3d 7d1b d83e 08b9 e83d
00000030: e8b8 1a3e a065 933d 0f3a 0f3e 4741 e33d
00000040: 999b dc3e 6134 773d a2ec a53e 0147 773e
00000050: c1e5 3e3e bc55 e53d fa0d d93e 6b53 403e
00000060: ea3b 163e 28e8 203f 14f9 0a3f cba6 883e
00000070: b8f6 653e b538 c03d 8afa 373e 21b7 243d
00000080: ec19 a13d 5793 0e3f c885 663e a361 8b3e
00000090: 484c a43e 0660 473e 738b 433e 4559 003f
000000a0: 309a 8b3e 8582 bf3d 61d2 953d 61a1 883e
000000b0: fca5 b43d 079c a53e 80cd ad3d 0c5e 323d
000000c0: 8190 883e 8a76 023f b62f 713d 4a58 b53e
000000d0: b76f 3b3d 0fcd 9b3d e4a6 9c3d 20d1 d13d
000000e0: a6cf d23e be5a 5b3e eb40 2b3e 36ec 913e
000000f0: ec6f 993d bd2f 293f 4efd 7a3d d245 6f3e
00000100: 7916 343e fc7e b93e bbc9 c03e cf8d 273e
00000110: 4559 ce3d 368f 593d f526 693d 347a 2b3d
00000120: 2f4d 433e c0b0 e93d 1285 623e f08d df3e
00000130: 170d 3b3d 543c f53c f09c 253e 208e 3b3e
00000140: ab45 ad3d 7e5d d53d 3f7e 0f3e a20c e63e
00000150: b4e2 d83d b50d 4e3e 2651 0a3e 66e5 873e
00000160: c55a 193e 56be 643e e79b f73d e8fc a33d
00000170: 04e1 7e3e dabd 253f 40d3 b33e 5426 da3d
00000180: b87c 853e fc7b ab3d 0c53 523e 17a3 2e3f
00000190: 7c73 fc3e 620e ba3e 4de9 023e d437 453d
000001a0: b4e1 913d 7f21 c93e ec7f 963d e538 213f
000001b0: c56e 083f 6f76 b13d 2b21 d43d 8d33 993e
000001c0: 5021 443e c857 eb3d ebf6 ef3d a0e7 7c3d
000001d0: 640d 983e 17b6 f23e 288b 9d3d 9d37 963e
000001e0: 4683 453e 58db 5e3d 10fb 8f3d 9b54 b23c
000001f0: 46ec a23d 8098 223e b7cc bf3d 94a7 833e
00000200: 7532 193e 6f62 a23e 1301 f33d cb2e 113f
00000210: 7ee1 973e 8ae9 633d 149a 053d db7f c23d
00000220: 2225 a23d a2d2 703e 2537 283f 849d 813e
00000230: dde8 223f 7b44 273e 743e 293d 6d81 e93d
00000240: a4b9 6f3e 85fd 303d b9d9 e33d ddd7 fb3d
00000250: 377a 8b3e 2252 853e 934b 483e 3ce3 a13d
00000260: d715 b83d 64f2 ec3e c353 823e 88c0 083d
00000270: c971 c83e 9420 5a3d 058d 1c3e 8be3 ae3e
00000280: c2e5 8d3d e77f bf3d fe23 eb3d 1e93 d13d
00000290: 9c04 013e 3c91 9f3e c84c 203f 9bd2 583e
000002a0: 6bbf b13d 1095 c53d e56c 083e eb48 dc3d
000002b0: 12fd 533e 8477 473e f061 813e 26cc aa3d
000002c0: 0ca8 c13d db37 793d fb50 f13e 6792 6a3e
000002d0: 52e6 013e 35cb 7e3e 347c 1c3e 2afe 6b3e
000002e0: a047 7c3d e063 b93d d784 223f ae8c a53d
000002f0: 5bf0 0f3f a9fd 843d 49b8 063f 431a 913d
00000300: f9f1 2a3e 6f86 193e caf7 343e f949 673d
00000310: 1ac9 243e 4ba0 993d 9425 4a3d 8356 223e
00000320: 80ff 573d ce30 a03d a86f 973e bfca 1d3e
00000330: ccad b53d eafb a13d b0c9 db3d 02e5 2d3d
00000340: 5fc1 163e 610f 493e 6c1b a13e 2bd9 013e
00000350: 622f a03e 5f5a 4c3d b8c9 813d 2701 c13d
00000360: 8321 843e 0dcb 903d ad82 1a3e fb97 d33e
00000370: 2718 103f 88d5 c63e e17a d53d 3773 d43e
00000380: 0ddc 413e ca29 d13d 1be4 963d ae3c 9b3e
00000390: 08d6 b03e cef1 c83d 4932 e13e 1f85 b53e
000003a0: ece3 773e 6e7d 6a3c 1893 2c3e 5ce2 293f
000003b0: e69b 3b3d 09a9 013e e384 5b3e 2649 ed3c
000003c0: c656 9d3e 3e0b 8e3d d718 b43d bc2e 7b3e
000003d0: 8f2d 083e 2155 423f bc5f c63e 9d90 d43d
000003e0: 6ac2 b73e 4f1c d93d 0d6c 2a3d df51 d43e
000003f0: f101 fd3e 21fc 4e3e a266 873e 9f03 343d
0.3368948 0.30392393 0.08052284 0.30327505 0.3464016 0.11162708 0.1989325 0.07154182
0.05332856 0.061955966 0.42208472 0.11363417 0.15109599 0.07197118 0.13986991 0.11096435
0.43087462 0.060352687 0.324071 0.2414818 0.18642332 0.11197993 0.42393476 0.18781821
0.14671293 0.6285424 0.54286313 0.26689753 0.22457397 0.09385816 0.17966667 0.040213708
0.07866272 0.5569357 0.22511971 0.27222928 0.32089448 0.19470224 0.19096164 0.50136214
0.27266073 0.093510665 0.07315517 0.26685622 0.088207215 0.32345602 0.08486462 0.04354672
0.26672748 0.50962126 0.05888339 0.35418922 0.045760836 0.07607471 0.07649019 0.102449656
0.41174048 0.21421334 0.16723983 0.28500527 0.074920505 0.6608847 0.061276726 0.23366478
0.17586698 0.36229694 0.37653908 0.1636269 0.100756206 0.053115092 0.056921918 0.04186459
0.19072412 0.114106655 0.22121075 0.43662977 0.04566678 0.029935993 0.16173148 0.18315935
0.08460554 0.10418223 0.14013003 0.44931513 0.10590115 0.20122416 0.13507518 0.26542205
0.14976032 0.22338232 0.12090283 0.080072224 0.24890524 0.64742815 0.35122108 0.10651842
0.26071715 0.083732575 0.20539492 0.68217605 0.49306858 0.36339098 0.1278431 0.048148945
0.071231276 0.39283368 0.07348618 0.6297744 0.5329402 0.086651675 0.10357889 0.29922143
0.19153333 0.11491352 0.11717018 0.061744332 0.29697716 0.4740455 0.076925576 0.29339305
0.19288358 0.0544084 0.07030308 0.021768859 0.07955222 0.15878487 0.09365218 0.2571379
0.14960654 0.31715724 0.11865439 0.56712025 0.29664224 0.055642642 0.032617643 0.09497043
0.07917239 0.2351785 0.65709144 0.25315487 0.6363657 0.16334717 0.041319326 0.11401639
0.2341066 0.043210525 0.11125512 0.12297032 0.2724168 0.26039225 0.1956008 0.0790467
0.089885406 0.4627868 0.2545453 0.033386737 0.3914931 0.053253725 0.1528817 0.34157977
0.069285884 0.09350567 0.11481474 0.102331385 0.12599415 0.31165493 0.6261716 0.2117409
0.08679088 0.09647572 0.1332279 0.107560955 0.20702007 0.19479185 0.25270033 0.083397195
0.094558805 0.060844284 0.47132096 0.2290741 0.12685516 0.24882205 0.15281755 0.23046175
0.061591744 0.09052253 0.6348395 0.08083473 0.5622613 0.06493694 0.52624947 0.07085087
0.16693868 0.14992689 0.17672649 0.05646703 0.16092339 0.075012766 0.049352244 0.15853314
0.0527339 0.07821809 0.29577374 0.15409373 0.0887104 0.07909377 0.10731828 0.042454727
0.14722203 0.19634773 0.31466234 0.126805 0.3128615 0.049890872 0.06337303 0.09424048
0.25806817 0.07069979 0.15088911 0.4132689 0.56286854 0.38834786 0.10423828 0.41494152
0.18931599 0.10213049 0.073677264 0.30319732 0.34538293 0.098117456 0.43983677 0.35453126
0.24208039 0.014312131 0.16852987 0.6636102 0.045802973 0.12662138 0.21437411 0.028965544
0.30730265 0.06935738 0.087938 0.24529546 0.13298629 0.75911146 0.38744915 0.10379145
0.35890514 0.106011026 0.04160695 0.41468713 0.49415544 0.20213367 0.2644549 0.043948766

model.4.weight f4 [128, 256]
00000000: 88db b8bc 75fb 093c 7c02 bb3c e393 9a3c
00000010: f223 893d 9130 31bd e0ab e03b 6443 173d
00000020: 9474 e4bd a417 8dbc 0946 113d f7d1 273d
00000030: 7b2d 913d 274b b7bc 2e1b 46bd 46ff 963c
00000040: 1aea bfbc 75ec 0cbd e2ac aa3d 28bf 1c3c
00000050: ba29 43bc 2466 223d 8dc5 5ebc 7023 813d
00000060: 8a08 253d b743 f6bc 7e4b c3bb b4d6 a7bc
00000070: 2ba8 063d 9815 043d 4a1c b9bc 7574 31bc
00000080: 6fad 92bc ea9c 9fbd 8c39 26bd 27f4 06bd
00000090: a4b4 0bbb 6aa7 3f3c 49e5 303d 0c90 f0bc
000000a0: 9934 543d 8ede 19bd 91af 93bd 31e6 8c3d
000000b0: 517f bdbc e973 10bd f18d 78bb 54e0 74bd
000000c0: 420e 183d 029f 6dbd de29 88bd 1813 15bd
000000d0: be76 32bd 29bf 35bd a6c2 333d 9824 2c3d
000000e0: 1e8f 8d3b 8879 99bb 31cc 953c ee42 563d
000000f0: 6d09 8e3d 5180 913b fa57 a2bc 2f8e 1ebd
00000100: b7e3 3b3c cd3f 3b3b 99b5 893d e9f7 abbc
00000110: 88cd 94bd 8c45 b2bc b268 8bbd 0261 9ebc
00000120: c984 2d3c fa82 2f3c d41e c2bb 4e6b afbd
00000130: 4bac 2ebc dcb1 fd3c cecd 863d 28c8 5d3d
00000140: 4165 66bd cea3 16bd 96fa 103d 065f 57bd
00000150: e8db 183b d797 ffbc 45a1 473d 3557 5a3d
00000160: 5593 cfbc aa74 42bd cdcc e63d 08fc 80bd
00000170: 91f7 2c3c 1434 483d c1d5 02bd d1b1 00bd
00000180: c231 533b ca67 a63c de05 afbc f347 4c3d
00000190: b238 b83d 925d 5c3d 4cd9 2e3d c833 203d
000001a0: 1bd7 093b 29b8 d63c 6d47 f5ba e4fc 193d
000001b0: bb34 d33c 12f5 59bd dd01 173d 2c7c 87bb
000001c0: c7e0 ae3c a2ea 08bd 7142 f33c f82a 22bd
000001d0: 1fa3 5e3c 9779 08bc 667e 77bd d2eb 76bd
000001e0: 0143 763d 7be8 3cbd 0cf2 36bd 9bc2 adbd
000001f0: ad9c babc daa3 fabc 6cf0 b6bd c3c1 0abc
00000200: 5a5e 5e3d e129 3b3c cdc7 5c3d 617b b5bc
00000210: 7bd1 26bd f305 85bc 56e8 d5bc 49a7 8d3c
00000220: 50c1 a73c 430b 313d 0cec 633c b205 c4bc
00000230: 565c 9e3c c077 953d 63d7 2f3b 6e76 063d
00000240: 52f0 14bd 8cfb 633c 50c1 4fbc 7d1d 8cbd
00000250: 4827 fd3b 6fbd f43b 0190 b33d 4427 bb3c
00000260: 43c0 86bd 7ef8 ca3c 4d07 183c 7297 4ebc
00000270: 06f8 73bd 8ab7 ddbc 0f80 4cbd af13 94bd
00000280: 6677 8a3d ecc5 3c3d 3338 e63c 7f0c 903c
00000290: 69f8 a53c ee98 223b 352b 863d bccb 49bd
000002a0: 0b6b 89ba 14af da3c a039 88bc 6d42 433d
000002b0: eef9 8e3c bbc9 283c 8e88 0f3d 7704 a53d
000002c0: 0096 a63c b981 89bc d29c 39bd b1ce c63c
000002d0: 3eff 873c b3b9 e53b 4ac4 a63b 54c4 b9ba
000002e0: 51fa 09bd 7af8 93bc bf1b 7e3d 8fc4 3d3d
000002f0: 50b2 863d 396d 83bd f44a b5bd c632 20bd
00000300: 30e3 01bd a8f3 723b 036d 8f3c cb6d c13c
00000310: 912c 7bbb 88c1 e2bc 9fdd 94bd db0c c83b
00000320: aa8c 8dbd e5a5 71bd 68c0 763d 1716 e73a
00000330: 673a 2ebd 1e13 78bb 2695 d8bb 394a 3a3d
00000340: 0152 c8bc a7ff 063d 647d 673d 6d6b 103d
00000350: a59f 5ebc 20fd 27bb 6b39 2a3c 6b45 46bd
00000360: db99 b53c f544 1e3d fee9 6a3d 6c58 cf3c
00000370: a3b0 e7bb 14f1 76bd 1d17 4cbd f1d5 a6bb
00000380: de3b 023a 9920 a6bb 2e2f 3e3d 9196 94bc
00000390: 755d 0f3c b372 b6bc bc68 523d a12a 933d
000003a0: 03c1 953d cc08 f4bd 8f6c bebc 13da 863d
000003b0: 9d56 c4bd 324f 67bd c765 07bc 6d1b e43d
000003c0: 247f 583a 9eba 383d 9628 403d 4254 bebc
000003d0: ee18 ccbb 7874 b53c 106a c43c 35c1 803d
000003e0: a6f4 88bd 784f eebc cd27 79bd 93f5 253d
000003f0: 4f34 b63c d83d e2bd 0de1 153c bb7b dbbc
-0.022565618 0.008421768 0.022828333 0.018869346 0.06696309 -0.043259207 0.0068564266 0.036929503
-0.11155048 -0.017223187 0.03546718 0.040971722 0.07088753 -0.022374703 -0.048365764 0.01843227
-0.023427058 -0.03440519 0.08333756 0.00956706 -0.011911804 0.03964819 -0.013596904 0.06305587
0.040291347 -0.030061586 -0.005959927 -0.02048812 0.03287522 0.032247156 -0.022596497 -0.010830988
-0.017904965 -0.07793601 -0.040582225 -0.032947686 -0.0021317387 0.0116976295 0.043187413 -0.029365562
0.051807974 -0.03756576 -0.07211221 0.06879843 -0.023131998 -0.03526679 -0.00379264 -0.05978425
0.037122972 -0.05801297 -0.066486105 -0.036395162 -0.043570273 -0.044371758 0.043886803 0.042027086
0.0043200394 -0.004683677 0.018285843 0.052309923 0.069353916 0.0044403453 -0.019817341 -0.038709816
0.011467866 0.0028571964 0.0672409 -0.020992236 -0.072657645 -0.021761678 -0.068070784 -0.019333366
0.0105907405 0.01071238 -0.005924085 -0.085653886 -0.010661195 0.030968599 0.06582223 0.054145962
-0.056248907 -0.03677731 0.035395227 -0.052580856 0.0023324434 -0.031200333 0.048737783 0.053305823
-0.025338808 -0.04747454 0.112695314 -0.06298071 0.010557071 0.04887779 -0.031942133 -0.03141958
0.0032225703 0.020313162 -0.021365102 0.049873304 0.08995189 0.053800173 0.0426877 0.039111882
0.0021032754 0.026210861 -0.0018713303 0.03759469 0.02578198 -0.053212233 0.03686701 -0.0041346755
0.021347417 -0.03342689 0.029694768 -0.03959176 0.013588696 -0.0083297705 -0.060423277 -0.06028349
0.060122494 -0.04612015 -0.044664428 -0.08484384 -0.022779787 -0.030595709 -0.089325756 -0.008469048
0.0542892 0.011423559 0.053901482 -0.022153558 -0.04072712 -0.016238188 -0.026111763 0.017291682
0.02047792 0.04322363 0.013911258 -0.023928497 0.019331139 0.07298231 0.0026831261 0.032827787
-0.036362 0.013914954 -0.012680367 -0.06841562 0.00772563 0.0074688713 0.08767701 0.022845872
-0.0657964 0.024776693 0.009279084 -0.01260935 -0.059562705 -0.027065057 -0.049926814 -0.07230317
0.06761055 0.04608719 0.02810297 0.017584084 0.020260053 0.0024810391 0.0655121 -0.049266562
-0.0010484172 0.026694812 -0.01662904 0.04767077 0.01745316 0.010302003 0.035042338 0.08057492
0.020335197 -0.01678549 -0.04531557 0.02426848 0.016601201 0.0070106625 0.0050893174 -0.001417289
-0.033685986 -0.018062819 0.06203818 0.04633003 0.06576979 -0.06417317 -0.08852187 -0.03911092
-0.031710804 0.00370715 0.017508036 0.023611924 -0.0038326124 -0.027680174 -0.07268833 0.006105048
-0.06911595 -0.0589961 0.060242087 0.0017630485 -0.042536166 -0.0037853192 -0.0066095768 0.04548094
-0.024453165 0.032958653 0.056516066 0.0352587 -0.013587867 -0.0025633052 0.010389666 -0.048406046
0.02216809 0.03863998 0.05735206 0.025310718 -0.0070706173 -0.060288504 -0.04982673 -0.005091422
0.00049680274 -0.005069804 0.046431713 -0.018138202 0.008750309 -0.02227149 0.051369414 0.07185865
0.07312205 -0.1191574 -0.023245124 0.06584563 -0.09586833 -0.05647201 -0.008264012 0.111380436
0.00082586915 0.045099847 0.046913706 -0.023233537 -0.006228558 0.022150263 0.023976356 0.06286851
-0.06687288 -0.029090628 -0.060828973 0.0405174 0.02224174 -0.11046952 0.009147895 -0.026792398

model.4.bias f4 [128]
00000000: f63f dc3b 88d7 3abd 21f4 6ebc 4594 5d3d
00000010: 57a0 093c 26c1 72bd a9ff 713d 1264 3b3c
00000020: 2be9 413c e034 4b3d 2224 ccbc 01fe 3ebd
00000030: 8ff8 c739 f2f8 f1bb cc52 3c3b 859c 4c3c
00000040: c25f 953c ddb5 6c3d b6bc 0dbc 3036 b9bc
00000050: 90ad 063d 436f ffbc dd42 203d 12e1 b23b
00000060: 60fd 46bd 0dd6 3cbb 1193 9d3c 3efb 2ebd
00000070: 8f18 5cbd c7fb db3b 592c 7bbd 50ce 353c
00000080: 25d7 b3bc 356d 573d cae3 47bd 939e af3c
00000090: bfcd 393d 1726 353d e841 cb3c c326 263d
000000a0: 0f7d 4cbd d207 1bbd 1ddf 633d 5369 583c
000000b0: 06c3 0abc 5912 873c b2a3 13bd b389 56bd
000000c0: 1e01 c3bc af38 6e3d caa0 1dbd 03d7 1a3d
000000d0: 41bb cd3b 99ac e0bb eeb2 ff3c df9d 0b3d
000000e0: a1b0 47bd ba3f 9e39 6708 bcba 1180 67bc
000000f0: 24b7 1b3d 0345 a9bc 0d4d e73c 8f8a 733d
00000100: 1405 ae3b 9999 1abd dfb7 6e3c ad2c 22bd
00000110: 3456 003c d608 013d ad2a 33bd 9dcc 7a3c
00000120: 470f d3bc b091 36bc d2b1 303d fab3 3f3d
00000130: 3bd7 77bc c489 cd3c 4c8b 423d 5df2 1ebd
00000140: 53ad 683c c6fe 0c3d 60f7 7abd ec58 58bd
00000150: 9bc9 4d3c 9e84 403b 9c5a 923b af14 53bd
00000160: 469f 4bbd 4070 7ebc 47f6 eabb 9256 b0bb
00000170: 7fbe 9c3b b9b8 5bbd e56b 8bbc 02d3 92bc
00000180: e52f e33c 7085 823c 960c 743d b25d 113d
00000190: 257e 283d 7cef 643b 3064 bc3c b906 e9bc
000001a0: d83b 48bd d8d0 473d 8f60 39bd 3a4a 4c3d
000001b0: ed01 0b3d 5b85 433d 5a7c e0bc 9a15 183d
000001c0: 9462 1e3c 428d 67bd 60fe ee3c 7542 cd3c
000001d0: 6830 cdbc d58c 35bb 2e90 903c 9160 173d
000001e0: 51b4 ce3c f0e6 4c3c 5c03 36bd a209 54bd
000001f0: a85d d33c f46e f43c b14d 3f3d cd45 1b3c
0.006721492 -0.045615703 -0.014584572 0.05409648 0.008400044 -0.059266232 0.059081707 0.011437433
0.011835377 0.049610972 -0.024919573 -0.046628956 0.00038141428 -0.007384413 0.0028735874 0.012488489
0.018234137 0.057790626 -0.008650949 -0.022608846 0.032880366 -0.031180983 0.039126266 0.0054589594
-0.04858148 -0.0028814108 0.019235166 -0.042720072 -0.05373436 0.006713364 -0.06132159 0.011096552
-0.021953175 0.052594382 -0.04880122 0.021437919 0.04536223 0.04422578 0.0248117 0.04056431
-0.049923953 -0.037849255 0.0556327 0.013208705 -0.008469349 0.016488241 -0.036044784 -0.052377414
-0.023804244 0.058159526 -0.03848342 0.037802707 0.006278426 -0.0068565127 0.03121325 0.034086104
-0.04875243 0.00030183588 -0.0014345766 -0.0141296545 0.038016453 -0.02066279 0.028234983 0.05945831
0.005310664 -0.03774414 0.0145702055 -0.039593387 0.007833052 0.031502567 -0.04374187 0.015307573
-0.02576412 -0.011143133 0.043138333 0.0468025 -0.015126999 0.025090106 0.047496125 -0.038805354
0.01420148 0.03442266 -0.06127107 -0.052819178 0.0125602735 0.002937592 0.004466368 -0.051533397
-0.04971244 -0.015529692 -0.007170472 -0.0053814137 0.004783451 -0.053642962 -0.017019222 -0.017922882
0.027732799 0.015932769 0.059582315 0.035489745 0.041135926 0.0034932783 0.022996992 -0.028445588
-0.048885196 0.048783153 -0.0452581 0.049875475 0.033937383 0.0477346 -0.027403045 0.037129976
0.009667058 -0.0565312 0.02917403 0.025056103 -0.025047496 -0.002770235 0.017646875 0.036957327
0.025232466 0.012506232 -0.044436797 -0.051767 0.025801495 0.029838063 0.04670495 0.009477091

model.5.weight f4 [128]
00000000: 99f8 853f 912f 783f 6906 803f 2cf2 7a3f
00000010: 7b26 833f 2843 813f 0668 803f 083b 833f
00000020: 4a9d 813f 6aa2 803f d820 783f d9f4 773f
00000030: c5d2 7c3f 89ab 7f3f 87b0 863f 7985 803f
00000040: b911 863f c3c2 853f 0048 753f 9d09 7c3f
00000050: e872 723f dd50 7b3f 7ab4 793f 7dd3 823f
00000060: 06ff 7b3f de6f 823f 6f2b 843f 0f13 7f3f
00000070: 901b 823f 6a0c 7f3f 1b80 783f 8959 843f
00000080: 5f60 833f c2b2 773f ab13 843f da80 733f
00000090: 6154 813f 96a0 7d3f f406 863f 784b 823f
000000a0: 6877 7d3f cac9 7b3f 32fc 823f b59c 7e3f
000000b0: 3833 733f 485e 7d3f 994c 7c3f 48b9 7e3f
000000c0: cd6e 813f 7a28 803f 9753 7d3f af49 7b3f
000000d0: b058 7a3f c79a 7f3f 568e 763f 9056 7b3f
000000e0: ed55 833f d87d 843f afdb 833f a12c 813f
000000f0: 1df2 823f 112a 823f 6491 853f 64ac 7e3f
00000100: c8b9 813f ceac 813f 6bab 7c3f 4043 783f
00000110: cfef 853f 9dc2 823f 6cc9 7f3f 1a99 783f
00000120: 979d 833f 5244 7b3f 1120 7c3f de80 833f
00000130: 3e67 753f 7646 803f 03e3 763f 803f 803f
00000140: 3824 7d3f 39c4 793f 056d 7d3f af43 873f
00000150: 2ee3 7d3f 3da4 803f 39fe 823f a96a 813f
00000160: 8101 743f 9cec 7c3f 6320 7c3f 6b75 7d3f
00000170: 67b3 823f 709f 803f 03df 833f 91e0 803f
00000180: b980 803f 1b91 813f 6dd8 7f3f 3c0d 763f
00000190: 9010 7e3f d71f 833f 4020 7a3f b5bc 823f
000001a0: 8f93 803f 25d1 8a3f bc00 7c3f c1a0 703f
000001b0: 7543 853f 8c53 7b3f eea3 813f 6cb7 783f
000001c0: 99a6 7a3f afba 7d3f 7236 813f a384 833f
000001d0: 391b 783f ea2b 863f f237 7d3f ee52 7e3f
000001e0: be4d 783f 0242 813f 4e31 803f 8486 7f3f
000001f0: 10bd 803f eb39 7b3f 0759 7e3f 10b0 7d3f
1.0466491 0.9694758 1.0001956 0.98025775 1.0246118 1.009862 1.0031745 1.025239
1.0126126 1.0049565 0.96925116 0.9685798 0.9875911 0.99871117 1.0522622 1.0040733
1.0474159 1.0450062 0.9581299 0.9845217 0.94706583 0.9817026 0.9754101 1.0220791
0.9843601 1.0190389 1.0325755 0.99638456 1.0164661 0.9962832 0.97070473 1.0339824
1.0263785 0.9675714 1.0318502 0.95118487 1.0103875 0.9907316 1.0470872 1.0179281
0.99010324 0.9835478 1.0233214 0.99457866 0.9500003 0.98971987 0.9855438 0.99501467
1.0111939 1.0012352 0.9895567 0.9815931 0.97791576 0.99845546 0.9631094 0.9817896
1.0260597 1.0350904 1.0301417 1.0091745 1.0230137 1.0169088 1.0434995 0.994818
1.0134821 1.0130861 0.98699063 0.96977615 1.0463809 1.0215641 0.9991672 0.97108614
1.0282468 0.98151124 0.9848643 1.0273702 0.9586066 1.0021503 0.9644014 1.0019379
0.9888339 0.97565037 0.98994476 1.056753 0.99174774 1.0050122 1.0233833 1.0110675
0.95314795 0.9879854 0.9848692 0.9900729 1.0210999 1.0048656 1.0302433 1.0068532
1.0039283 1.0122408 0.99939615 0.96113944 0.9924402 1.0244092 0.9770546 1.0213839
1.0045031 1.0845076 0.9843862 0.9399529 1.0411211 0.9817436 1.0128152 0.9715488
0.9791046 0.9911298 1.009474 1.0274853 0.9691654 1.0482152 0.9891349 0.9934529
0.96993625 1.0098269 1.0015047 0.9981463 1.0057697 0.9813525 0.99354595 0.99096775
