verification/models/best_hybrid_model_1.pt (torch, 926017 bytes, 34 tensors)

q_weights f4 [8, 5, 3]
0.0023889134 0.016847074 0.005748732 0.010965596 -0.018565044 -0.0030764185 -0.011157251 0.010347321
0.00825974 0.02117927 -0.008342734 -0.007487464 0.0067100804 -0.0022322796 0.0071641253 0.0064984546
0.012187072 0.006229039 -0.021820895 0.05764975 0.02451753 -0.001200609 -0.021998614 0.020145444
0.016707256 0.029831128 0.042845882 -0.042433485 -0.0072493553 -0.012849684 0.0025890078 0.019297756
0.0032750529 -0.02133896 0.0031509278 -0.030340595 -0.018643893 -0.026705023 -0.02915368 -0.016292823
-0.010926746 -0.024217052 -0.008237025 -0.02511432 -0.034876514 -0.017384011 0.009588371 0.0066781365
-0.0043767868 -0.0111251185 -0.005457577 0.02441915 -0.013220351 -0.034999862 0.0036919366 -0.011731238
0.024608944 0.017977841 -0.024866547 0.017229859 0.030850729 -0.022372527 -0.0071038487 -0.026472764
-0.0011826445 0.011433529 -0.0051412093 -0.015573185 -0.010486339 0.031492162 -0.0041883695 0.020964777
-0.0044633965 0.01712695 0.005817141 -0.0229999 -0.023507377 -0.0036903878 -0.0048632477 0.013705164
0.024104208 -0.033399004 -0.007966954 0.027668118 -0.02118936 -0.021277564 -0.012376968 0.00426341
-0.02876579 0.051540826 0.018808078 0.008406601 0.02110547 -0.0052193403 -0.0067600296 0.009877389
-0.026105057 0.007167181 -0.012547992 -0.00044094512 0.016041858 -0.0056666858 0.027407324 0.010039525
-0.014228762 0.027926138 0.02335781 -0.027263882 -0.000939688 -0.0009472329 0.004114634 -0.014578152
-0.0018953312 0.0035009133 -0.046528347 -0.0021259463 -3.789441e-05 -0.004276123 0.023230776 0.02182095
00000000: 518f 1c3b e002 8a3c dc5f bc3b 0ba9 333c
00000010: b815 98bc bd9d 49bb e7cc 36bc cf87 293c
00000020: dc53 073c 2680 ad3c f6af 08bc 6759 f5bb
00000030: 3ce0 db3b 704b 12bb 0ac1 ea3b fdf0 d43b
00000040: 49ac 473c f71c cc3b bcc1 b2bc 2522 6c3d
00000050: fdd8 c83c c15d 9dba 7036 b4bc 0f08 a53c
00000060: a8dd 883c 6960 f43c 2a7f 2f3d bcce 2dbd
00000070: 008c edbb 7b87 52bc 58ac 293b 5416 9e3c
00000080: 45a2 563b 0bcf aebc cc7f 4e3b d78c f8bc
00000090: 14bb 98bc 7ec4 dabc b3d3 eebc 8778 85bc
000000a0: 1806 33bc d762 c6bc 96f4 06bc 8cbc cdbc
000000b0: adda 0ebd ea68 8ebc 8b18 1d3c 45d4 da3b
000000c0: 266b 8fbb 2146 36bc 79d5 b2bb ab0a c83c
000000d0: 2c9a 58bc 045c 0fbd 6bf4 713b 6134 40bc
000000e0: b298 c93c 4446 933c eeb4 cbbc a225 8d3c
000000f0: abba fc3c 9746 b7bc 67c7 e8bb 69dd d8bc
00000100: f702 9bba b253 3b3c 9777 a8bb ac26 7fbc
00000110: e5ce 2bbc edfd 003d 973e 89bb 53be ab3c
00000120: af41 92bb d14d 8c3c b79d be3b 496a bcbc
00000130: 8b92 c0bc 6fda 71bb e15b 9fbb a08b 603c
00000140: 3076 c53c 65cd 08bd d487 02bc 40a8 e23c
00000150: 4f95 adbc 494e aebc c4c8 4abc 13b4 8b3b
00000160: 3ca6 ebbc 791c 533d 6613 9a3c d7bb 093c
00000170: 61e5 ac3c 0007 abbb 3d83 ddbb c6d4 213c
00000180: 46da d5bc acda ea3b 1896 4dbc a72e e7b9
00000190: 376a 833c 9baf b9bb 5385 e03c d27c 243c
000001a0: c11f 69bc 5bc5 e43c e158 bf3c 8158 dfbc
000001b0: 6555 76ba b94f 78ba 0dd4 863b 34d9 6ebc
000001c0: c36c f8ba 946f 653b 8294 3ebd 7653 0bbb
000001d0: d0f0 1eb8 b81e 8cbb 784e be3c d9c1 b23c

pre_net1.0.weight f4 [512, 5]
-0.11346305 0.4087982 0.34647948 -0.34993398 -0.09336314 -0.0066689067 -0.28034815 0.1770323
-0.30040514 -0.23051438 -0.17704616 -0.06679265 0.15996946 0.1156827 -0.38870254 0.22621135
0.3977142 -0.058433272 -0.28053764 -0.4334198 -0.08476648 0.23226686 -0.2930143 0.06264178
0.32681298 -0.28213224 -0.21470636 -0.2853815 -0.19651422 -0.19596004 0.11596882 -0.033724967
-0.038757782 -0.1718661 -0.19099183 0.40215284 -0.07497092 -0.3456981 -0.34266248 -0.1625358
0.09405492 -0.33366472 -0.23095298 0.0761705 0.35320884 0.11077805 -0.019433828 -0.031641908
-0.17562726 0.38944265 -0.30127978 -0.0694872 0.40249494 0.2596223 0.34077668 0.30068195
-0.13192612 -0.27573133 -0.013562523 -0.21457388 -0.2776721 0.023403762 0.14874494 -0.050275896
0.23516767 0.15600476 -0.010963829 -0.23784931 -0.42746308 -0.4449877 -0.3415633 -0.30124012
0.29234847 0.24775074 -0.32170746 -0.44434088 0.20676649 -0.3373547 0.059967965 0.14861673
0.048504338 0.35355532 -0.23019354 0.012100121 -0.13334951 -0.43143755 0.08793758 0.3757258
0.28336242 -0.36164707 0.22656257 -0.2208004 -0.39119557 0.23250292 0.29531312 0.17171976
0.2114347 0.23854573 -0.14030789 -0.30137745 -0.14259988 0.20898837 0.04030868 -0.17195481
-0.25984317 -0.22517091 -0.10286335 0.1541863 -0.1909203 -0.07821086 -0.2689572 0.041772414
0.0644506 -0.3529481 0.39326733 -0.032048143 0.16605951 -0.25310406 -0.12157096 -0.23153765
-0.41414917 0.35530207 0.27289918 -0.38902375 -0.18857627 -0.04124516 -0.29246166 0.072589956
0.030793445 0.44248155 -0.12916957 0.21173011 -0.358257 0.042557593 -0.3351305 -0.036018822
-0.23196489 0.05454976 -0.20767988 -0.18347575 0.39163882 0.06380888 0.3842165 -0.32117498
0.11174502 0.43412864 -0.24627548 -0.114837594 0.026219381 0.2971129 0.06903192 -0.19737728
0.046989158 -0.15244037 0.102903225 0.19195929 -0.41182092 -0.25433284 0.32197705 0.12576288
0.21327706 0.24748471 0.19783993 -0.26846865 0.15441404 0.2790364 -0.22626285 0.06618319
-0.18590108 -0.18531187 -0.13565242 -0.4458256 0.31925282 0.4283261 -0.30072168 -0.1299289
-0.3433136 0.34835574 0.0630695 0.04700547 -0.24211022 -0.17813437 0.2219304 -0.37147647
-0.37902993 -0.3112864 -0.21957704 -0.33905295 -0.28306714 0.30627945 0.24409674 -0.32945013
-0.437626 0.17951664 0.38347283 -0.2556196 -0.20690857 0.18386312 0.41077623 0.057958156
0.36434346 -0.36467615 -0.03244777 0.1931843 -0.110305436 -0.40664473 0.040967457 -0.42784858
0.32882684 0.3558713 0.1693863 -0.22622393 -0.011561884 -0.39545977 0.08184167 0.15551019
-0.14973366 -0.3574891 0.06302861 -0.25881836 -0.4157193 0.30077696 -0.24510203 -0.23537211
0.41521758 0.4388155 0.10959537 -0.03248733 0.20752127 -0.15397464 0.10939988 0.24062052
0.10316818 0.44016606 0.39678842 -0.097058415 0.16380505 0.22695208 -0.0035748906 -0.38056937
0.1625751 0.2749194 0.23674831 -0.107989244 -0.17509691 0.008213355 0.12421017 -0.04767459
-0.43369564 0.05352025 0.43962744 -0.117360964 -0.23385955 -0.41575092 0.079573244 -0.24589863
00000000: 515f e8bd ff4d d13e c265 b13e 8c2a b3be
00000010: 2d35 bfbd d886 dabb cb89 8fbe f547 353e
00000020: b4ce 99be f60b 6cbe 974b 35be 96ca 88bd
00000030: 09cf 233e 0deb ec3d 0504 c7be f3a3 673e
00000040: 32a1 cb3e ba57 6fbd a1a2 8fbe 33e9 ddbe
00000050: 0c9a adbd 5dd7 6d3e f805 96be 554a 803d
00000060: 0854 a73e a373 90be fcdb 5bbe 861d 92be
00000070: 063b 49be c0a9 48be 1081 ed3d 3123 0abd
00000080: 7bc0 1ebd abfd 2fbe 5d93 43be fae6 cd3e
00000090: 5b8a 99bd 57ff b0be 7571 afbe c96f 26be
000000a0: de9f c03d 1ad6 aabe f07e 6cbe 47ff 9b3d
000000b0: cad7 b43e 9adf e23d b133 9fbc f29a 01bd
000000c0: a2d7 33be 0765 c73e 5841 9abe 4e4f 8ebd
000000d0: d113 ce3e 37ed 843e 487a ae3e fcf2 993e
000000e0: a417 07be a82c 8dbe 5835 5ebc 41b9 5bbe
000000f0: 0a2b 8ebe 3fb9 bf3c 9850 183e 19ee 4dbd
00000100: cbcf 703e b6bf 1f3e a2a1 33bc c58e 73be
00000110: 71dc dabe 6ed5 e3be 63e1 aebe 253c 9abe
00000120: b3ae 953e 5fb2 7d3e d7b6 a4be a680 e3be
00000130: 98ba 533e c1b9 acbe f8a0 753d fc2e 183e
00000140: 7cac 463d 3405 b53e dbb7 6bbe 963f 463c
00000150: c68c 08be 62e5 dcbe 9e18 b43d 225f c03e
00000160: e114 913e ce29 b9be 0500 683e 8019 62be
00000170: c94a c8be 3f15 6e3e 4833 973e 4ed7 2f3e
00000180: 5782 583e 5545 743e dfac 0fbe 254e 9abe
00000190: b405 12be 0c01 563e b71a 253d ec14 30be
000001a0: 2a0a 85be 3493 66be 05aa d2bd 03e3 1d3e
000001b0: 9c80 43be 042d a0bd c2b4 89be 8d19 2b3d
000001c0: adfe 833d 9db5 b4be 565a c93e ea44 03bd
000001d0: 810b 2a3e db96 81be 32fa f8bd 3518 6dbe
000001e0: 5c0b d4be 27ea b53e 71b9 8b3e 1f2e c7be
000001f0: 231a 41be aff0 28bd 89bd 95be 0baa 943d
00000200: 8942 fc3c f18c e23e 0745 04be c7cf 583e
00000210: 766d b7be df50 2e3d 3a96 abbe 7988 13bd
00000220: 3488 6dbe 926f 5f3d 09aa 54be 11e1 3bbe
00000230: e284 c83e 3bae 823d 06b8 c43e 0c71 a4be
00000240: 93da e43d 1c46 de3e a42f 7cbe f92f ebbd
00000250: 07ca d63c 2f1f 983e 9b60 8d3d 451d 4abe
00000260: b477 403d 5419 1cbe edbe d23d fa90 443e
00000270: 31da d2be ea37 82be 2dda a43e fcc7 003e
00000280: 4d65 5a3e a26c 7d3e 8d96 4a3e b974 89be
00000290: b71e 1e3e dcdd 8e3e 73b1 67be 0d8b 873d
000002a0: da5c 3ebe 65c2 3dbe 78e8 0abe 4143 e4be
000002b0: 1b75 a33e 8f4d db3e 31f8 99be 150c 05be
000002c0: cdc6 afbe af5b b23e 952a 813d cf88 403d
000002d0: beeb 77be db68 36be b941 633e 2a32 bebe
000002e0: 3610 c2be ee60 9fbe ced8 60be 5998 adbe
000002f0: 2dee 90be a9d0 9c3e 7ff4 793e b0ad a8be
00000300: 8410 e0be 36d3 373e 8d56 c43e 92e0 82be
00000310: d7df 53be 9d46 3c3e 4351 d23e 8865 6d3d
00000320: 3a8b ba3e d5b6 babe f4e7 04bd 1bd2 453e
00000330: d1e7 e1bd bd33 d0be 7ecd 273d f80e dbbe
00000340: fe5b a83e c334 b63e 9a73 2d3e 3fa7 67be
00000350: 0e6e 3dbc b479 cabe 9b9c a73d 103e 1f3e
00000360: c853 19be d008 b7be 2515 813d d783 84be
00000370: 29d9 d4be 70ff 993e 07fc 7abe 6305 71be
00000380: 6697 d43e 6dac e03e 8a73 e03d 6f11 05bd
00000390: 7580 543e 87ab 1dbe 0b0d e03d 3a65 763e
000003a0: d749 d33d 725d e13e da27 cb3e 90c6 c6bd
000003b0: 83bc 273e 2066 683e b648 6abb fdd9 c2be
000003c0: 167a 263e 3cc2 8c3e 266e 723e 7729 ddbd
000003d0: 9b4c 33be 4f91 063c e761 fe3d 6e46 43bd
000003e0: 5b0d debe 0d38 5b3d d916 e13e f25a f0bd
000003f0: e178 6fbe 4edd d4be 4cf7 a23d dacc 7bbe

pre_net1.0.bias f4 [512]
0.27386686 -0.17877315 -0.06152729 0.4379921 0.3327866 0.35051653 -0.09785277 0.3122355
0.3250412 -0.048373297 -0.29254797 0.04731388 0.27916613 0.410502 0.43039918 -0.21837683
-0.31437722 -0.26268786 0.37679854 -0.1783781 -0.010889192 0.021307107 0.4169448 0.20810798
-0.045253318 -0.38666052 -0.013236893 -0.025060965 -0.28627768 -0.33854988 -0.2523704 -0.056282345
-0.016203066 -0.38491824 -0.21325429 0.021750769 -0.24492216 -0.36130607 0.28698322 -0.101991534
0.2051256 -0.026342425 0.35454282 0.19178554 0.20750903 0.028455662 0.29922292 0.14178656
0.04810663 0.2792967 0.06900563 0.31173155 -0.10970834 -0.093222454 -0.08283946 -0.28521153
0.34659377 0.40609413 -0.33754742 0.400529 0.050161432 0.07164719 -0.4044976 -0.24776946
-0.2763304 -0.17350768 0.37518534 -0.31983936 -0.35558584 0.29614973 0.074358635 0.0053151012
0.1946708 -0.10070042 -0.31786415 -0.29742283 -0.35130793 -0.4205328 0.115561895 0.06983938
-0.0625487 -0.26175416 0.17421193 0.1544649 0.08598599 0.2145929 -0.19817297 0.15208648
0.040707402 -0.372262 0.16134977 -0.17971794 0.11351946 0.10567716 0.16644107 -0.051097326
0.3482339 -0.20186034 0.07848035 0.31130996 -0.42521033 0.2211305 0.37188143 0.1248449
-0.17103171 -0.19122157 -0.4155594 -0.09475144 0.16871291 0.26338422 -0.37547493 -0.10981934
0.3498916 0.32639903 -0.36258152 0.43111777 -0.32055587 0.34611866 0.12641227 -0.052809067
0.29571208 -0.1330694 -0.24449849 0.18209113 -0.04496186 0.111648045 -0.27640834 0.320654
-0.40484583 -0.30848145 -0.22413911 0.043910068 0.32022965 0.3355158 0.293226 -0.080571726
-0.021658646 -0.08069312 0.20047285 -0.026185475 -0.023616903 0.43747893 0.44195995 -0.055589665
-0.3714952 0.3155509 -0.29831287 -0.0038510466 -0.3198149 -0.0608675 -0.3103276 -0.062288478
0.14530237 -0.04793347 0.3413572 0.19335793 -0.15643814 -0.13836499 0.16157176 -0.28608873
0.37208688 0.069961466 -0.40963167 -0.2356376 0.07390218 -0.21336369 -0.2598948 0.16319084
0.284852 0.40497956 0.10326793 -0.0019467415 -0.030060725 0.028165217 -0.38773647 0.4311405
-0.11819572 0.24551404 -0.04746246 -0.31991032 -0.29053187 0.07966255 -0.04603418 0.24419248
0.2598233 -0.300608 0.015156605 0.13723995 0.18588796 -0.18709372 0.16462718 0.05955288
0.43500188 -0.2040569 0.21606666 0.19195017 0.05803018 -0.38559926 -0.31829926 -0.043760527
-0.01159611 -0.023662271 0.27264163 0.2673545 -0.33783358 0.31806448 0.029560605 -0.37149566
-0.28641996 0.19847791 -0.011416768 0.20347127 -0.08721947 0.17442428 0.25706095 0.1511249
0.18969849 -0.44123945 -0.12308534 -0.39730117 -0.3346369 -0.26151484 -0.23284923 -0.3058312
-0.102273345 0.238341 -0.253049 -0.38337943 0.2949919 0.17615393 -0.2592576 -0.14781076
-0.24413815 -0.42291233 -0.13468982 0.16415665 0.23394501 -0.013243824 0.27945647 -0.29327473
0.061902925 0.008636067 -0.3074386 -0.3491956 -0.25606412 0.22564854 0.18070886 0.25680152
0.086866595 -0.0018797283 -0.25961405 0.22098869 0.2116381 0.08676552 0.2729952 0.4056017
00000000: 4738 8c3e 4f10 37be 0a04 7cbd 8040 e03e
00000010: 0163 aa3e e776 b33e 0867 c8bd 55dd 9f3e
00000020: cd6b a63e 1423 46bd d9c8 95be 33cc 413d
00000030: ddee 8e3e 512d d23e 485d dc3e 2d9e 5fbe
00000040: 0df6 a0be 067f 86be bdeb c03e c0a8 36be
00000050: 9568 32bc 3e8c ae3c ca79 d53e 421a 553e
00000060: 8b5b 39bd 5ef8 c5be 8edf 58bc a74c cdbc
00000070: fd92 92be 6956 adbe b136 81be 5188 66bd
00000080: 4bbc 84bc 0114 c5be 555f 5abe ab2e b23c
00000090: e0cc 7abe 1cfd b8be 77ef 923e f0e0 d0bd
000000a0: 720c 523e 12cc d7bc a386 b53e 6e63 443e
000000b0: 3f7d 543e d91b e93c bf33 993e 7f30 113e
000000c0: 750b 453d faff 8e3e d352 8d3d 479b 9f3e
000000d0: c4ae e0bd 6aeb bebd bca7 a9bd 3f07 92be
000000e0: bd74 b13e 92eb cf3e 04d3 acbe 2312 cd3e
000000f0: 1376 4d3d c3bb 923d 4f1a cfbe 47b7 7dbe
00000100: 2e7b 8dbe ffab 31be 4b18 c03e fcc1 a3be
00000110: 590f b6be f0a0 973e 5749 983d 4d2a ae3b
00000120: c857 473e 063c cebd 17bf a2be ce47 98be
00000130: a2de b3be 1350 d7be b7ab ec3d f307 8f3d
00000140: 8819 80bd a404 86be 9d64 323e 0c2c 1e3e
00000150: 6c19 b03d 3ebe 5b3e dbed 4abe 8fbc 1b3e
00000160: cebc 263d 2099 bebe e038 253e fb07 38be
00000170: e47c e83d 446d d83d 876f 2a3e 6e4b 51bd
00000180: b74b b23e 7ab4 4ebe 4eba a03d 0564 9f3e
00000190: 2bb5 d9be 0970 623e 3e67 be3e afae ff3d
000001a0: f022 2fbe 96cf 43be 34c4 d4be 0b0d c2bd
000001b0: 14c3 2c3e 4cda 863e 403e c0be f6e8 e0bd
000001c0: fe24 b33e c61d a73e 49a4 b9be 78bb dc3e
000001d0: e61f a4be 7736 b13e 3872 013e 524e 58bd
000001e0: 9367 973e 5843 08be d05d 7abe 1976 3a3e
000001f0: ed29 38bd bba7 e43d 6585 8dbe c32c a43e
00000200: f447 cfbe 48f1 9dbe b984 65be 0bdb 333d
00000210: 24f5 a33e bac8 ab3e b821 963e ca02 a5bd
00000220: 796d b1bc 6f42 a5bd c148 4d3e ec82 d6bc
00000230: 3c78 c1bc 3dfd df3e 9348 e23e fdb1 63bd
00000240: 9e34 bebe e38f a13e 77bc 98be d761 7cbb
00000250: c7be a3be 3350 79bd 42e3 9ebe 3422 7fbd
00000260: 25ca 143e e355 44bd 5fc6 ae3e 9fff 453e
00000270: 5231 20be 8daf 0dbe 1173 253e 397a 92be
00000280: 2c82 be3e f547 8f3d 3ebb d1be fc4a 71be
00000290: 075a 973d 037c 5abe ee10 85be 801b 273e
000002a0: 1fd8 913e 7b59 cf3e 237e d33d ce29 ffba
000002b0: e941 f6bc beba e63c 6585 c6be 73be dc3e
000002c0: 9910 f2bd 0868 7b3e ff67 42bd 49cb a3be
000002d0: 98c0 94be 1e26 a33d 568e 3cbd 980d 7a3e
000002e0: 8f07 853e 4be9 99be 6953 783c a188 0c3e
000002f0: 6a59 3e3e 7f95 3fbe 0794 283e b8ed 733d
00000300: 91b8 de3e 4bf4 50be 9440 5d3e 968e 443e
00000310: 0eb1 6d3d 446d c5be 1ff8 a2be 3d3e 33bd
00000320: 9cfd 3dbc 61d7 c1bc af97 8b3e b0e2 883e
00000330: 86f8 acbe 59d9 a23e 1529 f23c ae34 bebe
00000340: a3a5 92be cb3d 4b3e 650d 3bbc c65a 503e
00000350: 1fa0 b2bd 479c 323e 7e9d 833e 7cc0 1a3e
00000360: 5240 423e 23ea e1be 2b14 fcbd 0f6b cbbe
00000370: 8755 abbe 46e5 85be 0770 6ebe e895 9cbe
00000380: b074 d1bd aa0f 743e a38f 81be 4f4a c4be
00000390: 2e09 973e b261 343e 6abd 84be b45b 17be
000003a0: 5aff 79be f787 d8be 21ec 09be ae18 283e
000003b0: 488f 6f3e a0fc 58bc eb14 8f3e 1b28 96be
000003c0: ec8d 7d3d 4a7e 0d3c 9868 9dbe c4c9 b2be
000003d0: d61a 83be 6910 673e be0b 393e 7d7b 833e
000003e0: 1de7 b13d 3761 f6ba 22ec 84be dc4a 623e
000003f0: a8b7 583e 1fb2 b13d 07c6 8b3e 07ab cf3e

pre_net1.1.weight f4 [512]
1.0 1.0 1.0 1.0 1.0 1.0 1.0 1.0
1.0 1.0 1.0 1.0 1.0 1.0 1.0 1.0
1.0 1.0 1.0 1.0 1.0 1.0 1.0 1.0
1.0 1.0 1.0 1.0 1.0 1.0 1.0 1.0
1.0 1.0 1.0 1.0 1.0 1.0 1.0 1.0
1.0 1.0 1.0 1.0 1.0 1.0 1.0 1.0
1.0 1.0 1.0 1.0 1.0 1.0 1.0 1.0
1.0 1.0 1.0 1.0 1.0 1.0 1.0 1.0
1.0 1.0 1.0 1.0 1.0 1.0 1.0 1.0
1.0 1.0 1.0 1.0 1.0 1.0 1.0 1.0
1.0 1.0 1.0 1.0 1.0 1.0 1.0 1.0
1.0 1.0 1.0 1.0 1.0 1.0 1.0 1.0
1.0 1.0 1.0 1.0 1.0 1.0 1.0 1.0
1.0 1.0 1.0 1.0 1.0 1.0 1.0 1.0
1.0 1.0 1.0 1.0 1.0 1.0 1.0 1.0
1.0 1.0 1.0 1.0 1.0 1.0 1.0 1.0
1.0 1.0 1.0 1.0 1.0 1.0 1.0 1.0
1.0 1.0 1.0 1.0 1.0 1.0 1.0 1.0
1.0 1.0 1.0 1.0 1.0 1.0 1.0 1.0
1.0 1.0 1.0 1.0 1.0 1.0 1.0 1.0
1.0 1.0 1.0 1.0 1.0 1.0 1.0 1.0
1.0 1.0 1.0 1.0 1.0 1.0 1.0 1.0
1.0 1.0 1.0 1.0 1.0 1.0 1.0 1.0
1.0 1.0 1.0 1.0 1.0 1.0 1.0 1.0
1.0 1.0 1.0 1.0 1.0 1.0 1.0 1.0
1.0 1.0 1.0 1.0 1.0 1.0 1.0 1.0
1.0 1.0 1.0 1.0 1.0 1.0 1.0 1.0
1.0 1.0 1.0 1.0 1.0 1.0 1.0 1.0
1.0 1.0 1.0 1.0 1.0 1.0 1.0 1.0
1.0 1.0 1.0 1.0 1.0 1.0 1.0 1.0
1.0 1.0 1.0 1.0 1.0 1.0 1.0 1.0
1.0 1.0 1.0 1.0 1.0 1.0 1.0 1.0
00000000: 0000 803f 0000 803f 0000 803f 0000 803f
00000010: 0000 803f 0000 803f 0000 803f 0000 803f
00000020: 0000 803f 0000 803f 0000 803f 0000 803f
00000030: 0000 803f 0000 803f 0000 803f 0000 803f
00000040: 0000 803f 0000 803f 0000 803f 0000 803f
00000050: 0000 803f 0000 803f 0000 803f 0000 803f
00000060: 0000 803f 0000 803f 0000 803f 0000 803f
00000070: 0000 803f 0000 803f 0000 803f 0000 803f
00000080: 0000 803f 0000 803f 0000 803f 0000 803f
00000090: 0000 803f 0000 803f 0000 803f 0000 803f
000000a0: 0000 803f 0000 803f 0000 803f 0000 803f
000000b0: 0000 803f 0000 803f 0000 803f 0000 803f
000000c0: 0000 803f 0000 803f 0000 803f 0000 803f
000000d0: 0000 803f 0000 803f 0000 803f 0000 803f
000000e0: 0000 803f 0000 803f 0000 803f 0000 803f
000000f0: 0000 803f 0000 803f 0000 803f 0000 803f
00000100: 0000 803f 0000 803f 0000 803f 0000 803f
00000110: 0000 803f 0000 803f 0000 803f 0000 803f
00000120: 0000 803f 0000 803f 0000 803f 0000 803f
00000130: 0000 803f 0000 803f 0000 803f 0000 803f
00000140: 0000 803f 0000 803f 0000 803f 0000 803f
00000150: 0000 803f 0000 803f 0000 803f 0000 803f
00000160: 0000 803f 0000 803f 0000 803f 0000 803f
00000170: 0000 803f 0000 803f 0000 803f 0000 803f
00000180: 0000 803f 0000 803f 0000 803f 0000 803f
00000190: 0000 803f 0000 803f 0000 803f 0000 803f
000001a0: 0000 803f 0000 803f 0000 803f 0000 803f
000001b0: 0000 803f 0000 803f 0000 803f 0000 803f
000001c0: 0000 803f 0000 803f 0000 803f 0000 803f
000001d0: 0000 803f 0000 803f 0000 803f 0000 803f
000001e0: 0000 803f 0000 803f 0000 803f 0000 803f
000001f0: 0000 803f 0000 803f 0000 803f 0000 803f
00000200: 0000 803f 0000 803f 0000 803f 0000 803f
00000210: 0000 803f 0000 803f 0000 803f 0000 803f
00000220: 0000 803f 0000 803f 0000 803f 0000 803f
00000230: 0000 803f 0000 803f 0000 803f 0000 803f
00000240: 0000 803f 0000 803f 0000 803f 0000 803f
00000250: 0000 803f 0000 803f 0000 803f 0000 803f
00000260: 0000 803f 0000 803f 0000 803f 0000 803f
00000270: 0000 803f 0000 803f 0000 803f 0000 803f
00000280: 0000 803f 0000 803f 0000 803f 0000 803f
00000290: 0000 803f 0000 803f 0000 803f 0000 803f
000002a0: 0000 803f 0000 803f 0000 803f 0000 803f
000002b0: 0000 803f 0000 803f 0000 803f 0000 803f
000002c0: 0000 803f 0000 803f 0000 803f 0000 803f
000002d0: 0000 803f 0000 803f 0000 803f 0000 803f
000002e0: 0000 803f 0000 803f 0000 803f 0000 803f
000002f0: 0000 803f 0000 803f 0000 803f 0000 803f
00000300: 0000 803f 0000 803f 0000 803f 0000 803f
00000310: 0000 803f 0000 803f 0000 803f 0000 803f
00000320: 0000 803f 0000 803f 0000 803f 0000 803f
00000330: 0000 803f 0000 803f 0000 803f 0000 803f
00000340: 0000 803f 0000 803f 0000 803f 0000 803f
00000350: 0000 803f 0000 803f 0000 803f 0000 803f
00000360: 0000 803f 0000 803f 0000 803f 0000 803f
00000370: 0000 803f 0000 803f 0000 803f 0000 803f
00000380: 0000 803f 0000 803f 0000 803f 0000 803f
00000390: 0000 803f 0000 803f 0000 803f 0000 803f
000003a0: 0000 803f 0000 803f 0000 803f 0000 803f
000003b0: 0000 803f 0000 803f 0000 803f 0000 803f
000003c0: 0000 803f 0000 803f 0000 803f 0000 803f
000003d0: 0000 803f 0000 803f 0000 803f 0000 803f
000003e0: 0000 803f 0000 803f 0000 803f 0000 803f
000003f0: 0000 803f 0000 803f 0000 803f 0000 803f

pre_net1.1.bias f4 [512]
0.0 0.0 0.0 0.0 0.0 0.0 0.0 0.0
0.0 0.0 0.0 0.0 0.0 0.0 0.0 0.0
0.0 0.0 0.0 0.0 0.0 0.0 0.0 0.0
0.0 0.0 0.0 0.0 0.0 0.0 0.0 0.0
0.0 0.0 0.0 0.0 0.0 0.0 0.0 0.0
0.0 0.0 0.0 0.0 0.0 0.0 0.0 0.0
0.0 0.0 0.0 0.0 0.0 0.0 0.0 0.0
0.0 0.0 0.0 0.0 0.0 0.0 0.0 0.0
0.0 0.0 0.0 0.0 0.0 0.0 0.0 0.0
0.0 0.0 0.0 0.0 0.0 0.0 0.0 0.0
0.0 0.0 0.0 0.0 0.0 0.0 0.0 0.0
0.0 0.0 0.0 0.0 0.0 0.0 0.0 0.0
0.0 0.0 0.0 0.0 0.0 0.0 0.0 0.0
0.0 0.0 0.0 0.0 0.0 0.0 0.0 0.0
0.0 0.0 0.0 0.0 0.0 0.0 0.0 0.0
0.0 0.0 0.0 0.0 0.0 0.0 0.0 0.0
0.0 0.0 0.0 0.0 0.0 0.0 0.0 0.0
0.0 0.0 0.0 0.0 0.0 0.0 0.0 0.0
0.0 0.0 0.0 0.0 0.0 0.0 0.0 0.0
0.0 0.0 0.0 0.0 0.0 0.0 0.0 0.0
0.0 0.0 0.0 0.0 0.0 0.0 0.0 0.0
0.0 0.0 0.0 0.0 0.0 0.0 0.0 0.0
0.0 0.0 0.0 0.0 0.0 0.0 0.0 0.0
0.0 0.0 0.0 0.0 0.0 0.0 0.0 0.0
0.0 0.0 0.0 0.0 0.0 0.0 0.0 0.0
0.0 0.0 0.0 0.0 0.0 0.0 0.0 0.0
0.0 0.0 0.0 0.0 0.0 0.0 0.0 0.0
0.0 0.0 0.0 0.0 0.0 0.0 0.0 0.0
0.0 0.0 0.0 0.0 0.0 0.0 0.0 0.0
0.0 0.0 0.0 0.0 0.0 0.0 0.0 0.0
0.0 0.0 0.0 0.0 0.0 0.0 0.0 0.0
0.0 0.0 0.0 0.0 0.0 0.0 0.0 0.0
00000000: 0000 0000 0000 0000 0000 0000 0000 0000
00000010: 0000 0000 0000 0000 0000 0000 0000 0000
00000020: 0000 0000 0000 0000 0000 0000 0000 0000
00000030: 0000 0000 0000 0000 0000 0000 0000 0000
00000040: 0000 0000 0000 0000 0000 0000 0000 0000
00000050: 0000 0000 0000 0000 0000 0000 0000 0000
00000060: 0000 0000 0000 0000 0000 0000 0000 0000
00000070: 0000 0000 0000 0000 0000 0000 0000 0000
00000080: 0000 0000 0000 0000 0000 0000 0000 0000
00000090: 0000 0000 0000 0000 0000 0000 0000 0000
000000a0: 0000 0000 0000 0000 0000 0000 0000 0000
000000b0: 0000 0000 0000 0000 0000 0000 0000 0000
000000c0: 0000 0000 0000 0000 0000 0000 0000 0000
000000d0: 0000 0000 0000 0000 0000 0000 0000 0000
000000e0: 0000 0000 0000 0000 0000 0000 0000 0000
000000f0: 0000 0000 0000 0000 0000 0000 0000 0000
00000100: 0000 0000 0000 0000 0000 0000 0000 0000
00000110: 0000 0000 0000 0000 0000 0000 0000 0000
00000120: 0000 0000 0000 0000 0000 0000 0000 0000
00000130: 0000 0000 0000 0000 0000 0000 0000 0000
00000140: 0000 0000 0000 0000 0000 0000 0000 0000
00000150: 0000 0000 0000 0000 0000 0000 0000 0000
00000160: 0000 0000 0000 0000 0000 0000 0000 0000
00000170: 0000 0000 0000 0000 0000 0000 0000 0000
00000180: 0000 0000 0000 0000 0000 0000 0000 0000
00000190: 0000 0000 0000 0000 0000 0000 0000 0000
000001a0: 0000 0000 0000 0000 0000 0000 0000 0000
000001b0: 0000 0000 0000 0000 0000 0000 0000 0000
000001c0: 0000 0000 0000 0000 0000 0000 0000 0000
000001d0: 0000 0000 0000 0000 0000 0000 0000 0000
000001e0: 0000 0000 0000 0000 0000 0000 0000 0000
000001f0: 0000 0000 0000 0000 0000 0000 0000 0000
00000200: 0000 0000 0000 0000 0000 0000 0000 0000
00000210: 0000 0000 0000 0000 0000 0000 0000 0000
00000220: 0000 0000 0000 0000 0000 0000 0000 0000
00000230: 0000 0000 0000 0000 0000 0000 0000 0000
00000240: 0000 0000 0000 0000 0000 0000 0000 0000
00000250: 0000 0000 0000 0000 0000 0000 0000 0000
00000260: 0000 0000 0000 0000 0000 0000 0000 0000
00000270: 0000 0000 0000 0000 0000 0000 0000 0000
00000280: 0000 0000 0000 0000 0000 0000 0000 0000
00000290: 0000 0000 0000 0000 0000 0000 0000 0000
000002a0: 0000 0000 0000 0000 0000 0000 0000 0000
000002b0: 0000 0000 0000 0000 0000 0000 0000 0000
000002c0: 0000 0000 0000 0000 0000 0000 0000 0000
000002d0: 0000 0000 0000 0000 0000 0000 0000 0000
000002e0: 0000 0000 0000 0000 0000 0000 0000 0000
000002f0: 0000 0000 0000 0000 0000 0000 0000 0000
00000300: 0000 0000 0000 0000 0000 0000 0000 0000
00000310: 0000 0000 0000 0000 0000 0000 0000 0000
00000320: 0000 0000 0000 0000 0000 0000 0000 0000
00000330: 0000 0000 0000 0000 0000 0000 0000 0000
00000340: 0000 0000 0000 0000 0000 0000 0000 0000
00000350: 0000 0000 0000 0000 0000 0000 0000 0000
00000360: 0000 0000 0000 0000 0000 0000 0000 0000
00000370: 0000 0000 0000 0000 0000 0000 0000 0000
00000380: 0000 0000 0000 0000 0000 0000 0000 0000
00000390: 0000 0000 0000 0000 0000 0000 0000 0000
000003a0: 0000 0000 0000 0000 0000 0000 0000 0000
000003b0: 0000 0000 0000 0000 0000 0000 0000 0000
000003c0: 0000 0000 0000 0000 0000 0000 0000 0000
000003d0: 0000 0000 0000 0000 0000 0000 0000 0000
000003e0: 0000 0000 0000 0000 0000 0000 0000 0000
000003f0: 0000 0000 0000 0000 0000 0000 0000 0000

pre_net2.0.weight f4 [256, 512]
-0.004552418 0.029028246 -0.0024212205 -0.035949033 0.017976353 -0.022021217 0.0047687893 0.027641304
0.005304581 0.00455236 0.022516157 0.0098694535 -0.0063857636 -0.0039866124 0.035801027 -0.0037657998
-0.025571425 0.008147149 0.0150873335 -0.035206135 -0.04350617 -0.024907786 -0.03865602 0.0400842
-0.005798263 0.033594236 -0.0015166912 -0.011514013 -0.043763768 -0.04337439 -0.029201407 -0.040346734
-0.007770857 -0.027107526 0.020857384 0.026031341 0.006202936 0.013916852 -0.03852431 -0.016134018
-0.020740865 -0.0074330284 -0.037573688 0.026639821 -0.040299993 -0.04134696 -0.0346285 -0.025226874
0.04214083 -0.005076862 0.017650742 -0.0004908949 -0.038930897 -0.02991421 -0.005696742 0.017250309
-0.015335847 0.00071213424 0.0026920666 0.026463237 0.033930045 0.0108123785 0.020262651 -0.027927618
0.028572433 0.02791401 0.008544884 0.009668719 0.039690472 0.017112622 0.029038657 -0.04052154
0.042310756 0.013563678 -0.012397368 -0.0011661559 0.010973148 -0.040812127 -0.043858543 -0.004251911
-0.04375716 -0.029472927 -0.04181797 0.025445422 0.027555903 -0.043352447 -0.015335289 0.04180193
0.027505543 0.016110823 0.0073839696 -0.008570698 0.0061543197 0.028122373 -0.043641895 0.005226162
-0.002172591 -0.037933495 0.0009996706 -0.00402092 0.023340197 0.0013550896 -0.02667789 -0.0021786233
-0.0387399 -0.035131067 0.018434219 -0.012477143 -0.034714058 0.036576588 -0.027927117 0.03940245
-0.039352518 0.0019111594 0.025213914 0.018429436 0.015304363 -0.02269917 0.039279424 -0.04162679
-0.0420302 -0.034843516 0.01842335 -1.8634175e-05 -0.009526289 0.00058113126 -0.040427335 -0.036804836
0.040983774 0.0015451034 0.041168824 0.03818768 -0.017529432 0.032686483 -0.037237484 -0.0017467708
0.020345837 0.04390062 0.014433451 0.04064682 0.009763739 0.023690542 0.027527798 -0.015514423
-0.025270164 0.040161062 -0.03125391 -0.010620121 0.023243917 -0.015975315 0.02168969 0.034582175
-0.02986269 -0.021202056 0.039305966 -0.018562457 0.02863794 -0.03022282 -0.0025292165 -0.01014257
-0.012020634 0.004033211 -0.024611963 0.043005195 -0.044156093 0.016243374 -0.009235733 -0.0312932
0.0045769475 -0.036390167 -0.03489677 0.029479923 -0.00542981 0.04079702 -0.03416057 0.025067491
-0.0090004755 -0.03558498 -0.025349865 -0.0047997623 0.00070216646 0.018399017 0.039732806 -0.018828014
0.03333776 -0.037342582 0.0106248725 -0.01658786 0.024393383 -0.042159855 -0.039946154 0.042102292
0.0429817 -0.026618332 0.032467045 0.0009767269 0.043497413 0.028042622 0.023988163 0.032792725
-0.0053192694 0.0024157993 -0.0019000537 0.0032981804 -0.018925384 -0.009606515 -0.023244686 -0.016863417
0.015158878 -0.034790084 0.042261668 0.04306238 -0.03094301 -0.00831278 0.021552349 0.027779935
-0.02837319 -0.025495892 0.0016966267 0.02305664 0.0046521113 0.017108569 -0.011458938 -0.012894675
0.04258664 0.02627541 0.039688423 -0.0427142 0.008864462 0.025851754 0.03977729 -0.028664256
-0.019138467 0.042606864 0.031803444 -0.03760364 -0.0024093299 0.013318889 0.029166367 -0.04405205
0.036887206 -0.016014623 0.010858977 -0.0011929771 -0.020391103 -0.027265787 0.037041143 -0.04069991
-0.042298697 0.010491941 -0.013398583 0.03949631 0.014175028 -0.038860757 -0.0031285922 0.010828769
00000000: 732c 95bb a5cc ed3c 57ad 1ebb 4b3f 13bd
00000010: 2543 933c d765 b4bc 8143 9c3b 0470 e23c
00000020: 0dd2 ad3b f72b 953b ce73 b83c 7db3 213c
00000030: ab3f d1bb 21a2 82bb 19a4 123d a3cb 76bb
00000040: 2a7b d1bc 9f7b 053c dd30 773c 4f34 10bd
00000050: 8733 32bd 6a0b ccbc c655 1ebd 552f 243d
00000060: 5bff bdbb 1c9a 093d b6cb c6ba 45a5 3cbc
00000070: a341 33bd 58a9 31bd ca37 efbc 9e42 25bd
00000080: aca2 febb 9a10 debc 1bdd aa3c ae3f d53c
00000090: 0042 cb3b 8203 643c abcb 1dbd 7d2b 84bc
000000a0: bfe8 a9bc c390 f3bb dee6 19bd c13b da3c
000000b0: 9b11 25bd 6e5b 29bd 9dd6 0dbd 97a8 cebc
000000c0: dd9b 2c3d ce5b a6bb 4a98 903c 66af 00ba
000000d0: 0176 1fbd a50e f5bc bcab babb 8550 8d3c
000000e0: 3443 7bbc 85ae 3a3a 626d 303b 6ec9 d83c
000000f0: 3bfa 0a3d 6726 313c dcfd a53c 76c8 e4bc
00000100: bc10 ea3c ecab e43c d7ff 0b3c 8c69 1e3c
00000110: 7a92 223d c52f 8c3c 7ae2 ed3c eaf9 25bd
00000120: 0b4e 2d3d 303a 5e3c 551e 4bbc b3d9 98ba
00000130: b8c8 333c 9e2a 27bd 04a5 33bd 9d53 8bbb
00000140: b53a 33bd 3571 f1bc 5249 2bbd eb72 d03c
00000150: ebbc e13c 5692 31bd dd40 7bbc 8038 2b3d
00000160: 4e53 e13c d8fa 833c 3af5 f13b 1d6c 0cbc
00000170: 2daa c93b e460 e63c d8c1 32bd 3940 ab3b
00000180: 0762 0ebb 2760 1bbd 6107 833a ecc1 83bb
00000190: f133 bf3c 439d b13a 978b dabc 3cc7 0ebb
000001a0: bbad 1ebd 98e5 0fbd 5c03 973c ee6c 4cbc
000001b0: 5430 0ebd 55d1 153d 69c7 e4bc 7764 213d
000001c0: 1b30 21bd de7f fa3a 698d ce3c 54f9 963c
000001d0: 27bf 7a3c 9cf3 b9bc 76e3 203d da80 2abd
000001e0: dc27 2cbd 13b8 0ebd 91ec 963c 9650 9cb7
000001f0: 2714 1cbc 0f57 183a 2297 25bd abc0 16bd
00000200: 9ade 273d 1185 ca3a a4a0 283d af6a 1c3d
00000210: e299 8fbc 43e2 053d 5586 18bd e7f3 e4ba
00000220: 50ac a63c 23d1 333d 487a 6c3c 487d 263d
00000230: 17f8 1f3c ab12 c23c fa81 e13c 3530 7ebc
00000240: 6003 cfbc ed7f 243d 1a04 00bd 0400 2ebc
00000250: 076a be3c aade 82bc 94ae b13c 0aa6 0d3d
00000260: 9aa2 f4bc efaf adbc 4bff 203d 4b10 98bc
00000270: 1d9a ea3c d995 f7bc 36c1 25bb 062d 26bc
00000280: 31f2 44bc 0729 843b 079f c9bc 3726 303d
00000290: 05dd 34bd d310 853c 7951 17bc 4c2d 00bd
000002a0: 38fa 953b db0d 15bd eaef 0ebd e17f f13c
000002b0: 8cec b1bb c71a 273d f4eb 0bbd 575a cd3c
000002c0: bb76 13bc 8ec1 11bd 85aa cfbc 5347 9dbb
000002d0: 9811 383a 89b9 963c debe 223d 353d 9abc
000002e0: 2d8d 083d 89f4 18bd f213 2e3c 44e3 87bc
000002f0: a2d4 c73c d0af 2cbd 949e 23bd 7473 2c3d
00000300: 940d 303d b00e dabc 2afc 043d 8405 803a
00000310: 582a 323d a4b9 e53c d382 c43c aa51 063d
00000320: 444d aebb 6352 1e3b 390b f9ba 4926 583b
00000330: 6809 9bbc a564 1dbc a46b bebc 2625 8abc
00000340: f15c 783c 0c80 0ebd 921a 2d3d 2e62 303d
00000350: 327c fdbc 5432 08bc 8d8e b03c bf92 e33c
00000360: e46e e8bc c3dc d0bc 5861 de3a 47e1 bc3c
00000370: bd70 983b 4527 8c3c 45be 3bbc 3044 53bc
00000380: 546f 2e3d 873f d73c 5490 223d 16f5 2ebd
00000390: 403c 113c 0fc7 d33c 83ed 223d 4dd1 eabc
000003a0: 46c8 9cbc 8984 2e3d 5444 023d 4606 1abd
000003b0: d9e5 1dbb 7837 5a3c 4eee ee3c ec6f 34bd
000003c0: 0a17 173d 1931 83bc dae9 313c ab5d 9cba
000003d0: 3e0b a7bc 805c dfbc 74b8 173d f3b4 26bd
000003e0: 6641 2dbd 64e6 2b3c bb85 5bbc e2c6 213d
000003f0: 603e 683c 752c 1fbd 1109 4dbb 266b 313c

pre_net2.0.bias f4 [256]
0.002559657 0.014046781 -0.017425219 -0.0035399138 -0.0023693957 0.029685263 0.0050709825 0.039796818
-0.03819652 0.008299189 0.020862743 -0.035696015 0.036503922 -0.03289776 0.017229663 0.023710057
-0.033522476 -0.004995197 0.029640514 -0.038146257 0.034149088 -0.0054897694 -0.04172549 -0.040398795
-0.03106259 -0.034058806 -0.031493485 0.016486129 0.020700699 0.038299967 0.044079497 -0.033413257
0.0060325204 0.042231668 0.026126578 0.010999632 0.0002152703 0.039554227 0.01832369 0.022646772
-0.02152685 0.033147622 -0.026153157 0.025828041 0.0136137325 -0.011271479 0.03098358 0.042644344
0.0004057003 0.007884163 -0.0060527613 -0.00705416 -0.012038973 0.030854233 -0.0074096476 0.028743519
-0.0033444683 0.0202106 -0.029710852 -0.018644307 0.04149483 0.0034351419 0.026185073 -0.016498962
-0.014230325 -0.025891546 0.039452452 -0.01143582 -0.014043182 -0.039152898 -0.008154762 0.027592251
-0.0018452206 -0.0105119245 -0.0118459305 -0.017572122 0.017580736 0.020136952 0.011667396 -0.004165747
-0.021432305 0.017516572 0.043131594 -0.017105188 0.041668862 -0.007718126 -0.004182516 0.0072324467
0.017918147 0.015212968 -0.0125516895 0.005473216 0.022996696 -0.00016116428 -0.0071784724 0.002590909
0.01347657 -0.037445102 0.0068238433 -0.013936361 0.03225846 0.0056727235 -0.030771209 -0.03836829
-0.010649528 0.0076546157 -0.041178003 -0.013473009 0.018393643 -0.013247755 -0.010984728 -0.010151622
0.031434298 -0.037043292 0.037636124 0.00074685796 0.026715133 -0.010517703 -0.0032652216 -0.04316362
0.024516141 -0.017004868 -0.013569852 0.039531466 -0.015545032 -0.026052121 -0.018202934 -0.0019138989
-0.031015718 -0.014592787 0.00070553296 -0.01196028 0.03720452 0.0076546576 -0.0035314264 -0.0287685
0.012949366 0.012989548 0.018237615 0.020676326 0.03743307 -0.0034779527 -0.010470178 -0.032444876
0.035181154 -0.04222766 -0.04177714 -0.029387733 0.020797847 -0.030367473 0.032201804 0.022326486
0.024063079 -0.023242922 -0.018688977 -0.039249975 -0.017475668 -0.005554544 -0.016989142 0.019624226
-0.032419875 0.01212284 0.013814878 0.015737848 0.027479192 0.009230634 -0.004595861 -0.010504211
0.03855531 0.020062368 -0.023036692 -0.036685485 -0.038305793 -0.00014720313 -0.037036385 0.007318052
-0.016159054 0.0020475993 -0.04294615 0.031876158 0.008924342 0.025939682 -0.014878216 -0.03796598
0.01201722 -0.04214584 -0.0016389645 -0.005606537 -0.0049764523 0.038466007 -0.03937929 -0.013714052
-0.033769555 0.04343414 0.008853272 -0.030108038 0.043830574 -0.034064192 -0.033800635 0.023035428
0.017872471 -0.013760535 0.00499761 0.03363765 -0.032597747 0.031245375 0.013807818 -0.03427475
-0.019485226 0.0009389738 0.034256637 0.041277226 0.025386954 -0.04309631 0.024119135 -0.036420856
0.020281311 -0.036644045 -0.022566414 0.008700653 -0.026914993 -0.027935494 0.001077442 0.032365955
-0.021215448 0.0014088585 0.011378305 -0.037549 0.0013280471 0.0032694363 0.012056464 0.043004308
-0.026750851 -0.0062660193 -0.043992415 -0.024037769 0.01756353 0.024015374 -0.036471307 -0.042163964
0.023431297 -0.004231333 0.02638721 0.0044460497 -0.041228183 0.04293145 0.036656436 0.0016961262
-0.023406452 -0.025615448 -0.0071507553 -0.011178856 -0.033413474 -0.043579802 0.0054983515 -0.042521268
00000000: ebbf 273b 7824 663c 55bf 8ebc e6fd 67bb
00000010: dd47 1bbb 822e f33c 7c2a a63b fd01 233d
00000020: f473 1cbd 52f9 073c 58e8 aa3c fc35 12bd
00000030: 2385 153d cdbf 06bd 3925 8d3c 983b c23c
00000040: dd4e 09bd c0ae a3bb aad0 f23c 403f 1cbd
00000050: eadf 0b3d 86e3 b3bb 59e8 2abd 3579 25bd
00000060: f976 febc 3f81 0bbd 50ff 00bd eb0d 873c
00000070: 8394 a93c 6de0 1c3d b48c 343d 57dc 08bd
00000080: 73ac c53b 1dfb 2c3d 6807 d63c cd37 343c
00000090: 2eba 6139 9d03 223d 901b 963c b985 b93c
000000a0: 1459 b0bc cdc5 073d 253f d6bc 5495 d33c
000000b0: 220c 5f3c 02ac 38bc 47d1 fd3c d6ab 2e3d
000000c0: 2cb4 d439 942c 013c 3e56 c6bb 9526 e7bb
000000d0: 1d3f 45bc 04c2 fc3c a1cc f2bb 8777 eb3c
000000e0: de2e 5bbb b390 a53c 2c64 f3bc f2bb 98bc
000000f0: 7cf6 293d 1e20 613b 1482 d63c d528 87bc
00000100: 4f26 69bc 821a d4bc e598 213d 4e5d 3bbc
00000110: 6015 66bc ca5e 20bd 8d9b 05bc 2509 e23c
00000120: 54db f1ba 353a 2cbc 6f15 42bc 69f3 8fbc
00000130: 7a05 903c 40f6 a43c 9b28 3f3c d280 88bb
00000140: cd92 afbc ea7e 8f3c c1aa 303d 2e20 8cbc
00000150: f8ac 2a3d 55e8 fcbb 7d0d 89bb 29fe ec3b
00000160: 14c9 923c d03f 793c 9aa5 4dbc aa58 b33b
00000170: 9163 bc3c 35fe 28b9 6439 ebbb 3dcc 293b
00000180: d5cc 5c3c 0960 19bd 8c9a df3b 5655 64bc
00000190: 7221 043d 41e2 b93b e713 fcbc 1128 1dbd
000001a0: 5c7b 2ebc 92d3 fa3b 44aa 28bd e5bd 5cbc
000001b0: 44ae 963c 1d0d 59bc 4af9 33bc fd52 26bc
000001c0: 40c1 003d b5ba 17bd 5628 1a3d cac8 433a
000001d0: b2d9 da3c 7252 2cbc 54fd 55bb 56cc 30bd
000001e0: 13d6 c83c cb4d 8bbc 1654 5ebc bfeb 213d
000001f0: 97b0 7ebc 426b d5bc 521e 95bc cadb faba
00000200: ad14 febc 9616 6fbc 84f3 383a 0df5 43bc
00000210: c463 183d ecd3 fa3b 816f 67bb ebab ebbc
00000220: 9429 543c 1dd2 543c 0d67 953c 6661 a93c
00000230: 6b53 193d 5dee 63bb 1c8b 2bbc ebe4 04bd
00000240: 1d1a 103d e9f6 2cbd 821e 2bbd 8bbe f0bc
00000250: 3f60 aa3c 35c5 f8bc 0ae6 033d 09e6 b63c
00000260: ef1f c53c f167 bebc a019 99bc 95c4 20bd
00000270: 2229 8fbc e402 b6bb d02c 8bbc fcc2 a03c
00000280: b4ca 04bd e09e 463c cc57 623c a9ec 803c
00000290: 0b1c e13c 163c 173c e098 96bb db19 2cbc
000002a0: 2cec 1d3d d659 a43c 72b7 bcbc 8543 16bd
000002b0: 89e6 1cbd 8a5a 1ab9 77b3 17bd 45cc ef3b
000002c0: fe5f 84bc 0431 063b 4de8 2fbd 9390 023d
000002d0: 6737 123c 757f d43c c3c3 73bc 3782 1bbd
000002e0: e0e3 443c 1ea1 2cbd 86d2 d6ba 0bb7 b7bb
000002f0: 8211 a3bb 888e 1d3d 2e4c 21bd e7b0 60bc
00000300: f251 0abd ffe7 313d 500d 113c 22a5 f6bc
00000310: b087 333d e586 0bbd 8972 0abd cbb4 bc3c
00000320: 4a69 923c de73 61bc fec2 a33b a2c7 093d
00000330: 3785 05bd 4df6 ff3c 303a 623c ae63 0cbd
00000340: 7b9f 9fbc 7725 763a b050 0c3d 4f12 293d
00000350: 4df8 cf3c c285 30bd 7e95 c53c 092e 15bd
00000360: fe24 a63c 1118 16bd 33dd b8bc 2f8d 0e3c
00000370: d57c dcbc fad8 e4bc f438 8d3a 2a92 043d
00000380: 05cc adbc 72a9 b83a 126c 3a3c fbcc 19bd
00000390: de11 ae3a 0a44 563b 7a88 453c 4925 303d
000003a0: 9a24 dbbc 2e53 cdbb 6431 34bd dbea c4bc
000003b0: 64e1 8f3c e4bb c43c f062 15bd 1fb4 2cbd
000003c0: fef2 bf3c fea6 8abb fd29 d83c 2bb0 913b
000003d0: e2de 28bd e3d8 2f3d 0f25 163d 8d50 de3a
000003e0: e3be bfbc 7dd7 d1bc e250 eabb 8527 37bc
000003f0: 91dc 08bd bc80 32bd 842b b43b c82a 2ebd

pre_net2.1.weight f4 [256]
1.0 1.0 1.0 1.0 1.0 1.0 1.0 1.0
1.0 1.0 1.0 1.0 1.0 1.0 1.0 1.0
1.0 1.0 1.0 1.0 1.0 1.0 1.0 1.0
1.0 1.0 1.0 1.0 1.0 1.0 1.0 1.0
1.0 1.0 1.0 1.0 1.0 1.0 1.0 1.0
1.0 1.0 1.0 1.0 1.0 1.0 1.0 1.0
1.0 1.0 1.0 1.0 1.0 1.0 1.0 1.0
1.0 1.0 1.0 1.0 1.0 1.0 1.0 1.0
1.0 1.0 1.0 1.0 1.0 1.0 1.0 1.0
1.0 1.0 1.0 1.0 1.0 1.0 1.0 1.0
1.0 1.0 1.0 1.0 1.0 1.0 1.0 1.0
1.0 1.0 1.0 1.0 1.0 1.0 1.0 1.0
1.0 1.0 1.0 1.0 1.0 1.0 1.0 1.0
1.0 1.0 1.0 1.0 1.0 1.0 1.0 1.0
1.0 1.0 1.0 1.0 1.0 1.0 1.0 1.0
1.0 1.0 1.0 1.0 1.0 1.0 1.0 1.0
1.0 1.0 1.0 1.0 1.0 1.0 1.0 1.0
1.0 1.0 1.0 1.0 1.0 1.0 1.0 1.0
1.0 1.0 1.0 1.0 1.0 1.0 1.0 1.0
1.0 1.0 1.0 1.0 1.0 1.0 1.0 1.0
1.0 1.0 1.0 1.0 1.0 1.0 1.0 1.0
1.0 1.0 1.0 1.0 1.0 1.0 1.0 1.0
1.0 1.0 1.0 1.0 1.0 1.0 1.0 1.0
1.0 1.0 1.0 1.0 1.0 1.0 1.0 1.0
1.0 1.0 1.0 1.0 1.0 1.0 1.0 1.0
1.0 1.0 1.0 1.0 1.0 1.0 1.0 1.0
1.0 1.0 1.0 1.0 1.0 1.0 1.0 1.0
1.0 1.0 1.0 1.0 1.0 1.0 1.0 1.0
1.0 1.0 1.0 1.0 1.0 1.0 1.0 1.0
1.0 1.0 1.0 1.0 1.0 1.0 1.0 1.0
1.0 1.0 1.0 1.0 1.0 1.0 1.0 1.0
1.0 1.0 1.0 1.0 1.0 1.0 1.0 1.0
00000000: 0000 803f 0000 803f 0000 803f 0000 803f
00000010: 0000 803f 0000 803f 0000 803f 0000 803f
00000020: 0000 803f 0000 803f 0000 803f 0000 803f
00000030: 0000 803f 0000 803f 0000 803f 0000 803f
00000040: 0000 803f 0000 803f 0000 803f 0000 803f
00000050: 0000 803f 0000 803f 0000 803f 0000 803f
00000060: 0000 803f 0000 803f 0000 803f 0000 803f
00000070: 0000 803f 0000 803f 0000 803f 0000 803f
00000080: 0000 803f 0000 803f 0000 803f 0000 803f
00000090: 0000 803f 0000 803f 0000 803f 0000 803f
000000a0: 0000 803f 0000 803f 0000 803f 0000 803f
000000b0: 0000 803f 0000 803f 0000 803f 0000 803f
000000c0: 0000 803f 0000 803f 0000 803f 0000 803f
000000d0: 0000 803f 0000 803f 0000 803f 0000 803f
000000e0: 0000 803f 0000 803f 0000 803f 0000 803f
000000f0: 0000 803f 0000 803f 0000 803f 0000 803f
00000100: 0000 803f 0000 803f 0000 803f 0000 803f
00000110: 0000 803f 0000 803f 0000 803f 0000 803f
00000120: 0000 803f 0000 803f 0000 803f 0000 803f
00000130: 0000 803f 0000 803f 0000 803f 0000 803f
00000140: 0000 803f 0000 803f 0000 803f 0000 803f
00000150: 0000 803f 0000 803f 0000 803f 0000 803f
00000160: 0000 803f 0000 803f 0000 803f 0000 803f
00000170: 0000 803f 0000 803f 0000 803f 0000 803f
00000180: 0000 803f 0000 803f 0000 803f 0000 803f
00000190: 0000 803f 0000 803f 0000 803f 0000 803f
000001a0: 0000 803f 0000 803f 0000 803f 0000 803f
000001b0: 0000 803f 0000 803f 0000 803f 0000 803f
000001c0: 0000 803f 0000 803f 0000 803f 0000 803f
000001d0: 0000 803f 0000 803f 0000 803f 0000 803f
000001e0: 0000 803f 0000 803f 0000 803f 0000 803f
000001f0: 0000 803f 0000 803f 0000 803f 0000 803f
00000200: 0000 803f 0000 803f 0000 803f 0000 803f
00000210: 0000 803f 0000 803f 0000 803f 0000 803f
00000220: 0000 803f 0000 803f 0000 803f 0000 803f
00000230: 0000 803f 0000 803f 0000 803f 0000 803f
00000240: 0000 803f 0000 803f 0000 803f 0000 803f
00000250: 0000 803f 0000 803f 0000 803f 0000 803f
00000260: 0000 803f 0000 803f 0000 803f 0000 803f
00000270: 0000 803f 0000 803f 0000 803f 0000 803f
00000280: 0000 803f 0000 803f 0000 803f 0000 803f
00000290: 0000 803f 0000 803f 0000 803f 0000 803f
000002a0: 0000 803f 0000 803f 0000 803f 0000 803f
000002b0: 0000 803f 0000 803f 0000 803f 0000 803f
000002c0: 0000 803f 0000 803f 0000 803f 0000 803f
000002d0: 0000 803f 0000 803f 0000 803f 0000 803f
000002e0: 0000 803f 0000 803f 0000 803f 0000 803f
000002f0: 0000 803f 0000 803f 0000 803f 0000 803f
00000300: 0000 803f 0000 803f 0000 803f 0000 803f
00000310: 0000 803f 0000 803f 0000 803f 0000 803f
00000320: 0000 803f 0000 803f 0000 803f 0000 803f
00000330: 0000 803f 0000 803f 0000 803f 0000 803f
00000340: 0000 803f 0000 803f 0000 803f 0000 803f
00000350: 0000 803f 0000 803f 0000 803f 0000 803f
00000360: 0000 803f 0000 803f 0000 803f 0000 803f
00000370: 0000 803f 0000 803f 0000 803f 0000 803f
00000380: 0000 803f 0000 803f 0000 803f 0000 803f
00000390: 0000 803f 0000 803f 0000 803f 0000 803f
000003a0: 0000 803f 0000 803f 0000 803f 0000 803f
000003b0: 0000 803f 0000 803f 0000 803f 0000 803f
000003c0: 0000 803f 0000 803f 0000 803f 0000 803f
000003d0: 0000 803f 0000 803f 0000 803f 0000 803f
000003e0: 0000 803f 0000 803f 0000 803f 0000 803f
000003f0: 0000 803f 0000 803f 0000 803f 0000 803f

pre_net2.1.bias f4 [256]
0.0 0.0 0.0 0.0 0.0 0.0 0.0 0.0
0.0 0.0 0.0 0.0 0.0 0.0 0.0 0.0
0.0 0.0 0.0 0.0 0.0 0.0 0.0 0.0
0.0 0.0 0.0 0.0 0.0 0.0 0.0 0.0
0.0 0.0 0.0 0.0 0.0 0.0 0.0 0.0
0.0 0.0 0.0 0.0 0.0 0.0 0.0 0.0
0.0 0.0 0.0 0.0 0.0 0.0 0.0 0.0
0.0 0.0 0.0 0.0 0.0 0.0 0.0 0.0
0.0 0.0 0.0 0.0 0.0 0.0 0.0 0.0
0.0 0.0 0.0 0.0 0.0 0.0 0.0 0.0
0.0 0.0 0.0 0.0 0.0 0.0 0.0 0.0
0.0 0.0 0.0 0.0 0.0 0.0 0.0 0.0
0.0 0.0 0.0 0.0 0.0 0.0 0.0 0.0
0.0 0.0 0.0 0.0 0.0 0.0 0.0 0.0
0.0 0.0 0.0 0.0 0.0 0.0 0.0 0.0
0.0 0.0 0.0 0.0 0.0 0.0 0.0 0.0
0.0 0.0 0.0 0.0 0.0 0.0 0.0 0.0
0.0 0.0 0.0 0.0 0.0 0.0 0.0 0.0
0.0 0.0 0.0 0.0 0.0 0.0 0.0 0.0
0.0 0.0 0.0 0.0 0.0 0.0 0.0 0.0
0.0 0.0 0.0 0.0 0.0 0.0 0.0 0.0
0.0 0.0 0.0 0.0 0.0 0.0 0.0 0.0
0.0 0.0 0.0 0.0 0.0 0.0 0.0 0.0
0.0 0.0 0.0 0.0 0.0 0.0 0.0 0.0
0.0 0.0 0.0 0.0 0.0 0.0 0.0 0.0
0.0 0.0 0.0 0.0 0.0 0.0 0.0 0.0
0.0 0.0 0.0 0.0 0.0 0.0 0.0 0.0
0.0 0.0 0.0 0.0 0.0 0.0 0.0 0.0
0.0 0.0 0.0 0.0 0.0 0.0 0.0 0.0
0.0 0.0 0.0 0.0 0.0 0.0 0.0 0.0
0.0 0.0 0.0 0.0 0.0 0.0 0.0 0.0
0.0 0.0 0.0 0.0 0.0 0.0 0.0 0.0
00000000: 0000 0000 0000 0000 0000 0000 0000 0000
00000010: 0000 0000 0000 0000 0000 0000 0000 0000
00000020: 0000 0000 0000 0000 0000 0000 0000 0000
00000030: 0000 0000 0000 0000 0000 0000 0000 0000
00000040: 0000 0000 0000 0000 0000 0000 0000 0000
00000050: 0000 0000 0000 0000 0000 0000 0000 0000
00000060: 0000 0000 0000 0000 0000 0000 0000 0000
00000070: 0000 0000 0000 0000 0000 0000 0000 0000
00000080: 0000 0000 0000 0000 0000 0000 0000 0000
00000090: 0000 0000 0000 0000 0000 0000 0000 0000
000000a0: 0000 0000 0000 0000 0000 0000 0000 0000
000000b0: 0000 0000 0000 0000 0000 0000 0000 0000
000000c0: 0000 0000 0000 0000 0000 0000 0000 0000
000000d0: 0000 0000 0000 0000 0000 0000 0000 0000
000000e0: 0000 0000 0000 0000 0000 0000 0000 0000
000000f0: 0000 0000 0000 0000 0000 0000 0000 0000
00000100: 0000 0000 0000 0000 0000 0000 0000 0000
00000110: 0000 0000 0000 0000 0000 0000 0000 0000
00000120: 0000 0000 0000 0000 0000 0000 0000 0000
00000130: 0000 0000 0000 0000 0000 0000 0000 0000
00000140: 0000 0000 0000 0000 0000 0000 0000 0000
00000150: 0000 0000 0000 0000 0000 0000 0000 0000
00000160: 0000 0000 0000 0000 0000 0000 0000 0000
00000170: 0000 0000 0000 0000 0000 0000 0000 0000
00000180: 0000 0000 0000 0000 0000 0000 0000 0000
00000190: 0000 0000 0000 0000 0000 0000 0000 0000
000001a0: 0000 0000 0000 0000 0000 0000 0000 0000
000001b0: 0000 0000 0000 0000 0000 0000 0000 0000
000001c0: 0000 0000 0000 0000 0000 0000 0000 0000
000001d0: 0000 0000 0000 0000 0000 0000 0000 0000
000001e0: 0000 0000 0000 0000 0000 0000 0000 0000
000001f0: 0000 0000 0000 0000 0000 0000 0000 0000
00000200: 0000 0000 0000 0000 0000 0000 0000 0000
00000210: 0000 0000 0000 0000 0000 0000 0000 0000
00000220: 0000 0000 0000 0000 0000 0000 0000 0000
00000230: 0000 0000 0000 0000 0000 0000 0000 0000
00000240: 0000 0000 0000 0000 0000 0000 0000 0000
00000250: 0000 0000 0000 0000 0000 0000 0000 0000
00000260: 0000 0000 0000 0000 0000 0000 0000 0000
00000270: 0000 0000 0000 0000 0000 0000 0000 0000
00000280: 0000 0000 0000 0000 0000 0000 0000 0000
00000290: 0000 0000 0000 0000 0000 0000 0000 0000
000002a0: 0000 0000 0000 0000 0000 0000 0000 0000
000002b0: 0000 0000 0000 0000 0000 0000 0000 0000
000002c0: 0000 0000 0000 0000 0000 0000 0000 0000
000002d0: 0000 0000 0000 0000 0000 0000 0000 0000
000002e0: 0000 0000 0000 0000 0000 0000 0000 0000
000002f0: 0000 0000 0000 0000 0000 0000 0000 0000
00000300: 0000 0000 0000 0000 0000 0000 0000 0000
00000310: 0000 0000 0000 0000 0000 0000 0000 0000
00000320: 0000 0000 0000 0000 0000 0000 0000 0000
00000330: 0000 0000 0000 0000 0000 0000 0000 0000
00000340: 0000 0000 0000 0000 0000 0000 0000 0000
00000350: 0000 0000 0000 0000 0000 0000 0000 0000
00000360: 0000 0000 0000 0000 0000 0000 0000 0000
00000370: 0000 0000 0000 0000 0000 0000 0000 0000
00000380: 0000 0000 0000 0000 0000 0000 0000 0000
00000390: 0000 0000 0000 0000 0000 0000 0000 0000
000003a0: 0000 0000 0000 0000 0000 0000 0000 0000
000003b0: 0000 0000 0000 0000 0000 0000 0000 0000
000003c0: 0000 0000 0000 0000 0000 0000 0000 0000
000003d0: 0000 0000 0000 0000 0000 0000 0000 0000
000003e0: 0000 0000 0000 0000 0000 0000 0000 0000
000003f0: 0000 0000 0000 0000 0000 0000 0000 0000
