verification/models/best_hybrid_model_0.pt (torch, 926017 bytes, 34 tensors)

q_weights f4 [8, 5, 3]
-0.041343845 -0.021747606 0.0088634705 0.019131482 0.0042875092 0.020833151 -0.04517944 0.014156651
-0.015911784 -0.038577024 -0.030326644 0.005309686 -0.01407236 0.005390267 0.020975024 -0.014042763
0.017077396 0.008661633 -0.008510793 -0.013004794 0.0008261436 -0.02036192 0.03256725 0.006412717
0.008737754 0.030907717 0.02537449 0.008933549 -0.03740426 -0.016781535 -0.010777554 -0.0022688445
0.0032230364 0.033055186 -0.018257497 -0.010856443 -0.0024012276 -0.01125357 0.0017963442 -0.012240486
-0.011394072 0.030172361 -0.03896796 0.0044868104 -0.0044110278 -0.025545456 -0.01840324 -0.0021173288
-0.004063071 -0.027135879 0.013906355 -0.060401686 0.05093076 -0.0036097988 0.010989424 0.035986308
-0.004453342 -0.022719115 0.0016172895 0.022405576 0.00061886496 -0.0056874286 0.019909307 0.0074633625
0.007386626 0.02058174 0.023209369 0.04444476 0.006979328 0.0153396595 0.0003581778 0.015245728
0.00113888 -0.030062439 0.047651637 -0.020320602 -0.02924756 0.0143304095 -0.0043017967 0.003106739
0.0071605127 0.023868347 -0.020836039 -0.00026608963 0.0007950739 -0.018383246 0.0119065 0.005241718
-0.0035795225 0.0065095862 -0.00019938649 0.03871496 -0.022777399 0.0019629383 0.015524491 0.03434281
-0.0067544556 -0.008980364 0.020460865 0.009589026 -0.011680777 -0.009303305 -0.009506366 0.014454003
0.008581893 0.038026102 0.014306891 -0.027969297 -0.015285184 -0.019356288 0.04234973 -0.0042553134
0.017728012 0.018219518 0.020376794 -0.020336533 0.01593683 -0.033440154 0.0052898526 -0.015296293
00000000: 2a58 29bd 0928 b2bc 1738 113c a0b9 9c3c
00000010: 3c7e 8c3b 49aa aa3c 140e 39bd 4cf1 673c
00000020: 6e59 82bc f102 1ebd 956f f8bc e0fc ad3b
00000030: c18f 66bc d6a0 b03b d0d3 ab3c 9e13 66bc
00000040: e5e5 8b3c 86e9 0d3c da70 0bbc 0f12 55bc
00000050: 8f91 583a 0bce a6bc 3d65 053d c521 d23b
00000060: cc28 0f3c 2e32 fd3c 2ade cf3c 055e 123c
00000070: 3635 19bd 6e79 89bc 5694 30bc e5b0 14bb
00000080: 9439 533b e064 073d bf90 95bc 39df 31bc
00000090: ea5d 1dbb e560 38bc 4f73 eb3a 528c 48bc
000000a0: 34ae 3abc 072c f73c de9c 1fbd 1806 933b
000000b0: 628a 90bb b444 d1bc 64c2 96bc e2c2 0abb
000000c0: 8323 85bb 104c debc 7bd7 633c c267 77bd
000000d0: c69c 503d 6092 6cbb fc0c 343c 6166 133d
000000e0: 57ed 91bb 701d babc 3bfb d33a e68b b73c
000000f0: 533b 223a 9c5d babb d818 a33c 398f f43b
00000100: 830b f23b 0a9b a83c 9321 be3c b50b 363d
00000110: d9b2 e43b 3253 7b3c cfc9 bb39 38c9 793c
00000120: 7946 953a 8145 f6bc 5d2e 433d 6477 a6bc
00000130: 9498 efbc 18ca 6a3c 16f6 8cbb 6e9a 4b3b
00000140: bca2 ea3b 8d87 c33c 57b0 aabc f281 8bb9
00000150: 826c 503a 7698 96bc 7b13 433c b8c2 ab3b
00000160: 6c96 6abb 5e4e d53b 6712 51b9 9493 1e3d
00000170: ab97 babc a4a4 003b 6f5a 7e3c 0cab 0c3d
00000180: 7b54 ddbb 6022 13bc 8b9d a73c 4a1b 1d3c
00000190: bb60 3fbc e46c 18bc 97c0 1bbc 7cd0 6c3c
000001a0: 119b 0c3c 42c1 1b3d 7367 6a3c de1f e5bc
000001b0: b56e 7abc 1491 9ebc e976 2d3d 2870 8bbb
000001c0: 563a 913c 1941 953c 3ced a63c cd98 a6bc
000001d0: f48d 823c 8bf8 08bd 8056 ad3b 4e9d 7abc

pre_net1.0.weight f4 [512, 5]
-0.098803 0.306232 -0.24987501 0.32242063 -0.18313546 0.14107633 0.16110496 -0.06937743
-0.0052421703 0.08270975 0.33946142 -0.361857 -0.11930706 0.012812316 0.26741716 0.43909347
-0.37011147 -0.16483323 0.43079162 0.35221392 -0.25440148 -0.20104328 -0.066822186 -0.20157193
-0.13282198 0.013590672 -0.40446353 -0.1627506 -0.18755102 -0.18483835 -0.34139585 0.40561837
-0.19772595 -0.115009956 0.29601178 -0.42244807 0.3771203 -0.08873529 0.3015996 0.41780317
-0.00663516 0.21389675 -0.3303598 -0.04276615 -0.2992622 0.22804487 0.3909497 0.15182787
-0.2589073 -0.1212795 0.35811156 0.2540045 -0.23924997 0.10163008 0.35998586 -0.3814489
-0.24169865 -0.029430097 0.13861391 0.22656173 0.24785753 -0.02582322 0.35233152 -0.40192723
0.17426525 -0.41140205 -0.09825767 0.4091268 -0.09986599 0.17465436 0.28634277 -0.023780996
-0.3303183 -0.20004773 -0.08919228 -0.07893953 0.38166067 -0.026336187 0.1684561 -0.00865915
-0.17364576 0.2661377 -0.0008723978 -0.08749061 0.10797767 0.075438686 0.05985164 -0.027981184
-0.045527287 0.12511504 -0.32628217 -0.09753433 -0.17881708 0.087765865 -0.29071862 0.27442318
0.07039462 -0.045055475 0.11411314 -0.4257455 0.0041543385 -0.40042403 0.13867079 0.3635712
-0.11687822 0.06081531 0.12327289 0.16568382 -0.06517703 -0.4286746 0.36892176 0.052028846
0.19547448 -0.37036714 0.3573435 0.0034946026 0.40330017 0.2689864 0.34934986 -0.13949637
0.21219835 0.43848434 0.27474746 0.170662 -0.20469318 0.1704425 0.33037552 -0.33714586
0.2500264 -0.42708376 -0.13081318 0.1526622 -0.1983049 -0.26390913 0.27557775 -0.20642823
-0.17616501 0.1951142 0.2644729 0.41114813 -0.020018023 0.2659514 0.37895423 0.30964422
0.2963472 0.09162869 0.18805322 -0.005869866 -0.39403182 -0.050642576 -0.27667 0.0102381455
-0.10335563 -0.100486 0.099108264 -0.37596694 -0.10491234 0.39814925 0.088708736 -0.32841954
0.03475634 0.4429119 -0.1528787 -0.33844167 -0.09645556 0.108544275 -0.05756205 0.27312502
-0.093366556 -0.33756325 -0.22510748 0.16487497 0.115320176 0.034047186 0.2363813 0.29765218
-0.42257854 0.13210866 -0.0011832068 0.11382157 -0.30912146 0.33282545 -0.2305927 0.094841644
0.21064414 0.28235364 0.110288 -0.18798067 0.2703927 0.30531898 0.2718201 -0.015363563
-0.39487085 0.10220846 0.4352572 0.21350875 -0.036031246 -0.0070830877 -0.21339312 -0.0927371
0.0011791019 0.25433627 -0.03736751 0.4321942 0.085753605 0.098404065 -0.037430633 -0.27211112
0.03220435 0.34616712 -0.14948593 0.40223494 -0.33487794 0.24389052 -0.12854764 -0.23883894
0.39595616 -0.12553647 -0.31519017 -0.37132347 -0.2052609 -0.26068562 0.027081117 -0.26530874
0.13571805 -0.23514436 -0.13598514 -0.18667975 0.08580046 0.14402236 0.16290936 -0.30551368
0.22773139 -0.025645478 0.062960744 0.23034772 0.015564069 0.44404408 -0.14664988 0.21235332
-0.42406258 0.34763756 0.1397164 -0.0581496 0.40431362 0.30436313 -0.41270185 -0.40713963
-0.0013600428 -0.12679927 -0.081186466 -0.36415982 0.40760282 0.43345734 0.041999098 -0.07077975
00000000: 3a59 cabd 71ca 9c3e 3cdf 7fbe 5114 a53e
00000010: dd87 3bbe 5076 103e b3f8 243e c115 8ebd
00000020: 83c6 abbb bb63 a93d e3cd ad3e 5245 b9be
00000030: 4357 f4bd c0ea 513c e7ea 883e dcd0 e03e
00000040: 407f bdbe 0bca 28be b890 dc3e 6255 b43e
00000050: e940 82be 4ade 4dbe 12da 88bd df68 4ebe
00000060: 7c02 08be 69ab 5e3c d815 cfbe 18a8 26be
00000070: 600d 40be 4446 3dbe 70cb aebe 36ad cf3e
00000080: ac78 4abe 578a ebbd db8e 973e 1d4b d8be
00000090: e915 c13e d9ba b5bd 436b 9a3e 4cea d53e
000000a0: c26b d9bb c007 5b3e eb24 a9be 8f2b 2fbd
000000b0: e538 99be 9884 693e 8f2a c83e c478 1b3e
000000c0: 7f8f 84be 6361 f8bd 665a b73e e10c 823e
000000d0: f2fd 74be 6e23 d03d 1150 b83e 454d c3be
000000e0: da7f 77be 6317 f1bc cef0 0d3e ccff 673e
000000f0: 5dce 7d3e 388b d3bc cc64 b43e 68c9 cdbe
00000100: 9772 323e 4aa3 d2be 513b c9bd 1179 d13e
00000110: 8a86 ccbd 98d8 323e 859b 923e 5dd0 c2bc
00000120: 7b1f a9be 50d9 4cbe 71aa b6bd 0cab a1bd
00000130: 0769 c33e fdbe d7bc c27f 2c3e 1cdf 0dbc
00000140: 32d0 31be 3343 883e a0b1 64ba 472e b3bd
00000150: 6623 dd3d 997f 9a3d fe26 753d cc38 e5bc
00000160: d27a 3abd 281e 003e 750e a7be 14c0 c7bd
00000170: d31b 37be 97be b33d 12d9 94be 3281 8c3e
00000180: 0e2b 903d 178c 38bd 26b4 e93d 50fb d9be
00000190: 1e21 883b 6104 cdbe b7ff 0d3e 0126 ba3e
000001a0: d95d efbd 7919 793d 7f76 fc3d 05a9 293e
000001b0: 897b 85bd 3d7b dbbe 50e3 bc3e 331c 553d
000001c0: 762a 483e c3a0 bdbe baf5 b63e b405 653b
000001d0: 5c7d ce3e 96b8 893e fcdd b23e 23d8 0ebe
000001e0: 864a 593e 0581 e03e b3ab 8c3e 05c2 2e3e
000001f0: 179b 51be 7b88 2e3e fb26 a93e 629e acbe
00000200: 7603 803e b9aa dabe e4f3 05be 7b53 1c3e
00000210: 7110 4bbe 191f 87be 8718 8d3e ec61 53be
00000220: 9a64 34be 04cc 473e fe68 873e 0282 d23e
00000230: d6fc a3bc c82a 883e 4a06 c23e b089 9e3e
00000240: d2ba 973e d3a7 bb3d 0691 403e 0158 c0bb
00000250: 8abe c9be 976e 4fbd b1a7 8dbe e5bd 273c
00000260: 1eac d3bd 9bcb cdbd 46f9 ca3d bd7e c0be
00000270: 48dc d6bd 38da cb3e edac b53d 9b26 a8be
00000280: aa5c 0e3d 59c5 e23e 3c8c 1cbe 3a48 adbe
00000290: 7e8a c5bd 764c de3d 2fc6 6bbd 0bd7 8b3e
000002a0: f736 bfbd 17d5 acbe 9382 66be fcd4 283e
000002b0: fc2c ec3d 1075 0b3d f10d 723e de65 983e
000002c0: 375c d8be 7e47 073e d515 9bba 491b e93d
000002d0: 2b45 9ebe 1968 aa3e 7e20 6cbe 563c c23d
000002e0: 19b3 573e a890 903e adde e13d 017e 40be
000002f0: e970 8a3e c552 9c3e 012c 8b3e 74b7 7bbc
00000300: 832c cabe ab52 d13d 08da de3e 0aa2 5a3e
00000310: 8095 13bd 3f19 e8bb ba83 5abe f3ec bdbd
00000320: 188c 9a3a 5d38 823e ad0e 19bd 8f48 dd3e
00000330: 969f af3d 1288 c93d dd50 19bd 2652 8bbe
00000340: b5e8 033d d13c b13e d712 19be bdf1 cd3e
00000350: 1f75 abbe 70be 793e fea1 03be 3292 74be
00000360: c4ba ca3e a28c 00be 9b60 a1be 1c1e bebe
00000370: ea2f 52be 9678 85be 38d9 dd3c 8cd6 87be
00000380: acf9 0a3e afc9 70be b03f 0bbe fa28 3fbe
00000390: 27b8 af3d 997a 133e b6d1 263e 4a6c 9cbe
000003a0: 6b32 693e 7716 d2bc 90f1 803d 46e0 6b3e
000003b0: 7000 7f3c bf59 e33e 632b 16be 2673 593e
000003c0: bb1e d9be 8dfd b13e d111 0f3e 462e 6ebd
000003d0: 3202 cf3e 7cd5 9b3e a84d d3be 9b74 d0be
000003e0: 7743 b2ba abd7 01be 1745 a6bd 2873 babe
000003f0: 51b1 d03e 1fee dd3e 3f07 2c3d f9f4 90bd

pre_net1.0.bias f4 [512]
-0.048670616 -0.27971914 -0.29290143 0.2856923 -0.24339937 -0.073918335 0.3021893 -0.41559577
-0.2987129 0.12191658 0.40714642 -0.18002342 -0.3044171 0.31846792 -0.06957372 0.1489365
0.31790993 -0.08355581 -0.09554963 0.4216917 0.1572416 -0.14318311 -0.31832033 0.29890528
-0.43759444 0.33567962 0.3800775 0.3754906 0.289955 0.24667858 0.049307324 0.3551117
-0.060871553 -0.31895703 0.28252602 -0.25132495 -0.024226151 -0.35918164 -0.17668626 0.3095465
0.33058456 0.013648036 -0.18527456 -0.012082528 -0.38728166 0.16370814 -0.41629988 0.19318894
0.25100794 -0.13127972 0.25845018 0.24882418 0.025902228 -0.28468162 0.44588235 -0.42487735
-0.29425448 -0.27078137 0.13253479 -0.04601024 -0.057955172 0.1038605 -0.29669878 0.27009732
0.3916164 0.2197027 0.2315401 0.2731699 -0.21365301 -0.010522459 0.16570792 -0.37286934
-0.18473823 0.23189862 0.06642021 0.29757056 -0.051583957 0.31379285 -0.059955277 -0.40205687
0.17099819 0.23189746 0.14300457 0.26467118 -0.4463487 0.14062089 -0.31990072 0.04478982
-0.22515076 -0.4197089 -0.27070656 -0.018952955 0.01838225 0.25847873 -0.23134066 -0.15438429
0.11917112 0.091226876 0.032472666 0.023215996 0.32588392 -0.4002141 -0.3721196 -0.21143535
0.016693965 -0.23510583 -0.031685997 0.2609929 -0.2387994 0.14861764 -0.31841975 -0.39841685
0.090459295 0.092534356 -0.18683164 -0.067009255 -0.0011431695 0.44189978 0.39549604 0.18200988
-0.34039572 -0.40619847 -0.3194474 -0.35739836 0.41279206 0.4104726 0.2643028 0.13035347
0.1797059 -0.17744483 0.065406755 -0.29331744 0.014173958 -0.015344051 -0.34078443 0.15405492
0.045005683 -0.33060977 -0.26708755 -0.011800188 -0.036983717 0.18578102 0.35709992 -0.16581124
0.045196965 0.15871014 -0.0974067 0.12901267 -0.10151807 -0.02986971 -0.2797974 0.26786372
-0.15082182 -0.39244738 -0.037949465 -0.11023181 -0.20938341 0.30645978 -0.43404844 0.08089608
0.27285543 -0.32517046 0.3450587 0.011579263 -0.42794344 0.41165555 -0.03150575 0.04257332
-0.41549864 -0.43948686 0.19897601 0.31452632 -0.07715176 -0.14979199 0.017834416 0.07581475
-0.06456101 0.1926169 0.26804885 -0.14045721 0.25089225 -0.13892472 0.39861244 -0.36096337
0.20744692 -0.29729316 0.060658835 0.1309777 -0.12562741 -0.30159125 0.13523471 0.32891098
-0.40727547 0.100667104 0.09824295 0.249144 0.44453934 0.10631418 0.33857507 -0.3545936
-0.09096219 -0.0064594434 0.36713693 0.07741379 -0.4235687 -0.17462131 0.25452745 -0.019287273
-0.31011856 -0.18135202 -0.2938854 0.36214346 0.41075382 -0.2794939 -0.40855354 -0.39270973
0.12333452 0.1303217 0.009564389 -0.060139686 0.2465532 0.02316359 0.4017923 0.24350338
-0.36763453 -0.1864148 0.4025305 0.30648863 -0.38810277 -0.17508215 0.25851774 -0.12347852
0.44294718 -0.23420373 -0.21299744 0.373085 0.12390432 0.06482005 0.19433188 0.26293236
-0.40282473 0.051641747 -0.1437761 0.27986574 0.07252844 0.3133858 -0.38303447 -0.21690175
-0.18175548 -0.2139971 -0.08296677 -0.0035655075 -0.30639902 -0.40135363 -0.08867707 -0.1929791
00000000: d75a 47bd 5937 8fbe 2df7 95be 4346 923e
00000010: af3d 79be 7f62 97bd 8eb8 9a3e f8c8 d4be
00000020: e6f0 98be 66af f93d 7f75 d03e 0f58 38be
00000030: 8fdc 9bbe 3a0e a33e ab7c 8ebd cf82 183e
00000040: 17c5 a23e 4f1f abbd 86af c3bd f9e7 d73e
00000050: f103 213e 989e 12be e2fa a2be 1d0a 993e
00000060: 610c e0be 33de ab3e 8599 c23e 4e40 c03e
00000070: fb74 943e 4f99 7c3e 7af6 493d 33d1 b53e
00000080: 7354 79bd 564e a3be 40a7 903e aaad 80be
00000090: ec75 c6bc a8e6 b7be 3eed 34be e17c 9e3e
000000a0: 6142 a93e 039c 5f3c 9db8 3dbe ccf5 45bc
000000b0: c849 c6be 1ba3 273e 4225 d5be 52d3 453e
000000c0: 1d84 803e 316e 06be 9553 843e c4cb 7e3e
000000d0: e930 d43c cac1 91be b14a e43e 8689 d9be
000000e0: 86a8 96be dba3 8abe 33b7 073e 3c75 3cbd
000000f0: 6762 6dbd d0b4 d43d e7e8 97be 324a 8a3e
00000100: f281 c83e bff9 603e d918 6d3e eddc 8b3e
00000110: dbc7 5abe 6466 2cbc 56af 293e bbe8 bebe
00000120: 052c 3dbe d576 6d3e 5207 883d 2b5b 983e
00000130: b349 53bd 75a9 a03e aa93 75bd 66da cdbe
00000140: 261a 2f3e 8776 6d3e ca6f 123e fb82 873e
00000150: d187 e4be ecfe 0f3e 07ca a3be 8875 373d
00000160: ec8d 66be 16e4 d6be 0d9a 8abe 3a43 9bbc
00000170: 5f96 963c 5357 843e 91e4 6cbe ea16 1ebe
00000180: fd0f f43d 28d5 ba3d 0f02 053d 792f be3c
00000190: 42da a63e dde8 ccbe 7686 bebe 8282 58be
000001a0: c8c1 883c 95bf 70be 2dc9 01bd dda0 853e
000001b0: d487 74be 392f 183e ea07 a3be 4bfd cbbe
000001c0: b942 b93d a782 bd3d cb50 3fbe 263c 89bd
000001d0: 67d6 95ba b040 e23e 757e ca3e cc60 3a3e
000001e0: 5948 aebe 3ff9 cfbe 9c8e a3be ebfc b6be
000001f0: 7b59 d33e 7729 d23e b252 873e 617b 053e
00000200: d304 383e 19b4 35be faf3 853d b42d 96be
00000210: e439 683c 9d65 7bbc 4c7b aebe 93c0 1d3e
00000220: e157 383d af45 a9be b3bf 88be 9355 41bc
00000230: 3d7c 17bd 613d 3e3e cdd5 b63e 6cca 29be
00000240: 7420 393d e984 223e 2a7d c7bd e61b 043e
00000250: b5e8 cfbd 52b1 f4bc 9b41 8fbe 6f25 893e
00000260: 0971 1abe ddee c8be e670 1bbd 37c1 e1bd
00000270: 9b68 56be 4ce8 9c3e 993b debe d8ac a53d
00000280: b5b3 8b3e be7c a6be 89ab b03e f3b6 3d3c
00000290: 671b dbbe 84c4 d23e 2c0c 01bd 5d61 2e3d
000002a0: 3dbc d4be 6c04 e1be 5ec0 4b3e 9809 a13e
000002b0: be01 9ebd 1263 19be 7b19 923c c344 9b3d
000002c0: 9038 84bd 5d3d 453e b33d 893e 04d4 0fbe
000002d0: f374 803e 4842 0ebe ee16 cc3e 31d0 b8be
000002e0: f76c 543e cf36 98be 6675 783d 051f 063e
000002f0: 79a4 00be 2b6a 9abe f87a 0a3e 0567 a83e
00000300: 6986 d0be 8e2a ce3d 9a33 c93d 9b1f 7f3e
00000310: a99a e33e 40bb d93d b659 ad3e 4b8d b5be
00000320: 624a babd bda9 d3bb 5ff9 bb3e 1f8b 9e3d
00000330: ffdd d8be eecf 32be 6c51 823e 5800 9ebc
00000340: dcc7 9ebe 58b4 39be 2678 96be de6a b93e
00000350: 534e d23e d319 8fbe ee2d d1be 4011 c9be
00000360: cf96 fc3d 0d73 053e f4b3 1c3c 0855 76bd
00000370: 7178 7c3e 92c1 bd3c b8b7 cd3e f358 793e
00000380: 983a bcbe 85e3 3ebe 7a18 ce3e 14ec 9c3e
00000390: 68b5 c6be bc48 33be 705c 843e 4ee2 fcbd
000003a0: f9c9 e23e 1ad3 6fbe 001c 5abe ff04 bf3e
000003b0: 8cc1 fd3d 60c0 843d f0fe 463e 129f 863e
000003c0: 0b3f cebe 4c86 533d 0b3a 13be 904a 8f3e
000003d0: ca89 943d 1b74 a03e 181d c4be 7e1b 5ebe
000003e0: 1c1e 3abe 0e22 5bbe 7bea a9bd 4aab 69bb
000003f0: 55e0 9cbe 397e cdbe 539c b5bd 509c 45be

pre_net1.1.weight f4 [512]
1.0 1.0 1.0 1.0 1.0 1.0 1.0 1.0
1.0 1.0 1.0 1.0 1.0 1.0 1.0 1.0
1.0 1.0 1.0 1.0 1.0 1.0 1.0 1.0
1.0 1.0 1.0 1.0 1.0 1.0 1.0 1.0
1.0 1.0 1.0 1.0 1.0 1.0 1.0 1.0
1.0 1.0 1.0 1.0 1.0 1.0 1.0 1.0
1.0 1.0 1.0 1.0 1.0 1.0 1.0 1.0
1.0 1.0 1.0 1.0 1.0 1.0 1.0 1.0
1.0 1.0 1.0 1.0 1.0 1.0 1.0 1.0
1.0 1.0 1.0 1.0 1.0 1.0 1.0 1.0
1.0 1.0 1.0 1.0 1.0 1.0 1.0 1.0
1.0 1.0 1.0 1.0 1.0 1.0 1.0 1.0
1.0 1.0 1.0 1.0 1.0 1.0 1.0 1.0
1.0 1.0 1.0 1.0 1.0 1.0 1.0 1.0
1.0 1.0 1.0 1.0 1.0 1.0 1.0 1.0
1.0 1.0 1.0 1.0 1.0 1.0 1.0 1.0
1.0 1.0 1.0 1.0 1.0 1.0 1.0 1.0
1.0 1.0 1.0 1.0 1.0 1.0 1.0 1.0
1.0 1.0 1.0 1.0 1.0 1.0 1.0 1.0
1.0 1.0 1.0 1.0 1.0 1.0 1.0 1.0
1.0 1.0 1.0 1.0 1.0 1.0 1.0 1.0
1.0 1.0 1.0 1.0 1.0 1.0 1.0 1.0
1.0 1.0 1.0 1.0 1.0 1.0 1.0 1.0
1.0 1.0 1.0 1.0 1.0 1.0 1.0 1.0
1.0 1.0 1.0 1.0 1.0 1.0 1.0 1.0
1.0 1.0 1.0 1.0 1.0 1.0 1.0 1.0
1.0 1.0 1.0 1.0 1.0 1.0 1.0 1.0
1.0 1.0 1.0 1.0 1.0 1.0 1.0 1.0
1.0 1.0 1.0 1.0 1.0 1.0 1.0 1.0
1.0 1.0 1.0 1.0 1.0 1.0 1.0 1.0
1.0 1.0 1.0 1.0 1.0 1.0 1.0 1.0
1.0 1.0 1.0 1.0 1.0 1.0 1.0 1.0
00000000: 0000 803f 0000 803f 0000 803f 0000 803f
00000010: 0000 803f 0000 803f 0000 803f 0000 803f
00000020: 0000 803f 0000 803f 0000 803f 0000 803f
00000030: 0000 803f 0000 803f 0000 803f 0000 803f
00000040: 0000 803f 0000 803f 0000 803f 0000 803f
00000050: 0000 803f 0000 803f 0000 803f 0000 803f
00000060: 0000 803f 0000 803f 0000 803f 0000 803f
00000070: 0000 803f 0000 803f 0000 803f 0000 803f
00000080: 0000 803f 0000 803f 0000 803f 0000 803f
00000090: 0000 803f 0000 803f 0000 803f 0000 803f
000000a0: 0000 803f 0000 803f 0000 803f 0000 803f
000000b0: 0000 803f 0000 803f 0000 803f 0000 803f
000000c0: 0000 803f 0000 803f 0000 803f 0000 803f
000000d0: 0000 803f 0000 803f 0000 803f 0000 803f
000000e0: 0000 803f 0000 803f 0000 803f 0000 803f
000000f0: 0000 803f 0000 803f 0000 803f 0000 803f
00000100: 0000 803f 0000 803f 0000 803f 0000 803f
00000110: 0000 803f 0000 803f 0000 803f 0000 803f
00000120: 0000 803f 0000 803f 0000 803f 0000 803f
00000130: 0000 803f 0000 803f 0000 803f 0000 803f
00000140: 0000 803f 0000 803f 0000 803f 0000 803f
00000150: 0000 803f 0000 803f 0000 803f 0000 803f
00000160: 0000 803f 0000 803f 0000 803f 0000 803f
00000170: 0000 803f 0000 803f 0000 803f 0000 803f
00000180: 0000 803f 0000 803f 0000 803f 0000 803f
00000190: 0000 803f 0000 803f 0000 803f 0000 803f
000001a0: 0000 803f 0000 803f 0000 803f 0000 803f
000001b0: 0000 803f 0000 803f 0000 803f 0000 803f
000001c0: 0000 803f 0000 803f 0000 803f 0000 803f
000001d0: 0000 803f 0000 803f 0000 803f 0000 803f
000001e0: 0000 803f 0000 803f 0000 803f 0000 803f
000001f0: 0000 803f 0000 803f 0000 803f 0000 803f
00000200: 0000 803f 0000 803f 0000 803f 0000 803f
00000210: 0000 803f 0000 803f 0000 803f 0000 803f
00000220: 0000 803f 0000 803f 0000 803f 0000 803f
00000230: 0000 803f 0000 803f 0000 803f 0000 803f
00000240: 0000 803f 0000 803f 0000 803f 0000 803f
00000250: 0000 803f 0000 803f 0000 803f 0000 803f
00000260: 0000 803f 0000 803f 0000 803f 0000 803f
00000270: 0000 803f 0000 803f 0000 803f 0000 803f
00000280: 0000 803f 0000 803f 0000 803f 0000 803f
00000290: 0000 803f 0000 803f 0000 803f 0000 803f
000002a0: 0000 803f 0000 803f 0000 803f 0000 803f
000002b0: 0000 803f 0000 803f 0000 803f 0000 803f
000002c0: 0000 803f 0000 803f 0000 803f 0000 803f
000002d0: 0000 803f 0000 803f 0000 803f 0000 803f
000002e0: 0000 803f 0000 803f 0000 803f 0000 803f
000002f0: 0000 803f 0000 803f 0000 803f 0000 803f
00000300: 0000 803f 0000 803f 0000 803f 0000 803f
00000310: 0000 803f 0000 803f 0000 803f 0000 803f
00000320: 0000 803f 0000 803f 0000 803f 0000 803f
00000330: 0000 803f 0000 803f 0000 803f 0000 803f
00000340: 0000 803f 0000 803f 0000 803f 0000 803f
00000350: 0000 803f 0000 803f 0000 803f 0000 803f
00000360: 0000 803f 0000 803f 0000 803f 0000 803f
00000370: 0000 803f 0000 803f 0000 803f 0000 803f
00000380: 0000 803f 0000 803f 0000 803f 0000 803f
00000390: 0000 803f 0000 803f 0000 803f 0000 803f
000003a0: 0000 803f 0000 803f 0000 803f 0000 803f
000003b0: 0000 803f 0000 803f 0000 803f 0000 803f
000003c0: 0000 803f 0000 803f 0000 803f 0000 803f
000003d0: 0000 803f 0000 803f 0000 803f 0000 803f
000003e0: 0000 803f 0000 803f 0000 803f 0000 803f
000003f0: 0000 803f 0000 803f 0000 803f 0000 803f

pre_net1.1.bias f4 [512]
0.0 0.0 0.0 0.0 0.0 0.0 0.0 0.0
0.0 0.0 0.0 0.0 0.0 0.0 0.0 0.0
0.0 0.0 0.0 0.0 0.0 0.0 0.0 0.0
0.0 0.0 0.0 0.0 0.0 0.0 0.0 0.0
0.0 0.0 0.0 0.0 0.0 0.0 0.0 0.0
0.0 0.0 0.0 0.0 0.0 0.0 0.0 0.0
0.0 0.0 0.0 0.0 0.0 0.0 0.0 0.0
0.0 0.0 0.0 0.0 0.0 0.0 0.0 0.0
0.0 0.0 0.0 0.0 0.0 0.0 0.0 0.0
0.0 0.0 0.0 0.0 0.0 0.0 0.0 0.0
0.0 0.0 0.0 0.0 0.0 0.0 0.0 0.0
0.0 0.0 0.0 0.0 0.0 0.0 0.0 0.0
0.0 0.0 0.0 0.0 0.0 0.0 0.0 0.0
0.0 0.0 0.0 0.0 0.0 0.0 0.0 0.0
0.0 0.0 0.0 0.0 0.0 0.0 0.0 0.0
0.0 0.0 0.0 0.0 0.0 0.0 0.0 0.0
0.0 0.0 0.0 0.0 0.0 0.0 0.0 0.0
0.0 0.0 0.0 0.0 0.0 0.0 0.0 0.0
0.0 0.0 0.0 0.0 0.0 0.0 0.0 0.0
0.0 0.0 0.0 0.0 0.0 0.0 0.0 0.0
0.0 0.0 0.0 0.0 0.0 0.0 0.0 0.0
0.0 0.0 0.0 0.0 0.0 0.0 0.0 0.0
0.0 0.0 0.0 0.0 0.0 0.0 0.0 0.0
0.0 0.0 0.0 0.0 0.0 0.0 0.0 0.0
0.0 0.0 0.0 0.0 0.0 0.0 0.0 0.0
0.0 0.0 0.0 0.0 0.0 0.0 0.0 0.0
0.0 0.0 0.0 0.0 0.0 0.0 0.0 0.0
0.0 0.0 0.0 0.0 0.0 0.0 0.0 0.0
0.0 0.0 0.0 0.0 0.0 0.0 0.0 0.0
0.0 0.0 0.0 0.0 0.0 0.0 0.0 0.0
0.0 0.0 0.0 0.0 0.0 0.0 0.0 0.0
0.0 0.0 0.0 0.0 0.0 0.0 0.0 0.0
00000000: 0000 0000 0000 0000 0000 0000 0000 0000
00000010: 0000 0000 0000 0000 0000 0000 0000 0000
00000020: 0000 0000 0000 0000 0000 0000 0000 0000
00000030: 0000 0000 0000 0000 0000 0000 0000 0000
00000040: 0000 0000 0000 0000 0000 0000 0000 0000
00000050: 0000 0000 0000 0000 0000 0000 0000 0000
00000060: 0000 0000 0000 0000 0000 0000 0000 0000
00000070: 0000 0000 0000 0000 0000 0000 0000 0000
00000080: 0000 0000 0000 0000 0000 0000 0000 0000
00000090: 0000 0000 0000 0000 0000 0000 0000 0000
000000a0: 0000 0000 0000 0000 0000 0000 0000 0000
000000b0: 0000 0000 0000 0000 0000 0000 0000 0000
000000c0: 0000 0000 0000 0000 0000 0000 0000 0000
000000d0: 0000 0000 0000 0000 0000 0000 0000 0000
000000e0: 0000 0000 0000 0000 0000 0000 0000 0000
000000f0: 0000 0000 0000 0000 0000 0000 0000 0000
00000100: 0000 0000 0000 0000 0000 0000 0000 0000
00000110: 0000 0000 0000 0000 0000 0000 0000 0000
00000120: 0000 0000 0000 0000 0000 0000 0000 0000
00000130: 0000 0000 0000 0000 0000 0000 0000 0000
00000140: 0000 0000 0000 0000 0000 0000 0000 0000
00000150: 0000 0000 0000 0000 0000 0000 0000 0000
00000160: 0000 0000 0000 0000 0000 0000 0000 0000
00000170: 0000 0000 0000 0000 0000 0000 0000 0000
00000180: 0000 0000 0000 0000 0000 0000 0000 0000
00000190: 0000 0000 0000 0000 0000 0000 0000 0000
000001a0: 0000 0000 0000 0000 0000 0000 0000 0000
000001b0: 0000 0000 0000 0000 0000 0000 0000 0000
000001c0: 0000 0000 0000 0000 0000 0000 0000 0000
000001d0: 0000 0000 0000 0000 0000 0000 0000 0000
000001e0: 0000 0000 0000 0000 0000 0000 0000 0000
000001f0: 0000 0000 0000 0000 0000 0000 0000 0000
00000200: 0000 0000 0000 0000 0000 0000 0000 0000
00000210: 0000 0000 0000 0000 0000 0000 0000 0000
00000220: 0000 0000 0000 0000 0000 0000 0000 0000
00000230: 0000 0000 0000 0000 0000 0000 0000 0000
00000240: 0000 0000 0000 0000 0000 0000 0000 0000
00000250: 0000 0000 0000 0000 0000 0000 0000 0000
00000260: 0000 0000 0000 0000 0000 0000 0000 0000
00000270: 0000 0000 0000 0000 0000 0000 0000 0000
00000280: 0000 0000 0000 0000 0000 0000 0000 0000
00000290: 0000 0000 0000 0000 0000 0000 0000 0000
000002a0: 0000 0000 0000 0000 0000 0000 0000 0000
000002b0: 0000 0000 0000 0000 0000 0000 0000 0000
000002c0: 0000 0000 0000 0000 0000 0000 0000 0000
000002d0: 0000 0000 0000 0000 0000 0000 0000 0000
000002e0: 0000 0000 0000 0000 0000 0000 0000 0000
000002f0: 0000 0000 0000 0000 0000 0000 0000 0000
00000300: 0000 0000 0000 0000 0000 0000 0000 0000
00000310: 0000 0000 0000 0000 0000 0000 0000 0000
00000320: 0000 0000 0000 0000 0000 0000 0000 0000
00000330: 0000 0000 0000 0000 0000 0000 0000 0000
00000340: 0000 0000 0000 0000 0000 0000 0000 0000
00000350: 0000 0000 0000 0000 0000 0000 0000 0000
00000360: 0000 0000 0000 0000 0000 0000 0000 0000
00000370: 0000 0000 0000 0000 0000 0000 0000 0000
00000380: 0000 0000 0000 0000 0000 0000 0000 0000
00000390: 0000 0000 0000 0000 0000 0000 0000 0000
000003a0: 0000 0000 0000 0000 0000 0000 0000 0000
000003b0: 0000 0000 0000 0000 0000 0000 0000 0000
000003c0: 0000 0000 0000 0000 0000 0000 0000 0000
000003d0: 0000 0000 0000 0000 0000 0000 0000 0000
000003e0: 0000 0000 0000 0000 0000 0000 0000 0000
000003f0: 0000 0000 0000 0000 0000 0000 0000 0000

pre_net2.0.weight f4 [256, 512]
-0.03073383 0.0029279152 -0.02517573 -0.041011006 0.038908217 -0.019660747 0.031197924 -0.041213125
0.0064677815 -0.0028268471 0.0046248054 0.03239855 0.016627563 0.028142467 -0.029381484 -0.03582077
-0.012522313 0.041469153 -0.03636553 -0.0025898921 0.00037437465 0.017041473 0.032605127 0.039707564
0.034187194 -0.018250776 -0.027356002 0.030268649 -0.035297383 0.043991826 -0.016778518 -0.021079477
0.01492658 -0.028995292 0.041695435 0.023330968 -0.04116662 -0.030685581 0.025172431 0.013128211
-0.038840584 0.035120793 0.042931553 -0.034839075 -0.0028150985 0.022597054 0.0074921185 0.006105951
0.014269558 -0.008476506 0.039998364 -0.03343769 0.01657252 0.0017604317 -0.038881678 0.01480496
-0.000590235 0.027449183 -0.0046669627 0.033931885 0.027535232 -0.0019910065 -0.037095796 -0.033630844
0.014480803 -0.011251149 -0.03547678 -0.014168121 -0.025008274 0.014941047 9.8607816e-05 -0.010391026
-0.01942466 0.03533093 0.041630976 0.0022339304 0.023308782 -0.00048516816 -0.02217431 -0.021395031
-0.008196777 -0.0079436 -0.016871609 -0.037566487 -0.029612575 0.014566699 -0.024341084 0.017366234
-0.03509557 0.030601757 0.03079618 -0.003361975 -0.0001309924 -0.035508152 -0.039406195 -0.024539713
-0.0030805077 0.015274355 -0.00787154 -0.00027860646 0.043127537 0.038219225 -0.005192418 0.0015924554
0.0031021975 -0.039095312 0.039856732 0.03034 -0.014709334 -0.016681153 0.043618094 0.012870546
0.0020759325 -0.0062342985 -0.0039362945 0.036555205 0.0113069825 0.0020450335 -0.012245108 0.006455996
0.03587445 0.043909904 0.017788457 -0.030770538 -0.005920494 0.03339567 0.0052445694 -0.019359022
-0.007729632 0.023699906 0.0010711726 -0.033345822 -0.03497848 -0.034255814 -0.0014158601 0.02514196
0.027573211 -0.012218656 0.020746717 0.0028319836 0.029960323 0.036362473 0.027874455 0.01724737
-0.024093704 0.018345822 0.0012308828 0.013840729 0.019070452 0.032723118 0.016426012 0.035762805
0.016129583 0.0410669 0.0358677 0.023879556 0.02035278 -0.0013118839 -0.041357405 0.02011208
-0.005243115 -0.035528738 0.019146692 -0.03191123 0.042944662 0.018840585 0.0017816948 -0.017327655
0.020645702 -0.022127168 -0.024140207 -0.035222653 -0.012549566 -0.0076128324 0.01956533 0.007336681
0.016353577 -0.030403983 -0.017697014 -0.013885511 0.011834656 0.011397993 0.038971253 -0.006608415
0.011464006 0.0009095606 0.0088851135 0.014337905 -0.0064373515 0.0031830196 -0.035873294 -0.03451385
0.03483694 -0.02746296 0.03702016 -0.036590982 0.012820803 0.024288459 0.019297402 -0.03323102
-0.04313845 -0.038888887 -0.035553604 0.038534895 -0.009451731 -0.033429652 0.024687942 0.025706906
0.026618574 -0.013067393 0.0008908369 0.0049020313 -0.03711312 0.012770058 0.017590692 -0.021826703
0.029473053 -0.020630397 0.004513327 -0.014764709 0.035211883 -0.008234583 -0.029872185 -0.015696144
-0.034629572 0.03469161 -0.038087748 -0.005936025 -0.005952531 0.030549664 -0.026765756 -0.037247393
-0.038679525 0.021781906 0.040818706 0.0094577 0.033522133 0.04394428 -0.034835476 0.0291995
0.03614329 0.017686956 -0.028473772 -0.027403839 0.013315206 -0.003246398 -0.013361557 -0.0053143804
0.020918513 0.0018071409 -0.02134812 0.020101538 0.029201306 0.029348126 -0.0070338137 0.033595625
00000000: 83c5 fbbc 44e2 3f3b 553d cebc 28fb 27bd
00000010: 395e 1f3d 930f a1bc ca92 ff3c 18cf 28bd
00000020: afef d33b a042 39bb ae8b 973b 58b4 043d
00000030: 8736 883c 088b e63c 70b1 f0bc cdb8 12bd
00000040: 632a 4dbc 8fdb 293d 06f4 14bd 2ebb 29bb
00000050: b747 c439 8f9a 8b3c f48c 053d 66a4 223d
00000060: df07 0c3d a782 95bc b219 e0bc f5f5 f73c
00000070: fd93 10bd c630 343d 1a73 89bc deae acbc
00000080: 9d8e 743c 8987 edbc d5c8 2a3d 9620 bf3c
00000090: 549e 28bd 5460 fbbc 6a36 ce3c b517 573c
000000a0: 4e17 1fbd d2da 0f3d ffd8 2f3d 6bb3 0ebd
000000b0: 847d 38bb 751d b93c 7280 f53b 6e14 c83b
000000c0: ddca 693c 0be1 0abc 53d5 233d f6f5 08bd
000000d0: 18c3 873c 49be e63a 6542 1fbd 8190 723c
000000e0: 00ba 1aba 1cdd e03c 52ed 98bb 29fc 0a3d
000000f0: 9191 e13c 8c7b 02bb c3f1 17bd 7fc0 09bd
00000100: e440 6d3c bd56 38bc 1a50 11bd 6821 68bc
00000110: 27de ccbc 4bcb 743c abcb ce38 1f3f 2abc
00000120: 7720 9fbc 2ab7 103d 3e85 2a3d 2267 123b
00000130: 0ff2 be3c 2b5e feb9 e6a6 b5bc a244 afbc
00000140: c64b 06bc e025 02bc 5436 8abc 51df 19bd
00000150: 1296 f2bc 2aa9 6e3c f466 c7bc a243 8e3c
00000160: 5fc0 0fbd 89b0 fa3c 4548 fc3c 9554 5cbb
00000170: 015b 09b9 ff70 11bd 6468 21bd 8207 c9bc
00000180: 58e2 49bb 4a41 7a3c a2f7 00bc ed11 92b9
00000190: 80a6 303d c38b 1c3d 2925 aabb f0b9 d03a
000001a0: 3d4e 4b3b 6822 20bd d040 233d 978b f83c
000001b0: 6bff 70bc eaa6 88bc e3a8 323d fcde 523c
000001c0: 5e0c 083b 1649 ccbb 08fc 80bb e9ba 153d
000001d0: ec40 393c f805 063b b59f 48bc d28c d33b
000001e0: 16f1 123d dfda 333d 19b9 913c 7f12 fcbc
000001f0: b400 c2bb e6c9 083d a3da ab3b d096 9ebc
00000200: da48 fdbb 4e26 c23c 9766 8c3a a195 08bd
00000210: 9845 0fbd d34f 0cbd 6294 b9ba 83f6 cd3c
00000220: 37e1 e13c c230 48bc 05f5 a93c cd98 393b
00000230: 5a6f f53c d1f0 143d f858 e43c 5b4a 8d3c
00000240: 2960 c5bc fa49 963c 9355 a13a 3ac4 623c
00000250: a339 9c3c ad08 063d d88f 863c 057c 123d
00000260: 3022 843c c435 283d 02ea 123d 0f9f c33c
00000270: e0ba a63c 85f3 abba 6266 29bd 17c2 a43c
00000280: 70ce abbb 9586 11bd 86d9 9c3c 5ab5 02bd
00000290: bee6 2f3d 9257 9a3c c287 e93a baf2 8dbc
000002a0: 2d21 a93c 0944 b5bc afc1 c5bc a145 10bd
000002b0: b29c 4dbc 1175 f9bb 7947 a03c 8a68 f03b
000002c0: f0f7 853c c611 f9bc 54f9 90bc 0e80 63bc
000002d0: 25e6 413c a6be 3a3c 52a0 1f3d 678b d8bb
000002e0: 87d3 3b3c 946f 6e3a de92 113c 88e9 6a3c
000002f0: 6bf0 d2bb 359a 503b e0ef 12bd 655e 0dbd
00000300: 2eb1 0e3d 00fa e0bc 74a2 173d 6de0 15bd
00000310: 580e 523c 97f8 c63c 9615 9e3c 401d 08bd
00000320: f1b1 30bd f449 1fbd a8a0 11bd c4d6 1d3d
00000330: 6fdb 1abc 88ed 08bd 5e3e ca3c 4a97 d23c
00000340: 320f da3c 9e18 56bc 0d87 693a 38a1 a03b
00000350: ed03 18bd 8139 513c 5b1a 903c eacd b2bc
00000360: 7971 f13c 1401 a9bc 88e4 933b aee7 71bc
00000370: 563a 103d 58ea 06bc 83b6 f4bc 3395 80bc
00000380: bdd7 0dbd ca18 0e3d e601 1cbd fd82 c2bb
00000390: 730d c3bb 4a43 fa3c dc43 dbbc b990 18bd
000003a0: 6c6e 1ebd f86f b23c 8431 273d 78f4 1a3c
000003b0: 814e 093d ebfe 333d a5af 0ebd ca33 ef3c
000003c0: fd0a 143d 3ce4 903c d441 e9bc 047e e0bc
000003d0: 0628 5a3c 85c1 54bb 6fea 5abc 4124 aebb
000003e0: 4d5d ab3c 96dd ec3a 41e2 aebc fbab a43c
000003f0: 9437 ef3c 7b6b f03c e87b e6bb 919b 093d

pre_net2.0.bias f4 [256]
-0.00068792613 0.031087657 0.019540243 -0.006193911 0.0056411186 -0.0030246843 0.024496648 -0.004138594
0.00789067 0.021991393 0.025817432 -0.014659342 -0.00935581 0.018994952 -0.038559366 0.00039656495
-0.011276484 0.043418504 0.042595796 0.028830161 -0.03739988 0.027866764 0.014741792 -0.0025704678
0.027607134 -0.006878919 -0.030378168 0.03258991 0.011215424 0.020224122 -0.021060701 0.038387753
0.014219229 0.019733412 0.041753013 0.019937124 0.00021163512 0.0019229447 -0.030821316 -0.003670079
-0.031639174 0.022753319 0.010784135 0.011717118 0.0133104855 0.010901677 0.043873526 -0.010988294
0.0008043673 -0.0054363427 -0.022371778 0.035130076 0.030436113 -0.029354163 -0.030471306 0.034991447
0.015929438 0.009680651 -0.009554733 -0.032498755 0.019149067 -0.025163528 -0.019833174 -0.020836648
0.037836727 -0.036034197 0.030482724 -0.0042889104 -0.018104684 -0.040204063 0.016316468 -0.020821664
0.021719446 -0.0082512675 0.01946677 0.016291475 0.011442016 0.0097128255 0.03364238 0.044035353
-0.03940345 0.027256956 -0.0068700523 -0.015978802 0.004870795 0.01481693 0.009699306 0.0046656034
0.014338732 -0.028829345 -0.022939892 0.009629017 0.03592807 -0.042866595 -0.008685206 0.039549597
-0.025980249 -0.030791517 0.00752376 -0.008987204 0.04187705 0.021712396 0.04071652 -0.025910318
0.012877616 -0.027290331 0.019610796 -0.017090557 0.017912421 0.036751978 -0.021198627 0.013670294
0.038750585 -0.027585797 0.026343003 -0.019319773 -0.028366283 -0.039794657 0.004384284 -0.0180295
-0.024022402 -0.019051645 0.034894172 -0.039673846 -0.030623784 -0.042283658 0.04030238 0.03168327
-0.011677548 -0.00504482 -0.034966584 0.0071370946 -0.013116394 0.022788785 -0.026088893 -0.014738052
-0.031375147 0.010966868 0.00012611918 0.036037013 0.014176034 0.008287672 0.03114908 0.025113173
-0.029995902 -0.0038268864 -0.040376216 -0.01185743 -0.03295278 0.042898536 0.011521795 -0.021066017
-0.032349456 0.031279474 -0.041112654 -0.03272271 0.023393692 0.001833409 0.019616187 0.017206071
-0.0403596 -0.039616894 -0.03283924 0.031535693 -0.036549434 -0.02707835 -0.025621168 -0.029582135
-0.007960887 0.029658252 0.027728595 -0.020165702 0.014424274 0.026956975 -0.012145399 0.02692728
0.0065073837 0.01693208 0.0030663675 -0.017641153 0.042208407 0.02995433 0.031674936 0.034061402
0.0040003574 0.042090587 -0.0037454693 0.0068148924 -0.028045824 -0.02957477 0.032135297 0.038734064
-0.00033048925 0.0362034 0.0060072746 -0.005653736 0.028197832 -0.027372297 -0.013989792 0.042419806
0.0027874082 -0.024866203 -0.019570336 -0.0018794544 -0.034591142 -0.042485233 0.031440794 0.033709586
-0.0018650085 0.02576313 0.02270004 -0.03477541 0.036337636 0.030332934 -0.04171607 0.026128832
0.00087582204 -0.014632642 -0.0022960075 0.024915108 -0.022739494 -0.019551555 -0.002555316 0.0014975881
0.007822239 0.038429543 0.018107682 -0.034662094 0.021515856 -0.015114502 -0.042435758 -0.040087685
0.00205419 -0.01676434 -0.0144890165 0.04331201 -0.0022341043 -0.03927571 -0.017677931 0.03631302
-0.033134345 -0.005153158 -0.008565409 0.008533809 -0.02141937 0.0015646227 0.0020958048 -0.022709781
0.010604906 0.0049764365 0.017357325 -0.026287163 -0.023026936 0.019999702 0.024520962 -0.026641302
00000000: f155 34ba 8bab fe3c dc12 a03c 4bf6 cabb
00000010: 22d9 b83b c839 46bb 32ad c83c 0b9d 87bb
00000020: de47 013c 4b27 b43c 147f d33c bd2d 70bc
00000030: 1c49 19bc 4d9b 9b3c 6df0 1dbd 0cea cf39
00000040: 00c1 38bc 9ad7 313d ee78 2e3d 3b2d ec3c
00000050: 9e30 19bd d748 e43c 8f87 713c 4b75 28bb
00000060: 5b28 e23c 8e68 e1bb a3db f8bc ff7c 053d
00000070: e6c0 373c 0fad a53c 7e87 acbc 7a3c 1d3d
00000080: c5f7 683c f7a7 a13c 3505 2b3d 2e53 a33c
00000090: 5fea 5d39 510b fc3a fc7c fcbc b585 70bb
000000a0: 1498 01bd 2b65 ba3c f1af 303c 28f9 3f3c
000000b0: 3914 5a3c f39c 323c bab4 333d 3f08 34bc
000000c0: 2ddc 523a 5923 b2bb 0545 b7bc 8ee4 0f3d
000000d0: 2855 f93c 2478 f0bc f69e f9bc 3153 0f3d
000000e0: 747e 823c 989b 1e3c 748b 1cbc 6a1d 05bd
000000f0: 81de 9c3c be23 cebc 2e79 a2bc 9eb1 aabc
00000100: affa 1a3d 9898 13bd e8b6 f93c fd89 8cbb
00000110: 4650 94bc 04ad 24bd 1daa 853c 3292 aabc
00000120: fbec b13c 5330 07bc c778 9f3c b375 853c
00000130: 4b77 3b3c 8b22 1f3c 98cc 093d 6a5e 343d
00000140: 8365 21bd fb49 df3c 2d1e e1bb fae5 82bc
00000150: 319b 9f3b b5c2 723c d7e9 1e3c ebe1 983b
00000160: 00ed 6a3c 852b ecbc 71ec bbbc 06c3 1d3c
00000170: 5029 133d e294 2fbd 654c 0ebc c2fe 213d
00000180: 88d4 d4bc 7e3e fcbc e089 f63b 113f 13bc
00000190: 4587 2b3d 32de b13c 5ec6 263d e041 d4bc
000001a0: a3fc 523c f98f dfbc d2a6 a03c 7f01 8cbc
000001b0: 12bd 923c 3e89 163d bea8 adbc 5ef9 5f3c
000001c0: efb8 1e3d 9cfb e1bc 48cd d73c 8044 9ebc
000001d0: 6860 e8bc b9ff 22bd 0aaa 8f3b 9ab2 93bc
000001e0: a1ca c4bc 3212 9cbc 31ed 0e3d 0b81 22bd
000001f0: bbde fabc a131 2dbd 1c14 253d 51c6 013d
00000200: 3053 3fbc 044f a5bb 1f39 0fbd 4ade e93b
00000210: 25e6 56bc 8caf ba3c 60b8 d5bc df77 71bc
00000220: 3a83 00bd 61ae 333c dc3e 0439 8c9b 133d
00000230: 9942 683c 04c9 073c 5b2c ff3c 24ba cd3c
00000240: f7b9 f5bc 80cc 7abb 8861 25bd ab45 42bc
00000250: 7ff9 06bd 60b6 2f3d e9c5 3c3c a492 acbc
00000260: dd80 04bd e81e 003d be65 28bd 4008 06bd
00000270: 21a4 bf3c ff4e f03a 20b2 a03c bff3 8c3c
00000280: 1c50 25bd 5345 22bd 7082 06bd 922b 013d
00000290: dcb4 15bd 6ad3 ddbc 7ce3 d1bc 3c56 f2bc
000002a0: 616e 02bc ddf5 f23c 1427 e33c 8b32 a5bc
000002b0: ca53 6c3c e0d4 dc3c 7ffd 46bc 9996 dc3c
000002c0: e43b d53b 25b5 8a3c 1cf5 483b 2e84 90bc
000002d0: b9e2 2c3d c862 f53c 94bd 013d f883 0b3d
000002e0: 6e15 833b 2e67 2c3d 8c76 75bb 764f df3b
000002f0: 5bc0 e5bc ca46 f2bc 4da0 033d 9ca7 1e3d
00000300: 8445 adb9 044a 143d acd8 c43b fa42 b9bb
00000310: 24ff e63c de3b e0bc 7135 65bc 64c0 2d3d
00000320: f3ac 363b 35b4 cbbc f851 a0bc 0658 f6ba
00000330: 71af 0dbd ff04 2ebd 10c8 003d 1013 0a3d
00000340: 4d73 f4ba 330d d33c 6ff5 b93c a970 0ebd
00000350: c6d6 143d c67c f83c 78de 2abd 220c d63c
00000360: 6c97 653a c0bd 6fbc 9d78 16bb c51a cc3c
00000370: 2d48 babc 952a a0bc 1777 27bb b84a c43a
00000380: d928 003c 4c68 1d3d 9056 943c d7f9 0dbd
00000390: 0542 b03c d1a2 77bc 1ed1 2dbd fc32 24bd
000003a0: 979f 063b 5f55 89bc 5763 6dbc ef67 313d
000003b0: 0d6a 12bb 91df 20bd 4fd1 90bc f6bc 143d
000003c0: e1b7 07bd d3db a8bb ee55 0cbc 64d1 0b3c
000003d0: ad77 afbc 0714 cd3a c559 093b dd09 babc
000003e0: 33c0 2d3c 6011 a33b f330 8e3c 2d58 d7bc
000003f0: fca2 bcbc 6ad6 a33c 2fe0 c83c dc3e dabc

pre_net2.1.weight f4 [256]
1.0 1.0 1.0 1.0 1.0 1.0 1.0 1.0
1.0 1.0 1.0 1.0 1.0 1.0 1.0 1.0
1.0 1.0 1.0 1.0 1.0 1.0 1.0 1.0
1.0 1.0 1.0 1.0 1.0 1.0 1.0 1.0
1.0 1.0 1.0 1.0 1.0 1.0 1.0 1.0
1.0 1.0 1.0 1.0 1.0 1.0 1.0 1.0
1.0 1.0 1.0 1.0 1.0 1.0 1.0 1.0
1.0 1.0 1.0 1.0 1.0 1.0 1.0 1.0
1.0 1.0 1.0 1.0 1.0 1.0 1.0 1.0
1.0 1.0 1.0 1.0 1.0 1.0 1.0 1.0
1.0 1.0 1.0 1.0 1.0 1.0 1.0 1.0
1.0 1.0 1.0 1.0 1.0 1.0 1.0 1.0
1.0 1.0 1.0 1.0 1.0 1.0 1.0 1.0
1.0 1.0 1.0 1.0 1.0 1.0 1.0 1.0
1.0 1.0 1.0 1.0 1.0 1.0 1.0 1.0
1.0 1.0 1.0 1.0 1.0 1.0 1.0 1.0
1.0 1.0 1.0 1.0 1.0 1.0 1.0 1.0
1.0 1.0 1.0 1.0 1.0 1.0 1.0 1.0
1.0 1.0 1.0 1.0 1.0 1.0 1.0 1.0
1.0 1.0 1.0 1.0 1.0 1.0 1.0 1.0
1.0 1.0 1.0 1.0 1.0 1.0 1.0 1.0
1.0 1.0 1.0 1.0 1.0 1.0 1.0 1.0
1.0 1.0 1.0 1.0 1.0 1.0 1.0 1.0
1.0 1.0 1.0 1.0 1.0 1.0 1.0 1.0
1.0 1.0 1.0 1.0 1.0 1.0 1.0 1.0
1.0 1.0 1.0 1.0 1.0 1.0 1.0 1.0
1.0 1.0 1.0 1.0 1.0 1.0 1.0 1.0
1.0 1.0 1.0 1.0 1.0 1.0 1.0 1.0
1.0 1.0 1.0 1.0 1.0 1.0 1.0 1.0
1.0 1.0 1.0 1.0 1.0 1.0 1.0 1.0
1.0 1.0 1.0 1.0 1.0 1.0 1.0 1.0
1.0 1.0 1.0 1.0 1.0 1.0 1.0 1.0
00000000: 0000 803f 0000 803f 0000 803f 0000 803f
00000010: 0000 803f 0000 803f 0000 803f 0000 803f
00000020: 0000 803f 0000 803f 0000 803f 0000 803f
00000030: 0000 803f 0000 803f 0000 803f 0000 803f
00000040: 0000 803f 0000 803f 0000 803f 0000 803f
00000050: 0000 803f 0000 803f 0000 803f 0000 803f
00000060: 0000 803f 0000 803f 0000 803f 0000 803f
00000070: 0000 803f 0000 803f 0000 803f 0000 803f
00000080: 0000 803f 0000 803f 0000 803f 0000 803f
00000090: 0000 803f 0000 803f 0000 803f 0000 803f
000000a0: 0000 803f 0000 803f 0000 803f 0000 803f
000000b0: 0000 803f 0000 803f 0000 803f 0000 803f
000000c0: 0000 803f 0000 803f 0000 803f 0000 803f
000000d0: 0000 803f 0000 803f 0000 803f 0000 803f
000000e0: 0000 803f 0000 803f 0000 803f 0000 803f
000000f0: 0000 803f 0000 803f 0000 803f 0000 803f
00000100: 0000 803f 0000 803f 0000 803f 0000 803f
00000110: 0000 803f 0000 803f 0000 803f 0000 803f
00000120: 0000 803f 0000 803f 0000 803f 0000 803f
00000130: 0000 803f 0000 803f 0000 803f 0000 803f
00000140: 0000 803f 0000 803f 0000 803f 0000 803f
00000150: 0000 803f 0000 803f 0000 803f 0000 803f
00000160: 0000 803f 0000 803f 0000 803f 0000 803f
00000170: 0000 803f 0000 803f 0000 803f 0000 803f
00000180: 0000 803f 0000 803f 0000 803f 0000 803f
00000190: 0000 803f 0000 803f 0000 803f 0000 803f
000001a0: 0000 803f 0000 803f 0000 803f 0000 803f
000001b0: 0000 803f 0000 803f 0000 803f 0000 803f
000001c0: 0000 803f 0000 803f 0000 803f 0000 803f
000001d0: 0000 803f 0000 803f 0000 803f 0000 803f
000001e0: 0000 803f 0000 803f 0000 803f 0000 803f
000001f0: 0000 803f 0000 803f 0000 803f 0000 803f
00000200: 0000 803f 0000 803f 0000 803f 0000 803f
00000210: 0000 803f 0000 803f 0000 803f 0000 803f
00000220: 0000 803f 0000 803f 0000 803f 0000 803f
00000230: 0000 803f 0000 803f 0000 803f 0000 803f
00000240: 0000 803f 0000 803f 0000 803f 0000 803f
00000250: 0000 803f 0000 803f 0000 803f 0000 803f
00000260: 0000 803f 0000 803f 0000 803f 0000 803f
00000270: 0000 803f 0000 803f 0000 803f 0000 803f
00000280: 0000 803f 0000 803f 0000 803f 0000 803f
00000290: 0000 803f 0000 803f 0000 803f 0000 803f
000002a0: 0000 803f 0000 803f 0000 803f 0000 803f
000002b0: 0000 803f 0000 803f 0000 803f 0000 803f
000002c0: 0000 803f 0000 803f 0000 803f 0000 803f
000002d0: 0000 803f 0000 803f 0000 803f 0000 803f
000002e0: 0000 803f 0000 803f 0000 803f 0000 803f
000002f0: 0000 803f 0000 803f 0000 803f 0000 803f
00000300: 0000 803f 0000 803f 0000 803f 0000 803f
00000310: 0000 803f 0000 803f 0000 803f 0000 803f
00000320: 0000 803f 0000 803f 0000 803f 0000 803f
00000330: 0000 803f 0000 803f 0000 803f 0000 803f
00000340: 0000 803f 0000 803f 0000 803f 0000 803f
00000350: 0000 803f 0000 803f 0000 803f 0000 803f
00000360: 0000 803f 0000 803f 0000 803f 0000 803f
00000370: 0000 803f 0000 803f 0000 803f 0000 803f
00000380: 0000 803f 0000 803f 0000 803f 0000 803f
00000390: 0000 803f 0000 803f 0000 803f 0000 803f
000003a0: 0000 803f 0000 803f 0000 803f 0000 803f
000003b0: 0000 803f 0000 803f 0000 803f 0000 803f
000003c0: 0000 803f 0000 803f 0000 803f 0000 803f
000003d0: 0000 803f 0000 803f 0000 803f 0000 803f
000003e0: 0000 803f 0000 803f 0000 803f 0000 803f
000003f0: 0000 803f 0000 803f 0000 803f 0000 803f

pre_net2.1.bias f4 [256]
0.0 0.0 0.0 0.0 0.0 0.0 0.0 0.0
0.0 0.0 0.0 0.0 0.0 0.0 0.0 0.0
0.0 0.0 0.0 0.0 0.0 0.0 0.0 0.0
0.0 0.0 0.0 0.0 0.0 0.0 0.0 0.0
0.0 0.0 0.0 0.0 0.0 0.0 0.0 0.0
0.0 0.0 0.0 0.0 0.0 0.0 0.0 0.0
0.0 0.0 0.0 0.0 0.0 0.0 0.0 0.0
0.0 0.0 0.0 0.0 0.0 0.0 0.0 0.0
0.0 0.0 0.0 0.0 0.0 0.0 0.0 0.0
0.0 0.0 0.0 0.0 0.0 0.0 0.0 0.0
0.0 0.0 0.0 0.0 0.0 0.0 0.0 0.0
0.0 0.0 0.0 0.0 0.0 0.0 0.0 0.0
0.0 0.0 0.0 0.0 0.0 0.0 0.0 0.0
0.0 0.0 0.0 0.0 0.0 0.0 0.0 0.0
0.0 0.0 0.0 0.0 0.0 0.0 0.0 0.0
0.0 0.0 0.0 0.0 0.0 0.0 0.0 0.0
0.0 0.0 0.0 0.0 0.0 0.0 0.0 0.0
0.0 0.0 0.0 0.0 0.0 0.0 0.0 0.0
0.0 0.0 0.0 0.0 0.0 0.0 0.0 0.0
0.0 0.0 0.0 0.0 0.0 0.0 0.0 0.0
0.0 0.0 0.0 0.0 0.0 0.0 0.0 0.0
0.0 0.0 0.0 0.0 0.0 0.0 0.0 0.0
0.0 0.0 0.0 0.0 0.0 0.0 0.0 0.0
0.0 0.0 0.0 0.0 0.0 0.0 0.0 0.0
0.0 0.0 0.0 0.0 0.0 0.0 0.0 0.0
0.0 0.0 0.0 0.0 0.0 0.0 0.0 0.0
0.0 0.0 0.0 0.0 0.0 0.0 0.0 0.0
0.0 0.0 0.0 0.0 0.0 0.0 0.0 0.0
0.0 0.0 0.0 0.0 0.0 0.0 0.0 0.0
0.0 0.0 0.0 0.0 0.0 0.0 0.0 0.0
0.0 0.0 0.0 0.0 0.0 0.0 0.0 0.0
0.0 0.0 0.0 0.0 0.0 0.0 0.0 0.0
00000000: 0000 0000 0000 0000 0000 0000 0000 0000
00000010: 0000 0000 0000 0000 0000 0000 0000 0000
00000020: 0000 0000 0000 0000 0000 0000 0000 0000
00000030: 0000 0000 0000 0000 0000 0000 0000 0000
00000040: 0000 0000 0000 0000 0000 0000 0000 0000
00000050: 0000 0000 0000 0000 0000 0000 0000 0000
00000060: 0000 0000 0000 0000 0000 0000 0000 0000
00000070: 0000 0000 0000 0000 0000 0000 0000 0000
00000080: 0000 0000 0000 0000 0000 0000 0000 0000
00000090: 0000 0000 0000 0000 0000 0000 0000 0000
000000a0: 0000 0000 0000 0000 0000 0000 0000 0000
000000b0: 0000 0000 0000 0000 0000 0000 0000 0000
000000c0: 0000 0000 0000 0000 0000 0000 0000 0000
000000d0: 0000 0000 0000 0000 0000 0000 0000 0000
000000e0: 0000 0000 0000 0000 0000 0000 0000 0000
000000f0: 0000 0000 0000 0000 0000 0000 0000 0000
00000100: 0000 0000 0000 0000 0000 0000 0000 0000
00000110: 0000 0000 0000 0000 0000 0000 0000 0000
00000120: 0000 0000 0000 0000 0000 0000 0000 0000
00000130: 0000 0000 0000 0000 0000 0000 0000 0000
00000140: 0000 0000 0000 0000 0000 0000 0000 0000
00000150: 0000 0000 0000 0000 0000 0000 0000 0000
00000160: 0000 0000 0000 0000 0000 0000 0000 0000
00000170: 0000 0000 0000 0000 0000 0000 0000 0000
00000180: 0000 0000 0000 0000 0000 0000 0000 0000
00000190: 0000 0000 0000 0000 0000 0000 0000 0000
000001a0: 0000 0000 0000 0000 0000 0000 0000 0000
000001b0: 0000 0000 0000 0000 0000 0000 0000 0000
000001c0: 0000 0000 0000 0000 0000 0000 0000 0000
000001d0: 0000 0000 0000 0000 0000 0000 0000 0000
000001e0: 0000 0000 0000 0000 0000 0000 0000 0000
000001f0: 0000 0000 0000 0000 0000 0000 0000 0000
00000200: 0000 0000 0000 0000 0000 0000 0000 0000
00000210: 0000 0000 0000 0000 0000 0000 0000 0000
00000220: 0000 0000 0000 0000 0000 0000 0000 0000
00000230: 0000 0000 0000 0000 0000 0000 0000 0000
00000240: 0000 0000 0000 0000 0000 0000 0000 0000
00000250: 0000 0000 0000 0000 0000 0000 0000 0000
00000260: 0000 0000 0000 0000 0000 0000 0000 0000
00000270: 0000 0000 0000 0000 0000 0000 0000 0000
00000280: 0000 0000 0000 0000 0000 0000 0000 0000
00000290: 0000 0000 0000 0000 0000 0000 0000 0000
000002a0: 0000 0000 0000 0000 0000 0000 0000 0000
000002b0: 0000 0000 0000 0000 0000 0000 0000 0000
000002c0: 0000 0000 0000 0000 0000 0000 0000 0000
000002d0: 0000 0000 0000 0000 0000 0000 0000 0000
000002e0: 0000 0000 0000 0000 0000 0000 0000 0000
000002f0: 0000 0000 0000 0000 0000 0000 0000 0000
00000300: 0000 0000 0000 0000 0000 0000 0000 0000
00000310: 0000 0000 0000 0000 0000 0000 0000 0000
00000320: 0000 0000 0000 0000 0000 0000 0000 0000
00000330: 0000 0000 0000 0000 0000 0000 0000 0000
00000340: 0000 0000 0000 0000 0000 0000 0000 0000
00000350: 0000 0000 0000 0000 0000 0000 0000 0000
00000360: 0000 0000 0000 0000 0000 0000 0000 0000
00000370: 0000 0000 0000 0000 0000 0000 0000 0000
00000380: 0000 0000 0000 0000 0000 0000 0000 0000
00000390: 0000 0000 0000 0000 0000 0000 0000 0000
000003a0: 0000 0000 0000 0000 0000 0000 0000 0000
000003b0: 0000 0000 0000 0000 0000 0000 0000 0000
000003c0: 0000 0000 0000 0000 0000 0000 0000 0000
000003d0: 0000 0000 0000 0000 0000 0000 0000 0000
000003e0: 0000 0000 0000 0000 0000 0000 0000 0000
000003f0: 0000 0000 0000 0000 0000 0000 0000 0000
