verification/models/best_hybrid_model_2.pt (torch, 926017 bytes, 34 tensors)

q_weights f4 [8, 5, 3]
0	0x3842e02b	4.6461977e-05
1	0x3c4dfbbb	0.012572224
2	0x3d2e60d9	0.04257283
3	0x3cbd9822	0.023143832
4	0xbba3877f	-0.0049905176
5	0xbcb5264e	-0.022112992
6	0x3bdfcf82	0.006830157
7	0x3c2019e7	0.009771801
8	0x3b6f81ab	0.0036545794
9	0xbcdb561e	-0.026774462
10	0xbd424435	-0.04742833
11	0x3b405add	0.0029351034
12	0x3cc740db	0.024322918
13	0x3c23d3ca	0.009999225
14	0x3bc69ec1	0.0060614054
15	0xbca67cd0	-0.020323187
16	0xbc9626c0	-0.018329024
17	0x3b63ba6a	0.0034748563
18	0xbb680667	-0.0035404207
19	0xbc5e5624	-0.013570342
20	0x3c287376	0.010281434
21	0x3ca140b0	0.019684166
22	0xbb72ca77	-0.0037046948
23	0x3a831cbf	0.0010003074
24	0xbbd2b314	-0.006430039
25	0xbc1243cb	-0.008927296
26	0x3c1a1547	0.009404487
27	0x3c12abae	0.008952064
28	0x3ca469b2	0.02006993
29	0xbc360e64	-0.011111829
30	0xbc2b0d80	-0.01044023
31	0xbc0efa3a	-0.008726651
32	0x3d2607aa	0.040534653
33	0x3c4fd2be	0.012684522
34	0x3d62659b	0.05527268
35	0x3b427269	0.0029670245
36	0xbc856157	-0.016281767
37	0xbbaaffaf	-0.005218468
38	0x3c65167e	0.013982413
39	0xbb4c7018	-0.0031194743
40	0xbb2bdebd	-0.0026225292
41	0x3c0b9bc2	0.008521022
42	0x3c4db686	0.012555724
43	0xbc059a3b	-0.008154447
44	0xbc3df81c	-0.011594798
45	0x3c8ebd96	0.017424386
46	0xbca5fa2e	-0.020260897
47	0xbd05e7c8	-0.032691747
48	0x3d1247a0	0.03571284
49	0x3c8e993e	0.017407056
50	0x3c2fbfd2	0.010726886
51	0x3b1f61f4	0.002431986
52	0x3c96d50f	0.018412141
53	0xbbb38724	-0.0054787565
54	0x3b9efe2a	0.004852076
55	0x3d2dabef	0.042400297
56	0x3c38387d	0.011243937
57	0xbc742a06	-0.014902597
58	0xbc116a39	-0.008875423
59	0xbc2d0d2f	-0.010562225
60	0xbd0eb592	-0.034841128
61	0xbd17ef2b	-0.037093323
62	0x3c705337	0.014668277
63	0xbba11fe4	-0.0049171317
64	0x3d02bc77	0.031918015
65	0xbcdf7ac6	-0.027280223
66	0x3c230879	0.0099507505
67	0x3c461e54	0.012092192
68	0x3aaf9185	0.0013394809
69	0x3c811706	0.015758049
70	0x3c1c165b	0.009526814
71	0x3c8b620b	0.017014524
72	0x3c813170	0.015770644
73	0xbc2ae846	-0.010431355
74	0x3c7f964e	0.0155998
75	0x3c501734	0.012700845
76	0x3c84e233	0.016221141
77	0x3d4ca692	0.04996354
78	0x3c57adb7	0.013163975
79	0x3cbbcfbe	0.022926208
80	0xbd068c2f	-0.032848533
81	0x3cdebb4c	0.02718892
82	0x3ba457cf	0.0050153504
83	0x3c340d8d	0.010989559
84	0x3c238c65	0.009982203
85	0x3c383de6	0.0112452265
86	0xbb301000	-0.0026865005
87	0xbc05af31	-0.008159445
88	0xbceb16bb	-0.028697362
89	0x3c96f924	0.018429346
90	0xbd204f15	-0.03913792
91	0x3bb1287c	0.0054064374
92	0xbba9d2b6	-0.0051825894
93	0xbd1fb9f4	-0.038995698
94	0x3c515826	0.012777364
95	0xba904522	-0.0011006931
96	0x3c49fd89	0.012328514
97	0x3c302d74	0.010753024
98	0x3ce413be	0.027841445
99	0x3cd5003e	0.026001092
100	0xbcc40661	-0.023928823
101	0x3cf68030	0.030090421
102	0xbbb6a1af	-0.0055734734
103	0xbc5061bd	-0.012718615
104	0xbd11cc33	-0.03559513
105	0xbcd4a8a9	-0.02595933
106	0x3c7c84f4	0.015412558
107	0xba4c38b2	-0.00077904307
108	0xbb9d37c8	-0.0047979094
109	0x3c9aafc6	0.018882643
110	0xbc0b1f90	-0.008491412
111	0xbc649681	-0.013951899
112	0xbca13efa	-0.01968335
113	0x3c259e81	0.010108591
114	0xbcd7de55	-0.026351133
115	0xbce686c4	-0.028140433
116	0xbc2a6c8b	-0.010401855
117	0xbd26bf3b	-0.040709715
118	0xbc894c69	-0.016760068
119	0x3b718a2c	0.0036856038

pre_net1.0.weight f4 [512, 5]
0	0x3dc119d1	0.09428752
1	0x3e5e7dd6	0.2172769
2	0x3da11db3	0.07866993
3	0xbd7e5976	-0.062097035
4	0x3ed6b841	0.4193745
5	0xbd5e7708	-0.054312736
6	0x3ea8bee6	0.32958144
7	0xbe34aa6d	-0.17643137
8	0x3e3d67b5	0.18496592
9	0x3ed7c7c1	0.42144588
10	0xbe077911	-0.13229777
11	0x3e86e80c	0.26348913
12	0x3ecda460	0.4016447
13	0xbe5de801	-0.21670534
14	0xbe5c0e6f	-0.21489881
15	0xbea61fd3	-0.32446155
16	0xbe0cddc4	-0.13756472
17	0xbe2c8a39	-0.16849603
18	0xbde1cd59	-0.11025495
19	0x3ed8221e	0.4221353
20	0xbd064941	-0.032784704
21	0xbe136cbf	-0.14396952
22	0x3e1e0d30	0.15434718
23	0xbe8398a2	-0.25702387
24	0x3de06e01	0.109584816
25	0xbe1ffa21	-0.1562276
26	0xbe8d52ba	-0.27602178
27	0xbedd96db	-0.43279156
28	0xbe892ce9	-0.26792076
29	0x3eb50d07	0.35361502
30	0x3dd3af5c	0.103361815
31	0xbdf61c43	-0.12017109
32	0xbe7210af	-0.23639177
33	0x3ecbec41	0.39828685
34	0x3a64831e	0.0008717048
35	0x3e802d79	0.25034693
36	0xbe966556	-0.29374188
37	0x3dacf19d	0.084445216
38	0x3e987d18	0.2978294
39	0x3be1acd7	0.006887059
40	0xbedbda7f	-0.42940137
41	0xbe02de59	-0.12780131
42	0x3e3281dd	0.17432351
43	0x3e9b081e	0.3027963
44	0x3ec90fc3	0.39269838
45	0xbe713573	-0.23555546
46	0xbdc825a0	-0.097728014
47	0xbeb2e222	-0.3493815
48	0x3e7d9bc6	0.24766454
49	0xbe9af128	-0.30262113
50	0xbdb404b8	-0.087899625
51	0xbe9ec2d9	-0.31008032
52	0x3d9e2adc	0.077230185
53	0x3ccaaa97	0.024739547
54	0x3deee4e1	0.11664749
55	0x3e1c9aac	0.15293378
56	0xbec1b346	-0.37832087
57	0xbedece39	-0.4351671
58	0x3e146bd0	0.14494252
59	0xbe81daba	-0.25362188
60	0x3ed51c43	0.41623124
61	0xbcd98375	-0.026551941
62	0x3d7a374c	0.06108789
63	0xbe1d3d0d	-0.1535532
64	0x3d8ee502	0.069772735
65	0xbe819ff6	-0.25317353
66	0xbcabcd38	-0.02097188
67	0x3e1378cf	0.14401554
68	0xbe79ee38	-0.2440728
69	0x3ea67b44	0.3251592
70	0xbe17b444	-0.1481486
71	0x3ea5af34	0.32360232
72	0x3ecf5d73	0.40500984
73	0xbe57dc50	-0.21080136
74	0x3ecc9ccd	0.3996338
75	0x3e997178	0.29969382
76	0x3ea46085	0.3210489
77	0x3ea943cf	0.33059546
78	0xbedfd82e	-0.4371962
79	0x3e612a48	0.21988785
80	0x3e874016	0.2641608
81	0x3e85b876	0.26117295
82	0xbe8408c8	-0.2578795
83	0x3e0cd757	0.1375402
84	0xbed28b15	-0.41121736
85	0xbed5403e	-0.41650575
86	0xbd3daa51	-0.046305005
87	0x3e8b4c2b	0.2720655
88	0xbe634a3c	-0.22196287
89	0xbe6a92eb	-0.22907607
90	0xbe3e7862	-0.1860061
91	0x3ea223f6	0.3166806
92	0x3e619e6b	0.22033088
93	0xbea16b4c	-0.31527174
94	0x3e91713b	0.284067
95	0x3db94c6c	0.090477794
96	0x3e1451d5	0.14484341
97	0x3d37b5ee	0.044851236
98	0xbeb23cf9	-0.34812143
99	0x3ec8ef25	0.39244953
100	0xbee0cbdd	-0.43905535
101	0x3e086bb5	0.13322337
102	0xbe0c52ab	-0.1370341
103	0xbc130b88	-0.008974917
104	0xbe38ddce	-0.18053362
105	0x3e7e49c8	0.24832833
106	0x3e32df11	0.17467906
107	0x3ebd3fc6	0.36962718
108	0x3e4394bf	0.19099711
109	0xbe81dd96	-0.2536437
110	0xbe95f441	-0.29287913
111	0x3cfb9da0	0.03071481
112	0x3d82f48e	0.06394301
113	0x3e175881	0.14779855
114	0xbead519b	-0.33851323
115	0xbe11c042	-0.14233497
116	0xbe4e8b7d	-0.20170398
117	0xbd4334fd	-0.047657955
118	0x3db192df	0.086705916
119	0x3ec52907	0.38507864
120	0xbec205c0	-0.37895012
121	0x3dde7c7b	0.108635865
122	0xbebd5ec7	-0.36986372
123	0x3e8ad290	0.2711377
124	0xbd93146c	-0.071816295
125	0xbda85657	-0.08219593
126	0xbebb635f	-0.36599252
127	0xbe395663	-0.1809936
128	0xbe9cf4ef	-0.3065562
129	0x3e6fe936	0.23428807
130	0x3eae63c4	0.3406049
131	0x3e641af5	0.22275908
132	0x3e163655	0.14669164
133	0xbd82b930	-0.06382978
134	0x3c520aba	0.01281994
135	0xbed84911	-0.42243245
136	0xbd40cebe	-0.047072165
137	0x3d96a927	0.07356482
138	0x3d3120aa	0.04324404
139	0x3e02fcb1	0.12791707
140	0x3ebd01c5	0.36915413
141	0xbed2e147	-0.41187498
142	0xbe88c87f	-0.26715466
143	0xbbe58443	-0.007004292
144	0x3e786916	0.24258837
145	0xbda9f953	-0.08299508
146	0xbd8c6687	-0.06855493
147	0xbe354302	-0.17701343
148	0x3bef94a9	0.007311423
149	0xbee2805f	-0.44238564
150	0xbd6627f1	-0.056190435
151	0xbe8ebd52	-0.27878815
152	0xbec73ebd	-0.38915053
153	0xbebbfa44	-0.36714375
154	0x3ea8fda7	0.3300602
155	0x387348c1	5.8003472e-05
156	0xbe778b70	-0.24174285
157	0xbe84bb5c	-0.25924194
158	0xbd806f01	-0.06271172
159	0xbeddee4b	-0.43345866
160	0x3c5414a0	0.0129443705
161	0x3c4906a8	0.012269653
162	0x3cc19413	0.023630178
163	0xbdf07140	-0.11740351
164	0x3d8a1fdd	0.06744359
165	0xbc96c4a8	-0.01840432
166	0x3e4d6b9f	0.20060585
167	0x3e6da75f	0.23208378
168	0xbe708034	-0.23486406
169	0x3db6ffaa	0.08935483
170	0xbe4befbe	-0.19915673
171	0xbed16089	-0.40893963
172	0xbe5efda8	-0.2177645
173	0xbe8d2e9f	-0.27574632
174	0x3e73a76c	0.23794335
175	0xbe84d531	-0.25943902
176	0x3e8f9198	0.28040767
177	0x3ea2898d	0.31745568
178	0xbed446b5	-0.41460195
179	0x3ebd265e	0.36943334
180	0x3eccae05	0.39976516
181	0x3eaea010	0.34106493
182	0x3ecd0c89	0.40048626
183	0x3e2a40e4	0.16626316
184	0xbe821e42	-0.2541371
185	0xbe9edb9d	-0.31026927
186	0xbeda98cd	-0.42694703
187	0xbe3e90cc	-0.18609923
188	0x3ca474b0	0.020075172
189	0x3ece3656	0.4027583
190	0x3ee2d700	0.44304657
191	0x3ee138bc	0.43988597
192	0x3ebdc605	0.3706514
193	0xbdcc7de7	-0.099849515
194	0xbe3f6442	-0.18690589
195	0xbe251474	-0.16121083
196	0xbd950343	-0.07276013
197	0xbe451cb7	-0.19249235
198	0x3ec62570	0.38700438
199	0xbe7d2ee7	-0.24724923
200	0xbe9f4155	-0.31104532
201	0xbdeb88cd	-0.11500702
202	0x3ee47aed	0.44625035
203	0x3eb987c6	0.362364
204	0xbec15935	-0.37763372
205	0xbe53a79a	-0.20669404
206	0xbeac16e6	-0.3361122
207	0xbe8cf3d0	-0.27529764
208	0x3e31d348	0.17365754
209	0xbe9dc603	-0.30815133
210	0xbec36b50	-0.3816781
211	0xbddc1618	-0.107464015
212	0x3eb26e55	0.34849802
213	0x3d0d93c1	0.034564737
214	0xbe87ebd3	-0.26547107
215	0xbd567814	-0.05236061
216	0x3ec3283c	0.38116634
217	0xbbc5a0d4	-0.006031135
218	0xbde475ac	-0.11155257
219	0x3e6458b3	0.22299461
220	0xbce0745a	-0.02739923
221	0xbc03ff03	-0.008056405
222	0xbe9c0c08	-0.3047793
223	0xbe6123f7	-0.21986376
224	0x3da6eddc	0.08150837
225	0x3da5d800	0.08097839
226	0x3e74bf19	0.23901023
227	0xbea1c3ea	-0.31594783
228	0xbe1e5506	-0.15462121
229	0x3d838f27	0.064237885
230	0x3ed70529	0.41996124
231	0xbecf34ff	-0.4047012
232	0xbe76ba85	-0.24094589
233	0x3e0fba31	0.1403587
234	0xbe9017ba	-0.28143102
235	0xbcca9372	-0.02472851
236	0xbe13430f	-0.1438105
237	0xbeb2cf0f	-0.34923598
238	0xbd1da869	-0.038490687
239	0x3e9ee0de	0.31030935
240	0xbede10ed	-0.43372288
241	0xbe6d6b3c	-0.23185438
242	0xbe9a200a	-0.3010257
243	0xbe892bde	-0.2679128
244	0xbe991c0b	-0.29904208
245	0xbe905e06	-0.28196734
246	0xbe73a400	-0.2379303
247	0x3ed229f6	0.4104764
248	0x3e4b42ac	0.19849652
249	0xbebf9652	-0.37419373
250	0x3e55d99c	0.20883793
251	0xbcf2215e	-0.029556926
252	0xbc4d9bb3	-0.012549329
253	0x3ea0edaa	0.31431323
254	0xbd171130	-0.036881626
255	0xbd40982e	-0.04702013

pre_net1.0.bias f4 [512]
0	0xbe481933	-0.19540863
1	0xbe5ee634	-0.21767503
2	0x3d6bb375	0.05754419
3	0xbe9254dc	-0.28580368
4	0xbebb2e58	-0.36558795
5	0xbe89f56c	-0.26945055
6	0x3ec9d96c	0.39423692
7	0xbcff466d	-0.031161511
8	0xbea02238	-0.31276107
9	0x3e4b51c4	0.1985541
10	0x3d9f7bdd	0.07787297
11	0x3eda94d9	0.42691687
12	0x3edc36d1	0.43010572
13	0xbdde7fce	-0.108642206
14	0x3ede89b7	0.43464443
15	0x3ebddc2c	0.3708204
16	0xbcbd81d8	-0.023133203
17	0xbbdcfa48	-0.006743703
18	0xbe199e86	-0.15001878
19	0xbebb11a3	-0.36536893
20	0x3dca3032	0.09872474
21	0xbe355d12	-0.17711285
22	0x3eda0474	0.42581522
23	0xbed43515	-0.41446748
24	0x3e4b7608	0.19869244
25	0xbeb47538	-0.3524568
26	0x3e44fa21	0.19236042
27	0xbc1c63ae	-0.00954525
28	0x3ea4fb3b	0.32222924
29	0xbd8725b3	-0.065989874
30	0x3b097658	0.002097508
31	0x3e9561bf	0.29176137
32	0x3eb03c79	0.34421137
33	0xbcf2919f	-0.029610453
34	0xbddce1db	-0.10785266
35	0x3cd9562e	0.026530351
36	0xbe5b6a24	-0.21427208
37	0xbd61d081	-0.055130485
38	0x3dcf7460	0.10129619
39	0xbe48daf5	-0.19614775
40	0x3e3127b1	0.17300297
41	0x3e5b7c9a	0.2143425
42	0xbe1928ef	-0.14957021
43	0xbe83d177	-0.25745746
44	0x3eb6cf31	0.3570495
45	0x3ea19509	0.31559017
46	0x3dc95f1f	0.09832596
47	0x3e805a7d	0.25069037
48	0x3e03d629	0.12874664
49	0x3e8a1c66	0.2697479
50	0x3e80ea07	0.2517855
51	0x3e24f5e7	0.1610943
52	0x3d576bdd	0.0525931
53	0x3e5b5248	0.21418107
54	0x3ec5d000	0.38635254
55	0x3e39d54c	0.18147773
56	0xbe234162	-0.1594291
57	0x3df37dc0	0.11889219
58	0xbceaaadf	-0.02864593
59	0x3eac227a	0.33620054
60	0xbdd3896e	-0.10328947
61	0xbdc6fcbb	-0.09716173
62	0x3e358d8a	0.17729774
63	0x3e336ab5	0.17521174
64	0xbed7fab7	-0.42183468
65	0x3cfc4289	0.030793445
66	0xbe438613	-0.19094114
67	0x3edb1894	0.4279219
68	0xbea922e8	-0.33034444
69	0x3ea360a5	0.3190967
70	0x3d7d1b8c	0.06179385
71	0x3bdd4164	0.00675218
72	0x3d21dbe8	0.03951636
73	0xbeb4c8cf	-0.35309455
74	0x3de9b169	0.114107914
75	0x3e7a56f7	0.24447237
76	0x3e231c39	0.15928735
77	0xbda0c73f	-0.07850503
78	0xbed6a263	-0.41920766
79	0xbe8c5ed2	-0.27416092
80	0x3baf7ff9	0.0053558317
81	0x3eaac947	0.33356687
82	0x3db55ac8	0.08855206
83	0x3de61297	0.112340145
84	0xbe94a9f2	-0.29035908
85	0xbe5d3094	-0.21600562
86	0x3e7e9208	0.24860394
87	0x3e3eec32	0.18644789
88	0x3e35c9bb	0.17752735
89	0xbe037b88	-0.12840092
90	0xbebc5acd	-0.36788025
91	0xbe0ec11f	-0.13940857
92	0x3dd3b6f6	0.103376314
93	0xbe5b96e0	-0.21444273
94	0xbe9433d5	-0.28945795
95	0xbe6f6c09	-0.23381056
96	0x3c265f0f	0.0101545
97	0xbeda4f40	-0.42638588
98	0x3db2e640	0.08735323
99	0x3e0493d6	0.1294702
100	0x3ec19ccd	0.37814942
101	0x3d3cd4fe	0.046101563
102	0xbd67be92	-0.056578226
103	0x3ecec530	0.40384817
104	0xbe915715	-0.2838675
105	0x3e301d64	0.17198712
106	0xbe065e22	-0.13121846
107	0xbe16e7a3	-0.147368
108	0x3de6d162	0.11270405
109	0xbe85508f	-0.26038024
110	0xbc8470d4	-0.016167082
111	0x3eaa06fe	0.3320846
112	0xbe3e8dd6	-0.18608794
113	0xbebbf229	-0.3670819
114	0x3d31a9e7	0.043374922
115	0xbe3b46e7	-0.18288766
116	0xbe0e4c34	-0.13896257
117	0xbecd4c1d	-0.40097132
118	0xbdd21ecb	-0.102597795
119	0xbe816ab9	-0.25276735
120	0xbd3cc840	-0.04608941
121	0xbdfe2e9d	-0.124112345
122	0x3ea43090	0.320683
123	0x3e9cd7bb	0.3063334
124	0xbcd449d8	-0.025914118
125	0x3eb36e7d	0.35045233
126	0x3ed84bc4	0.42245305
127	0x3e500fda	0.20318547
128	0x3e0c8bbb	0.13725178
129	0xbeb4f3f8	-0.35342383
130	0x3e919c12	0.28439385
131	0x3ec81f09	0.39086178
132	0x3eb71207	0.3575594
133	0x3e8c68ed	0.27423802
134	0xbe7dd9c8	-0.24790108
135	0x3e8117d4	0.25213492
136	0x3c9e4ff3	0.019325232
137	0xbe8f440b	-0.279816
138	0xbd911191	-0.07083429
139	0x3e057c35	0.13035662
140	0xbdc09ce7	-0.09404927
141	0x3e33f3d9	0.17573489
142	0x3eb1a64a	0.3469718
143	0x3ece2006	0.40258807
144	0xbc3210b4	-0.01086824
145	0xbec1d162	-0.3785506
146	0xbda19ece	-0.07891618
147	0xbe651a63	-0.22373347
148	0xbe8e4aac	-0.27791345
149	0x3edb6287	0.42848608
150	0x3da2f619	0.07957096
151	0x3e1118ae	0.14169571
152	0xbec2c78e	-0.38042873
153	0x3e9f4deb	0.31114134
154	0x3dbbd452	0.09171356
155	0x3e33a91c	0.17544979
156	0xbdd66333	-0.104681395
157	0xbd93cba4	-0.07216576
158	0x3eca4deb	0.39512572
159	0x3ed1f2c9	0.41005543
160	0x3e35e8a1	0.17764522
161	0x3eaaa21b	0.33326802
162	0xbe48694f	-0.19571422
163	0x3c42a5e1	0.011880369
164	0xbec1879a	-0.37798768
165	0xbdaad068	-0.083405316
166	0x3df1f07c	0.11813447
167	0x3ee140a5	0.43994632
168	0xbe8c19d8	-0.27363467
169	0x3e984c3a	0.29745656
170	0xbed317df	-0.4122915
171	0x3ee0e88b	0.43927416
172	0x3ece7fc3	0.4033185
173	0x3ddba4a4	0.10724762
174	0x3e5d6938	0.21622169
175	0x3e5aa95d	0.2135367
176	0xbecd34ba	-0.4007929
177	0xbc748ec6	-0.014926618
178	0xbec735a5	-0.38908115
179	0xbea7ca74	-0.32771647
180	0x3dfb30c2	0.12265159
181	0x3ed5c2c6	0.41750163
182	0x3eccb853	0.39984378
183	0x3dd60f26	0.10452108
184	0xbdad99c4	-0.08476594
185	0xbe84ca87	-0.25935766
186	0x3eb72647	0.3577139
187	0xbd873d35	-0.06603471
188	0x3ec5f033	0.3865982
189	0x3eaaa2e7	0.3332741
190	0x3bbafd4c	0.005706465
191	0x3e8c755f	0.27433297
192	0x3e1bd350	0.15217328
193	0xbe385801	-0.18002321
194	0x3e041d57	0.12901817
195	0xbe1b5317	-0.15168415
196	0x3eaea291	0.34108403
197	0x3cd0f794	0.02550868
198	0xbea19a7c	-0.31563175
199	0xbeb8b5e4	-0.36076272
200	0x3de805a7	0.11329203
201	0xbccdcc8e	-0.025121953
202	0x3e3bf112	0.1835368
203	0xbe9853aa	-0.2975133
204	0x3de9adf9	0.11410136
205	0x3d36ed86	0.044660114
206	0xbe8d363b	-0.27580437
207	0x3cfd51a9	0.030922728
208	0x3e36bac7	0.17844687
209	0x3c7970f5	0.015224685
210	0x3e896c1d	0.26840296
211	0xbecba7c8	-0.39776444
212	0xbd34e155	-0.044160206
213	0x3e336208	0.17517865
214	0x3ce9cc62	0.02853984
215	0xbee1cc1e	-0.44101042
216	0xbe9fb3fd	-0.31192008
217	0xbed2f9e0	-0.41206264
218	0x3e1f56db	0.15560476
219	0xbdee5d58	-0.11638898
220	0xbea21336	-0.31655282
221	0x3ec6a970	0.38801146
222	0x3ecc9b55	0.3996226
223	0x3df98c04	0.12184909
224	0xbe01fdeb	-0.12694518
225	0x3e06780e	0.13131735
226	0x3ee47a85	0.44624725
227	0xbead4425	-0.33841053
228	0xbea1d68d	-0.31609002
229	0xbd291eb1	-0.041289035
230	0xbbea5e9f	-0.007152393
231	0x3e9d1a5a	0.30684167
232	0xbea78c49	-0.32724217
233	0xbd56f1c6	-0.052476667
234	0x3e005eeb	0.12536208
235	0xbe712e4f	-0.23552822
236	0xbdb25b07	-0.08708768
237	0x3ec14c04	0.37753308
238	0xbe9ae068	-0.30249333
239	0x3c4ddac1	0.012564362
240	0x3d24c74f	0.040229138
241	0xbdb6d034	-0.0892643
242	0xbe116471	-0.14198472
243	0x3e848e3f	0.25889775
244	0xbe381fdd	-0.17980905
245	0xbe8528db	-0.26007733
246	0xbe0d690f	-0.13809608
247	0x3e5b136f	0.21394132
248	0xbe9e79dc	-0.30952346
249	0x3e572ae1	0.21012451
250	0xbe9ada6e	-0.30244774
251	0x3e18d2d5	0.14924176
252	0x3c9144d4	0.017733015
253	0x3df23a0d	0.118274786
254	0x3e386174	0.18005925
255	0x3eb2f51d	0.34952632

pre_net1.1.weight f4 [512]
0	0x3f800000	1.0
1	0x3f800000	1.0
2	0x3f800000	1.0
3	0x3f800000	1.0
4	0x3f800000	1.0
5	0x3f800000	1.0
6	0x3f800000	1.0
7	0x3f800000	1.0
8	0x3f800000	1.0
9	0x3f800000	1.0
10	0x3f800000	1.0
11	0x3f800000	1.0
12	0x3f800000	1.0
13	0x3f800000	1.0
14	0x3f800000	1.0
15	0x3f800000	1.0
16	0x3f800000	1.0
17	0x3f800000	1.0
18	0x3f800000	1.0
19	0x3f800000	1.0
20	0x3f800000	1.0
21	0x3f800000	1.0
22	0x3f800000	1.0
23	0x3f800000	1.0
24	0x3f800000	1.0
25	0x3f800000	1.0
26	0x3f800000	1.0
27	0x3f800000	1.0
28	0x3f800000	1.0
29	0x3f800000	1.0
30	0x3f800000	1.0
31	0x3f800000	1.0
32	0x3f800000	1.0
33	0x3f800000	1.0
34	0x3f800000	1.0
35	0x3f800000	1.0
36	0x3f800000	1.0
37	0x3f800000	1.0
38	0x3f800000	1.0
39	0x3f800000	1.0
40	0x3f800000	1.0
41	0x3f800000	1.0
42	0x3f800000	1.0
43	0x3f800000	1.0
44	0x3f800000	1.0
45	0x3f800000	1.0
46	0x3f800000	1.0
47	0x3f800000	1.0
48	0x3f800000	1.0
49	0x3f800000	1.0
50	0x3f800000	1.0
51	0x3f800000	1.0
52	0x3f800000	1.0
53	0x3f800000	1.0
54	0x3f800000	1.0
55	0x3f800000	1.0
56	0x3f800000	1.0
57	0x3f800000	1.0
58	0x3f800000	1.0
59	0x3f800000	1.0
60	0x3f800000	1.0
61	0x3f800000	1.0
62	0x3f800000	1.0
63	0x3f800000	1.0
64	0x3f800000	1.0
65	0x3f800000	1.0
66	0x3f800000	1.0
67	0x3f800000	1.0
68	0x3f800000	1.0
69	0x3f800000	1.0
70	0x3f800000	1.0
71	0x3f800000	1.0
72	0x3f800000	1.0
73	0x3f800000	1.0
74	0x3f800000	1.0
75	0x3f800000	1.0
76	0x3f800000	1.0
77	0x3f800000	1.0
78	0x3f800000	1.0
79	0x3f800000	1.0
80	0x3f800000	1.0
81	0x3f800000	1.0
82	0x3f800000	1.0
83	0x3f800000	1.0
84	0x3f800000	1.0
85	0x3f800000	1.0
86	0x3f800000	1.0
87	0x3f800000	1.0
88	0x3f800000	1.0
89	0x3f800000	1.0
90	0x3f800000	1.0
91	0x3f800000	1.0
92	0x3f800000	1.0
93	0x3f800000	1.0
94	0x3f800000	1.0
95	0x3f800000	1.0
96	0x3f800000	1.0
97	0x3f800000	1.0
98	0x3f800000	1.0
99	0x3f800000	1.0
100	0x3f800000	1.0
101	0x3f800000	1.0
102	0x3f800000	1.0
103	0x3f800000	1.0
104	0x3f800000	1.0
105	0x3f800000	1.0
106	0x3f800000	1.0
107	0x3f800000	1.0
108	0x3f800000	1.0
109	0x3f800000	1.0
110	0x3f800000	1.0
111	0x3f800000	1.0
112	0x3f800000	1.0
113	0x3f800000	1.0
114	0x3f800000	1.0
115	0x3f800000	1.0
116	0x3f800000	1.0
117	0x3f800000	1.0
118	0x3f800000	1.0
119	0x3f800000	1.0
120	0x3f800000	1.0
121	0x3f800000	1.0
122	0x3f800000	1.0
123	0x3f800000	1.0
124	0x3f800000	1.0
125	0x3f800000	1.0
126	0x3f800000	1.0
127	0x3f800000	1.0
128	0x3f800000	1.0
129	0x3f800000	1.0
130	0x3f800000	1.0
131	0x3f800000	1.0
132	0x3f800000	1.0
133	0x3f800000	1.0
134	0x3f800000	1.0
135	0x3f800000	1.0
136	0x3f800000	1.0
137	0x3f800000	1.0
138	0x3f800000	1.0
139	0x3f800000	1.0
140	0x3f800000	1.0
141	0x3f800000	1.0
142	0x3f800000	1.0
143	0x3f800000	1.0
144	0x3f800000	1.0
145	0x3f800000	1.0
146	0x3f800000	1.0
147	0x3f800000	1.0
148	0x3f800000	1.0
149	0x3f800000	1.0
150	0x3f800000	1.0
151	0x3f800000	1.0
152	0x3f800000	1.0
153	0x3f800000	1.0
154	0x3f800000	1.0
155	0x3f800000	1.0
156	0x3f800000	1.0
157	0x3f800000	1.0
158	0x3f800000	1.0
159	0x3f800000	1.0
160	0x3f800000	1.0
161	0x3f800000	1.0
162	0x3f800000	1.0
163	0x3f800000	1.0
164	0x3f800000	1.0
165	0x3f800000	1.0
166	0x3f800000	1.0
167	0x3f800000	1.0
168	0x3f800000	1.0
169	0x3f800000	1.0
170	0x3f800000	1.0
171	0x3f800000	1.0
172	0x3f800000	1.0
173	0x3f800000	1.0
174	0x3f800000	1.0
175	0x3f800000	1.0
176	0x3f800000	1.0
177	0x3f800000	1.0
178	0x3f800000	1.0
179	0x3f800000	1.0
180	0x3f800000	1.0
181	0x3f800000	1.0
182	0x3f800000	1.0
183	0x3f800000	1.0
184	0x3f800000	1.0
185	0x3f800000	1.0
186	0x3f800000	1.0
187	0x3f800000	1.0
188	0x3f800000	1.0
189	0x3f800000	1.0
190	0x3f800000	1.0
191	0x3f800000	1.0
192	0x3f800000	1.0
193	0x3f800000	1.0
194	0x3f800000	1.0
195	0x3f800000	1.0
196	0x3f800000	1.0
197	0x3f800000	1.0
198	0x3f800000	1.0
199	0x3f800000	1.0
200	0x3f800000	1.0
201	0x3f800000	1.0
202	0x3f800000	1.0
203	0x3f800000	1.0
204	0x3f800000	1.0
205	0x3f800000	1.0
206	0x3f800000	1.0
207	0x3f800000	1.0
208	0x3f800000	1.0
209	0x3f800000	1.0
210	0x3f800000	1.0
211	0x3f800000	1.0
212	0x3f800000	1.0
213	0x3f800000	1.0
214	0x3f800000	1.0
215	0x3f800000	1.0
216	0x3f800000	1.0
217	0x3f800000	1.0
218	0x3f800000	1.0
219	0x3f800000	1.0
220	0x3f800000	1.0
221	0x3f800000	1.0
222	0x3f800000	1.0
223	0x3f800000	1.0
224	0x3f800000	1.0
225	0x3f800000	1.0
226	0x3f800000	1.0
227	0x3f800000	1.0
228	0x3f800000	1.0
229	0x3f800000	1.0
230	0x3f800000	1.0
231	0x3f800000	1.0
232	0x3f800000	1.0
233	0x3f800000	1.0
234	0x3f800000	1.0
235	0x3f800000	1.0
236	0x3f800000	1.0
237	0x3f800000	1.0
238	0x3f800000	1.0
239	0x3f800000	1.0
240	0x3f800000	1.0
241	0x3f800000	1.0
242	0x3f800000	1.0
243	0x3f800000	1.0
244	0x3f800000	1.0
245	0x3f800000	1.0
246	0x3f800000	1.0
247	0x3f800000	1.0
248	0x3f800000	1.0
249	0x3f800000	1.0
250	0x3f800000	1.0
251	0x3f800000	1.0
252	0x3f800000	1.0
253	0x3f800000	1.0
254	0x3f800000	1.0
255	0x3f800000	1.0

pre_net1.1.bias f4 [512]
0	0x00000000	0.0
1	0x00000000	0.0
2	0x00000000	0.0
3	0x00000000	0.0
4	0x00000000	0.0
5	0x00000000	0.0
6	0x00000000	0.0
7	0x00000000	0.0
8	0x00000000	0.0
9	0x00000000	0.0
10	0x00000000	0.0
11	0x00000000	0.0
12	0x00000000	0.0
13	0x00000000	0.0
14	0x00000000	0.0
15	0x00000000	0.0
16	0x00000000	0.0
17	0x00000000	0.0
18	0x00000000	0.0
19	0x00000000	0.0
20	0x00000000	0.0
21	0x00000000	0.0
22	0x00000000	0.0
23	0x00000000	0.0
24	0x00000000	0.0
25	0x00000000	0.0
26	0x00000000	0.0
27	0x00000000	0.0
28	0x00000000	0.0
29	0x00000000	0.0
30	0x00000000	0.0
31	0x00000000	0.0
32	0x00000000	0.0
33	0x00000000	0.0
34	0x00000000	0.0
35	0x00000000	0.0
36	0x00000000	0.0
37	0x00000000	0.0
38	0x00000000	0.0
39	0x00000000	0.0
40	0x00000000	0.0
41	0x00000000	0.0
42	0x00000000	0.0
43	0x00000000	0.0
44	0x00000000	0.0
45	0x00000000	0.0
46	0x00000000	0.0
47	0x00000000	0.0
48	0x00000000	0.0
49	0x00000000	0.0
50	0x00000000	0.0
51	0x00000000	0.0
52	0x00000000	0.0
53	0x00000000	0.0
54	0x00000000	0.0
55	0x00000000	0.0
56	0x00000000	0.0
57	0x00000000	0.0
58	0x00000000	0.0
59	0x00000000	0.0
60	0x00000000	0.0
61	0x00000000	0.0
62	0x00000000	0.0
63	0x00000000	0.0
64	0x00000000	0.0
65	0x00000000	0.0
66	0x00000000	0.0
67	0x00000000	0.0
68	0x00000000	0.0
69	0x00000000	0.0
70	0x00000000	0.0
71	0x00000000	0.0
72	0x00000000	0.0
73	0x00000000	0.0
74	0x00000000	0.0
75	0x00000000	0.0
76	0x00000000	0.0
77	0x00000000	0.0
78	0x00000000	0.0
79	0x00000000	0.0
80	0x00000000	0.0
81	0x00000000	0.0
82	0x00000000	0.0
83	0x00000000	0.0
84	0x00000000	0.0
85	0x00000000	0.0
86	0x00000000	0.0
87	0x00000000	0.0
88	0x00000000	0.0
89	0x00000000	0.0
90	0x00000000	0.0
91	0x00000000	0.0
92	0x00000000	0.0
93	0x00000000	0.0
94	0x00000000	0.0
95	0x00000000	0.0
96	0x00000000	0.0
97	0x00000000	0.0
98	0x00000000	0.0
99	0x00000000	0.0
100	0x00000000	0.0
101	0x00000000	0.0
102	0x00000000	0.0
103	0x00000000	0.0
104	0x00000000	0.0
105	0x00000000	0.0
106	0x00000000	0.0
107	0x00000000	0.0
108	0x00000000	0.0
109	0x00000000	0.0
110	0x00000000	0.0
111	0x00000000	0.0
112	0x00000000	0.0
113	0x00000000	0.0
114	0x00000000	0.0
115	0x00000000	0.0
116	0x00000000	0.0
117	0x00000000	0.0
118	0x00000000	0.0
119	0x00000000	0.0
120	0x00000000	0.0
121	0x00000000	0.0
122	0x00000000	0.0
123	0x00000000	0.0
124	0x00000000	0.0
125	0x00000000	0.0
126	0x00000000	0.0
127	0x00000000	0.0
128	0x00000000	0.0
129	0x00000000	0.0
130	0x00000000	0.0
131	0x00000000	0.0
132	0x00000000	0.0
133	0x00000000	0.0
134	0x00000000	0.0
135	0x00000000	0.0
136	0x00000000	0.0
137	0x00000000	0.0
138	0x00000000	0.0
139	0x00000000	0.0
140	0x00000000	0.0
141	0x00000000	0.0
142	0x00000000	0.0
143	0x00000000	0.0
144	0x00000000	0.0
145	0x00000000	0.0
146	0x00000000	0.0
147	0x00000000	0.0
148	0x00000000	0.0
149	0x00000000	0.0
150	0x00000000	0.0
151	0x00000000	0.0
152	0x00000000	0.0
153	0x00000000	0.0
154	0x00000000	0.0
155	0x00000000	0.0
156	0x00000000	0.0
157	0x00000000	0.0
158	0x00000000	0.0
159	0x00000000	0.0
160	0x00000000	0.0
161	0x00000000	0.0
162	0x00000000	0.0
163	0x00000000	0.0
164	0x00000000	0.0
165	0x00000000	0.0
166	0x00000000	0.0
167	0x00000000	0.0
168	0x00000000	0.0
169	0x00000000	0.0
170	0x00000000	0.0
171	0x00000000	0.0
172	0x00000000	0.0
173	0x00000000	0.0
174	0x00000000	0.0
175	0x00000000	0.0
176	0x00000000	0.0
177	0x00000000	0.0
178	0x00000000	0.0
179	0x00000000	0.0
180	0x00000000	0.0
181	0x00000000	0.0
182	0x00000000	0.0
183	0x00000000	0.0
184	0x00000000	0.0
185	0x00000000	0.0
186	0x00000000	0.0
187	0x00000000	0.0
188	0x00000000	0.0
189	0x00000000	0.0
190	0x00000000	0.0
191	0x00000000	0.0
192	0x00000000	0.0
193	0x00000000	0.0
194	0x00000000	0.0
195	0x00000000	0.0
196	0x00000000	0.0
197	0x00000000	0.0
198	0x00000000	0.0
199	0x00000000	0.0
200	0x00000000	0.0
201	0x00000000	0.0
202	0x00000000	0.0
203	0x00000000	0.0
204	0x00000000	0.0
205	0x00000000	0.0
206	0x00000000	0.0
207	0x00000000	0.0
208	0x00000000	0.0
209	0x00000000	0.0
210	0x00000000	0.0
211	0x00000000	0.0
212	0x00000000	0.0
213	0x00000000	0.0
214	0x00000000	0.0
215	0x00000000	0.0
216	0x00000000	0.0
217	0x00000000	0.0
218	0x00000000	0.0
219	0x00000000	0.0
220	0x00000000	0.0
221	0x00000000	0.0
222	0x00000000	0.0
223	0x00000000	0.0
224	0x00000000	0.0
225	0x00000000	0.0
226	0x00000000	0.0
227	0x00000000	0.0
228	0x00000000	0.0
229	0x00000000	0.0
230	0x00000000	0.0
231	0x00000000	0.0
232	0x00000000	0.0
233	0x00000000	0.0
234	0x00000000	0.0
235	0x00000000	0.0
236	0x00000000	0.0
237	0x00000000	0.0
238	0x00000000	0.0
239	0x00000000	0.0
240	0x00000000	0.0
241	0x00000000	0.0
242	0x00000000	0.0
243	0x00000000	0.0
244	0x00000000	0.0
245	0x00000000	0.0
246	0x00000000	0.0
247	0x00000000	0.0
248	0x00000000	0.0
249	0x00000000	0.0
250	0x00000000	0.0
251	0x00000000	0.0
252	0x00000000	0.0
253	0x00000000	0.0
254	0x00000000	0.0
255	0x00000000	0.0

pre_net2.0.weight f4 [256, 512]
0	0xbd06d14a	-0.032914437
1	0x3c93987e	0.01801705
2	0x3cdfb54c	0.027308129
3	0x3d245f24	0.040129796
4	0xbcb80a72	-0.022465918
5	0x3c59a75f	0.013284533
6	0xbcacd524	-0.021097727
7	0x3b8443f1	0.0040364196
8	0x3ce05d36	0.027388196
9	0x3d1ddb9c	0.038539514
10	0xbcf73d75	-0.030180672
11	0x3d05f5af	0.032705005
12	0xbca4d68a	-0.020121831
13	0xbd2c5cba	-0.04208062
14	0x3c2e876d	0.010652405
15	0x3c133e2f	0.008986994
16	0xbc7822c3	-0.015145007
17	0xbd229a4a	-0.039697923
18	0x3d2c59dc	0.042077884
19	0xba5e41b3	-0.0008478418
20	0x3cb499c7	0.022045983
21	0xbca287f4	-0.019840218
22	0x3d21cd07	0.03950217
23	0x3d11d6f6	0.035605393
24	0x3ca15fee	0.019699063
25	0xbc0d7175	-0.008633007
26	0xbae696b0	-0.0017592516
27	0x3c6b6d46	0.014369315
28	0x3cb3c1d8	0.021943018
29	0x3bc7825e	0.006088539
30	0x3d1f1f8c	0.038848445
31	0x3b8eeac4	0.0043614823
32	0xbc39d3e4	-0.011342023
33	0xbd16f904	-0.036858574
34	0x3cb782d9	0.02240126
35	0xbd277ad7	-0.040888634
36	0x3d0f12c1	0.034929994
37	0x3cba6692	0.022753987
38	0x3d0248f2	0.031807847
39	0x3c63bf24	0.013900552
40	0x3cc371b1	0.023857923
41	0xbb2fedee	-0.0026844698
42	0x3cfe8dbf	0.03107345
43	0x3bac97be	0.0052671125
44	0x3cc2679a	0.023731042
45	0xbc9ed9d8	-0.019390985
46	0xbd2713db	-0.04079042
47	0xbbde0691	-0.006775685
48	0x3ac2f4a8	0.0014873939
49	0xbcf7caed	-0.03024813
50	0xba7f9fe7	-0.00097513053
51	0x3d2d288a	0.04227499
52	0xbd1292c4	-0.035784498
53	0xbc99907c	-0.018745653
54	0xbcfc6f4b	-0.030814787
55	0x3a188012	0.0005817424
56	0x3cd9a686	0.026568662
57	0xbce1eb58	-0.027578041
58	0xbd302185	-0.043000717
59	0x3d261383	0.04054595
60	0x3a9f32fc	0.0012145932
61	0xbb9a70fe	-0.0047131767
62	0x3d07841a	0.033084966
63	0xbd11812b	-0.035523575
64	0x3d2f9b4c	0.042872712
65	0x3c9636f1	0.018336745
66	0xbd03ed8d	-0.032208968
67	0x3c01e889	0.007928976
68	0xbc4a0915	-0.012331267
69	0xbc57d39f	-0.013173013
70	0xbb110660	-0.0022129044
71	0xbcedf12c	-0.029045664
72	0xbd26ee6f	-0.04075473
73	0x3d29ccfe	0.04145526
74	0x3cc7e680	0.024401903
75	0x3d0f065d	0.034918178
76	0x3ba37d2a	0.004989286
77	0xbcbb4d02	-0.022863869
78	0x3cba4c7c	0.022741549
79	0x3cdeadec	0.027182542
80	0xbd08cf86	-0.033401035
81	0xbd1c18ad	-0.03810947
82	0x3d126d65	0.035748858
83	0xbd34ca81	-0.044138435
84	0xbd13798d	-0.03600459
85	0x3d19fe72	0.037596174
86	0xbcd6a04c	-0.026199482
87	0xbb01909c	-0.0019770032
88	0x3d27ac22	0.040935643
89	0x3d1ad4d9	0.037800644
90	0x3b7abe01	0.0038260224
91	0xbd0a049a	-0.033695795
92	0xbc886861	-0.016651334
93	0xbd1235dd	-0.0356959
94	0x3cb75afc	0.022382252
95	0x3cd1204a	0.025528092
96	0xbbcd2dec	-0.006261578
97	0x3d257615	0.040395815
98	0xbcf8d52f	-0.030375091
99	0x3c334302	0.010941269
100	0x3a9eea27	0.0012124226
101	0x3ba8a04b	0.0051460615
102	0xbce4728f	-0.027886657
103	0xbcbdd647	-0.023173464
104	0x3c3b94f8	0.011449091
105	0xbc2b503e	-0.010456143
106	0x3d114935	0.035470206
107	0x3cb64fb3	0.0222548
108	0xbc9adb77	-0.018903477
109	0xbc4eb061	-0.012615294
110	0xbc8f1e21	-0.017470421
111	0xbcd60677	-0.02612613
112	0xbc4f3179	-0.012646073
113	0x3d0d71fa	0.034532525
114	0xbd094c76	-0.033520184
115	0xbd11edc0	-0.035627127
116	0x3c5f2196	0.013618847
117	0x3c9231ab	0.01784595
118	0x3c730111	0.014831797
119	0x3cb3ec2c	0.021963201
120	0xbd34dfce	-0.04415875
121	0xbc1493d3	-0.009068447
122	0xbcafe38b	-0.021470806
123	0x3d2cb582	0.042165287
124	0x3cd6a5a2	0.026202027
125	0x3d0118e1	0.031517867
126	0xbcc76612	-0.024340663
127	0xbcbfe57b	-0.023424855
128	0x3c562718	0.013070844
129	0xbae674bf	-0.00175824
130	0xbd0a5344	-0.033770815
131	0xbcabcd61	-0.020971956
132	0xbce8976b	-0.028392514
133	0x3c8643fc	0.01638984
134	0xbc53b980	-0.012922645
135	0x3bd65097	0.006540369
136	0xbd1a3601	-0.03764916
137	0xbc127223	-0.008938345
138	0xbc879b02	-0.016553406
139	0xbbb68a36	-0.0055706752
140	0xbc813a93	-0.015775
141	0xbb83cb99	-0.0040220735
142	0x3d1e5ca3	0.038662564
143	0xbd034d85	-0.03205635
144	0x3c88a43e	0.01667988
145	0x3cbc382b	0.022976002
146	0xbccdf2ad	-0.02514013
147	0x3c3ebbde	0.011641471
148	0x3d1b7f10	0.037962973
149	0x3cc92499	0.024553584
150	0x3cd3cbf1	0.025854083
151	0xbccc8bb0	-0.024968952
152	0xbca2db0f	-0.019879846
153	0x3d1ac51c	0.037785634
154	0x3cbee3e8	0.023302034
155	0xbcb62910	-0.022236377
156	0xbc985dc4	-0.018599398
157	0x3bacc7bd	0.005272834
158	0xbd21aeb6	-0.039473258
159	0xbc594d2c	-0.013263028
160	0x3c9d220e	0.019181278
161	0x3bdd6263	0.0067561134
162	0x3ae653de	0.0017572602
163	0xbc42ac2e	-0.011881871
164	0x3d0b35ae	0.03398674
165	0x3d2dcfb4	0.04243441
166	0x3d2c7109	0.042099986
167	0xbba51508	-0.0050379075
168	0xbd1cbd53	-0.03826649
169	0xbc943fa3	-0.01809675
170	0x3b39b434	0.002833617
171	0x3c9c2423	0.0190602
172	0xbc91be75	-0.017791012
173	0x3c9f652a	0.019457418
174	0x3c03e831	0.008050964
175	0xbcb2cd98	-0.02182655
176	0x3d0cade0	0.034345508
177	0x3cc34c7b	0.02384018
178	0x3bf5d4fd	0.007502197
179	0x3cb03cf0	0.021513432
180	0xbd2cc494	-0.04217966
181	0xbcf123ae	-0.029435959
182	0x3bf18247	0.0073702666
183	0xbca5e35a	-0.020250011
184	0x3c8917f1	0.016735049
185	0x3d2a8723	0.041632783
186	0x3b27b8ac	0.002559225
187	0x3ced258f	0.028948573
188	0x3c441730	0.011968419
189	0x3d0ac088	0.03387502
190	0x3d2c0722	0.04199899
191	0x3bbed481	0.0058236723
192	0xbcfb49b1	-0.030674787
193	0xbd1e5a11	-0.038660113
194	0x3d168674	0.03674932
195	0x3d337249	0.043810163
196	0xbcbe1c91	-0.02320698
197	0xbcb2e8f4	-0.021839596
198	0x3c0d7f4a	0.008636305
199	0x3d277cf2	0.04089064
200	0x3bc8d4d9	0.006128889
201	0xbc469bdf	-0.0121221235
202	0x3c9b172c	0.018931948
203	0x3cc67af8	0.024228558
204	0xbb165e02	-0.0022944217
205	0x3d2c531b	0.042071443
206	0xbcf2587a	-0.029583205
207	0x3d05089f	0.032478925
208	0x3cffff65	0.031249711
209	0x3c1362bb	0.008995707
210	0xbcac1a2d	-0.021008575
211	0xbc787896	-0.015165469
212	0x3d334720	0.043769002
213	0xbc9a0323	-0.018800324
214	0xbd2e7da4	-0.04260029
215	0x3a835c3b	0.0010021994
216	0x3c9d004b	0.019165179
217	0xbce048f0	-0.02737853
218	0xbaa1d891	-0.0012347867
219	0x3d2778bc	0.040886626
220	0xbd31cfd8	-0.043411106
221	0x3c5bfb44	0.013426606
222	0x3c7d5e8d	0.015464437
223	0xbd1d6534	-0.038426593
224	0xbc4b894e	-0.012422873
225	0xbd1b1d2f	-0.03786963
226	0x3d2fffb7	0.042968478
227	0xbcc6d610	-0.024271995
228	0x3d29a91c	0.04142104
229	0x3b9966cf	0.004681445
230	0xbc1dfc96	-0.009642741
231	0x3d080a50	0.03321296
232	0x3c949f62	0.018142406
233	0x3b690ca2	0.0035560508
234	0x3d1241ef	0.03570741
235	0x3ad2b5d1	0.0016075914
236	0xbcddc2a4	-0.027070351
237	0x3cfe82f0	0.031068295
238	0x3ca7f1b4	0.020500995
239	0xbce3fab1	-0.0278295
240	0xbc38c5e8	-0.011277653
241	0x3d27267d	0.04080819
242	0x3c3a541e	0.011372594
243	0x3c4835dc	0.012219872
244	0xbc138726	-0.00900439
245	0x3c04679b	0.008081342
246	0xbc193d7d	-0.009353039
247	0x3ce2f98a	0.02770688
248	0xbd22948b	-0.039692443
249	0xbc3bbd62	-0.011458727
250	0x3bc56e39	0.0060251025
251	0xbae85266	-0.0017724752
252	0x3cbcdf71	0.023055764
253	0xbc7f1911	-0.015569941
254	0x3cb8df7f	0.022567509
255	0x3c9b3778	0.018947348

pre_net2.0.bias f4 [256]
0	0x3d326294	0.043551043
1	0xbcd3ff8a	-0.025878686
2	0xbccfecd2	-0.02538148
3	0xbc8a42a3	-0.016877478
4	0xbc19dd02	-0.009391071
5	0xbcf395d0	-0.029734522
6	0xbc520cbb	-0.012820418
7	0x3d012e73	0.031538438
8	0x3b6ecb3d	0.0036437057
9	0xbd1c016c	-0.038087294
10	0x3c8d3716	0.017238181
11	0xbb7dfb9e	-0.0038754712
12	0x3d01a909	0.031655345
13	0x39800f97	0.00024425678
14	0xbcbdc5a9	-0.02316554
15	0xbd0e5203	-0.03474618
16	0xbd2ceba4	-0.042216912
17	0x3c87f886	0.016597997
18	0x3ba97f9b	0.0051726825
19	0xbcff46da	-0.031161714
20	0x3cbd575d	0.023112947
21	0x3cc7a0f3	0.024368739
22	0x3cfd356b	0.03090926
23	0xbd2104fa	-0.039311387
24	0xbcb5c981	-0.022190811
25	0xbd18ea04	-0.03733255
26	0x3ccb6577	0.024828656
27	0x3bbb47bd	0.005715339
28	0xbd23f281	-0.04002619
29	0xbbfe5f46	-0.0077628223
30	0x3b9c7440	0.0047746003
31	0x391c0164	0.00014877837
32	0x3a96c2f3	0.0011502191
33	0x3cca2b6c	0.024678908
34	0x3c98ec37	0.018667324
35	0xbc1982c9	-0.0093695605
36	0x3d09eec2	0.033674963
37	0x3ba7f198	0.0051252358
38	0x3ca729df	0.020405708
39	0x3cd4d283	0.025979286
40	0x3d2067b3	0.039161395
41	0xbc857736	-0.016292196
42	0x3c7b7733	0.0153482435
43	0xbcfd1b55	-0.030896822
44	0xbd0461a1	-0.03231967
45	0xbce443cd	-0.027864361
46	0x3c9aed14	0.018911876
47	0xbc34ab64	-0.011027191
48	0xbd172d57	-0.036908474
49	0x3d08142f	0.033222374
50	0x3cfce6c3	0.030871755
51	0xbd0828c0	-0.033241987
52	0x3c30a090	0.010780469
53	0x39db1ca9	0.00041792289
54	0xbd07bef7	-0.033141103
55	0x3cf4128d	0.029794002
56	0x3d11f6e7	0.035635855
57	0x3bef3257	0.007299702
58	0xbb9458ac	-0.004527172
59	0xbc87f69a	-0.016597081
60	0xbc7d34a8	-0.015454449
61	0xbd192467	-0.03738823
62	0xbcbbc0d5	-0.022919098
63	0x3d26a37c	0.040683255
64	0xbd348cf9	-0.044079755
65	0x3cb2afff	0.021812437
66	0x3bd83c08	0.006598953
67	0xbbb50fdd	-0.0055255727
68	0xbd0417be	-0.032249205
69	0xbce8929f	-0.028390227
70	0x3d2d35dc	0.042287692
71	0x3d25c84a	0.040474214
72	0x3cb00fc2	0.021491889
73	0xbd085265	-0.033281703
74	0xbc970217	-0.018433614
75	0x3cd5ceba	0.026099551
76	0xbc7f936b	-0.015599112
77	0x3d015387	0.0315738
78	0x3c5806a5	0.013185178
79	0x3c80d7ae	0.015727844
80	0x3b831e50	0.0040014163
81	0xbd1dd09a	-0.038529016
82	0xbd1ca449	-0.038242612
83	0xb9fd6764	-0.00048332952
84	0x3cafa4c7	0.021440877
85	0x3c96b641	0.018397452
86	0xbd1ed5d2	-0.038778134
87	0x3d048069	0.032349024
88	0xbc333226	-0.010937249
89	0x3c3c2bb1	0.011485026
90	0x3cd07592	0.025446687
91	0xbc05b75f	-0.008161395
92	0x3d2e21f7	0.04251286
93	0x3d0b5b2f	0.034022506
94	0x3d155de3	0.03646649
95	0x3d01b227	0.03166404
96	0x3d1952b8	0.037432402
97	0x3c3c0cd8	0.011477672
98	0x3d0e7b0b	0.03478531
99	0xbccfccb1	-0.02536616
100	0xbc1b0b13	-0.0094630895
101	0x3ce326b1	0.02772841
102	0x3c5702ac	0.013123196
103	0x3c648f5d	0.013950196
104	0x3d03a01a	0.032135107
105	0xbd2d617c	-0.042329296
106	0x3c42015e	0.011841146
107	0xbc341543	-0.010991397
108	0x3d22fd2b	0.03979222
109	0xbd24d47f	-0.040241715
110	0x3d049f25	0.032378335
111	0x3a8ea62d	0.0010883264
112	0x3d05cf5b	0.032668453
113	0xbcc7a326	-0.024369787
114	0xb73055b2	-1.051037e-05
115	0xbcb79a37	-0.022412403
116	0x3c7f4bb1	0.015582011
117	0x3ceaee0f	0.028677968
118	0x3ca03d5d	0.01956051
119	0xbbde588c	-0.006785458
120	0xbb09d693	-0.0021032437
121	0xbcd21ce2	-0.025648538
122	0x3d15e096	0.036591135
123	0xbd0f3211	-0.034959856
124	0xb9877f1f	-0.0002584392
125	0xbcf6a4cd	-0.03010788
126	0xbc50ba39	-0.012739711
127	0x3d15b28f	0.03654724
128	0xbd34f296	-0.04417666
129	0x3c8a1ffb	0.016860953
130	0xbce986da	-0.028506685
131	0xbcfd1b14	-0.0308967
132	0x3cad308b	0.021141311
133	0x3c09c901	0.0084097395
134	0xbc2fbe4f	-0.010726525
135	0x3c69b317	0.01426389
136	0xbd2d6c8b	-0.042339843
137	0xbccf31dc	-0.02529233
138	0x3c923c7c	0.017851107
139	0xbca9c043	-0.02072156
140	0xbca9061e	-0.0206328
141	0xbb991239	-0.0046713618
142	0xbcceae3a	-0.025229562
143	0x3d06ea4a	0.03293828
144	0x3d2d0b29	0.04224697
145	0x3bab76d9	0.0052326736
146	0xbd066050	-0.032806695
147	0x3c73cd1c	0.014880445
148	0xbb8739b2	-0.004126751
149	0xbcca2f0e	-0.02468064
150	0xbccf702c	-0.025322042
151	0x3c535f09	0.012901076
152	0x3c57fd13	0.013182896
153	0x3cb89dcd	0.022536183
154	0xbc70bab2	-0.014692949
155	0x3960be73	0.00021433253
156	0x3bd119d7	0.006381254
157	0x3ca60c2a	0.020269472
158	0x3bf793a9	0.0075554443
159	0x3cec992d	0.028881634
160	0x3a8f47c0	0.0010931417
161	0xbc95a57a	-0.018267382
162	0xbd0cfb03	-0.03441907
163	0xbcfa3a24	-0.030545302
164	0x3d09f1fd	0.033678044
165	0x3ce8aada	0.02840178
166	0xbbd4b2e4	-0.006491052
167	0x3cc53731	0.024074169
168	0x3d17ed5f	0.03709161
169	0x3c194f3b	0.009357269
170	0xbcd9161e	-0.026499804
171	0xbc817e4e	-0.015807297
172	0xbd06d1e7	-0.032915022
173	0x3bab5bab	0.0052294335
174	0x3b54ff4d	0.0032500804
175	0x3d1e08b2	0.03858251
176	0x3c51633f	0.01278001
177	0x3d198844	0.03748347
178	0xbc80eff1	-0.015739413
179	0xbbaa5e4d	-0.00519923
180	0xbbcf32e8	-0.006323207
181	0x3bff333b	0.0077880896
182	0xbbccbb27	-0.0062478962
183	0xbca2895b	-0.019840887
184	0xbc554dec	-0.013019066
185	0xbd0d2031	-0.03445453
186	0xbc5ef7a0	-0.013608843
187	0x3d09b7da	0.0336226
188	0xbc2589d1	-0.010103659
189	0x3d29d56a	0.041463293
190	0x3ba98094	0.0051727984
191	0x3d19385f	0.037407275
192	0xbc9dd8dd	-0.019268448
193	0x3cfce2c6	0.030869853
194	0xbabe01b3	-0.0014496356
195	0xbc895674	-0.016764857
196	0x3c0bae03	0.008525374
197	0xbc9ce196	-0.019150537
198	0xbb641f6b	-0.0034808766
199	0xbc8744e0	-0.016512334
200	0xbc417354	-0.0118072815
201	0x3c503fce	0.012710525
202	0x3cba951e	0.022776183
203	0x3c8a43da	0.016878057
204	0x3d004011	0.0313111
205	0xbb9a86de	-0.0047157845
206	0xbd2b3c6c	-0.04180567
207	0xbc1a21c6	-0.009407466
208	0x3c4788dd	0.012178627
209	0xbcabac1f	-0.020956097
210	0x3ca215ca	0.01978578
211	0xbd317a38	-0.043329448
212	0x3cfd8e91	0.03095177
213	0xbd2d5f30	-0.042327106
214	0x399aa9bd	0.00029499634
215	0xbd010824	-0.031501904
216	0xbd2c57ec	-0.042076036
217	0x3c697910	0.014250055
218	0xbd1c8969	-0.038216982
219	0x3d04ed04	0.0324526
220	0xbcb0ef78	-0.021598563
221	0xbc8dd088	-0.01731135
222	0xbd2bc732	-0.041938014
223	0x3d32e4ce	0.043675236
224	0x3d261654	0.040548638
225	0xbc0bbe74	-0.008529294
226	0x3c8852a8	0.016640976
227	0xbd22ced0	-0.039748013
228	0xbc6f9f1a	-0.014625335
229	0x3c6d49cc	0.014482927
230	0x3d24b89f	0.04021513
231	0xb8af9dd9	-8.374052e-05
232	0x3b2803a0	0.0025636926
233	0x3cd315da	0.025767256
234	0xbd03c42a	-0.0321695
235	0xbd20b1c2	-0.039232023
236	0xbcaa4c18	-0.020788237
237	0xbd0da56e	-0.034581594
238	0x3c632021	0.013862641
239	0x3cfb1634	0.030650236
240	0x3d0b4cce	0.034008794
241	0xbc85d470	-0.01633665
242	0x3cdf212e	0.027237501
243	0xba5f6014	-0.00085210917
244	0xbc50b4b9	-0.0127384
245	0xbc9b3884	-0.018947847
246	0x3c0d43ac	0.008622091
247	0xbd2d9195	-0.042375166
248	0xbd132683	-0.0359254
249	0x3cdd64f6	0.027025681
250	0xbd0b40b9	-0.03399727
251	0xbca70856	-0.020389717
252	0xbd1d2026	-0.038360737
253	0xbcd00d70	-0.025397032
254	0xbd20789f	-0.039177533
255	0x3cbfa700	0.023395061

pre_net2.1.weight f4 [256]
0	0x3f800000	1.0
1	0x3f800000	1.0
2	0x3f800000	1.0
3	0x3f800000	1.0
4	0x3f800000	1.0
5	0x3f800000	1.0
6	0x3f800000	1.0
7	0x3f800000	1.0
8	0x3f800000	1.0
9	0x3f800000	1.0
10	0x3f800000	1.0
11	0x3f800000	1.0
12	0x3f800000	1.0
13	0x3f800000	1.0
14	0x3f800000	1.0
15	0x3f800000	1.0
16	0x3f800000	1.0
17	0x3f800000	1.0
18	0x3f800000	1.0
19	0x3f800000	1.0
20	0x3f800000	1.0
21	0x3f800000	1.0
22	0x3f800000	1.0
23	0x3f800000	1.0
24	0x3f800000	1.0
25	0x3f800000	1.0
26	0x3f800000	1.0
27	0x3f800000	1.0
28	0x3f800000	1.0
29	0x3f800000	1.0
30	0x3f800000	1.0
31	0x3f800000	1.0
32	0x3f800000	1.0
33	0x3f800000	1.0
34	0x3f800000	1.0
35	0x3f800000	1.0
36	0x3f800000	1.0
37	0x3f800000	1.0
38	0x3f800000	1.0
39	0x3f800000	1.0
40	0x3f800000	1.0
41	0x3f800000	1.0
42	0x3f800000	1.0
43	0x3f800000	1.0
44	0x3f800000	1.0
45	0x3f800000	1.0
46	0x3f800000	1.0
47	0x3f800000	1.0
48	0x3f800000	1.0
49	0x3f800000	1.0
50	0x3f800000	1.0
51	0x3f800000	1.0
52	0x3f800000	1.0
53	0x3f800000	1.0
54	0x3f800000	1.0
55	0x3f800000	1.0
56	0x3f800000	1.0
57	0x3f800000	1.0
58	0x3f800000	1.0
59	0x3f800000	1.0
60	0x3f800000	1.0
61	0x3f800000	1.0
62	0x3f800000	1.0
63	0x3f800000	1.0
64	0x3f800000	1.0
65	0x3f800000	1.0
66	0x3f800000	1.0
67	0x3f800000	1.0
68	0x3f800000	1.0
69	0x3f800000	1.0
70	0x3f800000	1.0
71	0x3f800000	1.0
72	0x3f800000	1.0
73	0x3f800000	1.0
74	0x3f800000	1.0
75	0x3f800000	1.0
76	0x3f800000	1.0
77	0x3f800000	1.0
78	0x3f800000	1.0
79	0x3f800000	1.0
80	0x3f800000	1.0
81	0x3f800000	1.0
82	0x3f800000	1.0
83	0x3f800000	1.0
84	0x3f800000	1.0
85	0x3f800000	1.0
86	0x3f800000	1.0
87	0x3f800000	1.0
88	0x3f800000	1.0
89	0x3f800000	1.0
90	0x3f800000	1.0
91	0x3f800000	1.0
92	0x3f800000	1.0
93	0x3f800000	1.0
94	0x3f800000	1.0
95	0x3f800000	1.0
96	0x3f800000	1.0
97	0x3f800000	1.0
98	0x3f800000	1.0
99	0x3f800000	1.0
100	0x3f800000	1.0
101	0x3f800000	1.0
102	0x3f800000	1.0
103	0x3f800000	1.0
104	0x3f800000	1.0
105	0x3f800000	1.0
106	0x3f800000	1.0
107	0x3f800000	1.0
108	0x3f800000	1.0
109	0x3f800000	1.0
110	0x3f800000	1.0
111	0x3f800000	1.0
112	0x3f800000	1.0
113	0x3f800000	1.0
114	0x3f800000	1.0
115	0x3f800000	1.0
116	0x3f800000	1.0
117	0x3f800000	1.0
118	0x3f800000	1.0
119	0x3f800000	1.0
120	0x3f800000	1.0
121	0x3f800000	1.0
122	0x3f800000	1.0
123	0x3f800000	1.0
124	0x3f800000	1.0
125	0x3f800000	1.0
126	0x3f800000	1.0
127	0x3f800000	1.0
128	0x3f800000	1.0
129	0x3f800000	1.0
130	0x3f800000	1.0
131	0x3f800000	1.0
132	0x3f800000	1.0
133	0x3f800000	1.0
134	0x3f800000	1.0
135	0x3f800000	1.0
136	0x3f800000	1.0
137	0x3f800000	1.0
138	0x3f800000	1.0
139	0x3f800000	1.0
140	0x3f800000	1.0
141	0x3f800000	1.0
142	0x3f800000	1.0
143	0x3f800000	1.0
144	0x3f800000	1.0
145	0x3f800000	1.0
146	0x3f800000	1.0
147	0x3f800000	1.0
148	0x3f800000	1.0
149	0x3f800000	1.0
150	0x3f800000	1.0
151	0x3f800000	1.0
152	0x3f800000	1.0
153	0x3f800000	1.0
154	0x3f800000	1.0
155	0x3f800000	1.0
156	0x3f800000	1.0
157	0x3f800000	1.0
158	0x3f800000	1.0
159	0x3f800000	1.0
160	0x3f800000	1.0
161	0x3f800000	1.0
162	0x3f800000	1.0
163	0x3f800000	1.0
164	0x3f800000	1.0
165	0x3f800000	1.0
166	0x3f800000	1.0
167	0x3f800000	1.0
168	0x3f800000	1.0
169	0x3f800000	1.0
170	0x3f800000	1.0
171	0x3f800000	1.0
172	0x3f800000	1.0
173	0x3f800000	1.0
174	0x3f800000	1.0
175	0x3f800000	1.0
176	0x3f800000	1.0
177	0x3f800000	1.0
178	0x3f800000	1.0
179	0x3f800000	1.0
180	0x3f800000	1.0
181	0x3f800000	1.0
182	0x3f800000	1.0
183	0x3f800000	1.0
184	0x3f800000	1.0
185	0x3f800000	1.0
186	0x3f800000	1.0
187	0x3f800000	1.0
188	0x3f800000	1.0
189	0x3f800000	1.0
190	0x3f800000	1.0
191	0x3f800000	1.0
192	0x3f800000	1.0
193	0x3f800000	1.0
194	0x3f800000	1.0
195	0x3f800000	1.0
196	0x3f800000	1.0
197	0x3f800000	1.0
198	0x3f800000	1.0
199	0x3f800000	1.0
200	0x3f800000	1.0
201	0x3f800000	1.0
202	0x3f800000	1.0
203	0x3f800000	1.0
204	0x3f800000	1.0
205	0x3f800000	1.0
206	0x3f800000	1.0
207	0x3f800000	1.0
208	0x3f800000	1.0
209	0x3f800000	1.0
210	0x3f800000	1.0
211	0x3f800000	1.0
212	0x3f800000	1.0
213	0x3f800000	1.0
214	0x3f800000	1.0
215	0x3f800000	1.0
216	0x3f800000	1.0
217	0x3f800000	1.0
218	0x3f800000	1.0
219	0x3f800000	1.0
220	0x3f800000	1.0
221	0x3f800000	1.0
222	0x3f800000	1.0
223	0x3f800000	1.0
224	0x3f800000	1.0
225	0x3f800000	1.0
226	0x3f800000	1.0
227	0x3f800000	1.0
228	0x3f800000	1.0
229	0x3f800000	1.0
230	0x3f800000	1.0
231	0x3f800000	1.0
232	0x3f800000	1.0
233	0x3f800000	1.0
234	0x3f800000	1.0
235	0x3f800000	1.0
236	0x3f800000	1.0
237	0x3f800000	1.0
238	0x3f800000	1.0
239	0x3f800000	1.0
240	0x3f800000	1.0
241	0x3f800000	1.0
242	0x3f800000	1.0
243	0x3f800000	1.0
244	0x3f800000	1.0
245	0x3f800000	1.0
246	0x3f800000	1.0
247	0x3f800000	1.0
248	0x3f800000	1.0
249	0x3f800000	1.0
250	0x3f800000	1.0
251	0x3f800000	1.0
252	0x3f800000	1.0
253	0x3f800000	1.0
254	0x3f800000	1.0
255	0x3f800000	1.0

pre_net2.1.bias f4 [256]
0	0x00000000	0.0
1	0x00000000	0.0
2	0x00000000	0.0
3	0x00000000	0.0
4	0x00000000	0.0
5	0x00000000	0.0
6	0x00000000	0.0
7	0x00000000	0.0
8	0x00000000	0.0
9	0x00000000	0.0
10	0x00000000	0.0
11	0x00000000	0.0
12	0x00000000	0.0
13	0x00000000	0.0
14	0x00000000	0.0
15	0x00000000	0.0
16	0x00000000	0.0
17	0x00000000	0.0
18	0x00000000	0.0
19	0x00000000	0.0
20	0x00000000	0.0
21	0x00000000	0.0
22	0x00000000	0.0
23	0x00000000	0.0
24	0x00000000	0.0
25	0x00000000	0.0
26	0x00000000	0.0
27	0x00000000	0.0
28	0x00000000	0.0
29	0x00000000	0.0
30	0x00000000	0.0
31	0x00000000	0.0
32	0x00000000	0.0
33	0x00000000	0.0
34	0x00000000	0.0
35	0x00000000	0.0
36	0x00000000	0.0
37	0x00000000	0.0
38	0x00000000	0.0
39	0x00000000	0.0
40	0x00000000	0.0
41	0x00000000	0.0
42	0x00000000	0.0
43	0x00000000	0.0
44	0x00000000	0.0
45	0x00000000	0.0
46	0x00000000	0.0
47	0x00000000	0.0
48	0x00000000	0.0
49	0x00000000	0.0
50	0x00000000	0.0
51	0x00000000	0.0
52	0x00000000	0.0
53	0x00000000	0.0
54	0x00000000	0.0
55	0x00000000	0.0
56	0x00000000	0.0
57	0x00000000	0.0
58	0x00000000	0.0
59	0x00000000	0.0
60	0x00000000	0.0
61	0x00000000	0.0
62	0x00000000	0.0
63	0x00000000	0.0
64	0x00000000	0.0
65	0x00000000	0.0
66	0x00000000	0.0
67	0x00000000	0.0
68	0x00000000	0.0
69	0x00000000	0.0
70	0x00000000	0.0
71	0x00000000	0.0
72	0x00000000	0.0
73	0x00000000	0.0
74	0x00000000	0.0
75	0x00000000	0.0
76	0x00000000	0.0
77	0x00000000	0.0
78	0x00000000	0.0
79	0x00000000	0.0
80	0x00000000	0.0
81	0x00000000	0.0
82	0x00000000	0.0
83	0x00000000	0.0
84	0x00000000	0.0
85	0x00000000	0.0
86	0x00000000	0.0
87	0x00000000	0.0
88	0x00000000	0.0
89	0x00000000	0.0
90	0x00000000	0.0
91	0x00000000	0.0
92	0x00000000	0.0
93	0x00000000	0.0
94	0x00000000	0.0
95	0x00000000	0.0
96	0x00000000	0.0
97	0x00000000	0.0
98	0x00000000	0.0
99	0x00000000	0.0
100	0x00000000	0.0
101	0x00000000	0.0
102	0x00000000	0.0
103	0x00000000	0.0
104	0x00000000	0.0
105	0x00000000	0.0
106	0x00000000	0.0
107	0x00000000	0.0
108	0x00000000	0.0
109	0x00000000	0.0
110	0x00000000	0.0
111	0x00000000	0.0
112	0x00000000	0.0
113	0x00000000	0.0
114	0x00000000	0.0
115	0x00000000	0.0
116	0x00000000	0.0
117	0x00000000	0.0
118	0x00000000	0.0
119	0x00000000	0.0
120	0x00000000	0.0
121	0x00000000	0.0
122	0x00000000	0.0
123	0x00000000	0.0
124	0x00000000	0.0
125	0x00000000	0.0
126	0x00000000	0.0
127	0x00000000	0.0
128	0x00000000	0.0
129	0x00000000	0.0
130	0x00000000	0.0
131	0x00000000	0.0
132	0x00000000	0.0
133	0x00000000	0.0
134	0x00000000	0.0
135	0x00000000	0.0
136	0x00000000	0.0
137	0x00000000	0.0
138	0x00000000	0.0
139	0x00000000	0.0
140	0x00000000	0.0
141	0x00000000	0.0
142	0x00000000	0.0
143	0x00000000	0.0
144	0x00000000	0.0
145	0x00000000	0.0
146	0x00000000	0.0
147	0x00000000	0.0
148	0x00000000	0.0
149	0x00000000	0.0
150	0x00000000	0.0
151	0x00000000	0.0
152	0x00000000	0.0
153	0x00000000	0.0
154	0x00000000	0.0
155	0x00000000	0.0
156	0x00000000	0.0
157	0x00000000	0.0
158	0x00000000	0.0
159	0x00000000	0.0
160	0x00000000	0.0
161	0x00000000	0.0
162	0x00000000	0.0
163	0x00000000	0.0
164	0x00000000	0.0
165	0x00000000	0.0
166	0x00000000	0.0
167	0x00000000	0.0
168	0x00000000	0.0
169	0x00000000	0.0
170	0x00000000	0.0
171	0x00000000	0.0
172	0x00000000	0.0
173	0x00000000	0.0
174	0x00000000	0.0
175	0x00000000	0.0
176	0x00000000	0.0
177	0x00000000	0.0
178	0x00000000	0.0
179	0x00000000	0.0
180	0x00000000	0.0
181	0x00000000	0.0
182	0x00000000	0.0
183	0x00000000	0.0
184	0x00000000	0.0
185	0x00000000	0.0
186	0x00000000	0.0
187	0x00000000	0.0
188	0x00000000	0.0
189	0x00000000	0.0
190	0x00000000	0.0
191	0x00000000	0.0
192	0x00000000	0.0
193	0x00000000	0.0
194	0x00000000	0.0
195	0x00000000	0.0
196	0x00000000	0.0
197	0x00000000	0.0
198	0x00000000	0.0
199	0x00000000	0.0
200	0x00000000	0.0
201	0x00000000	0.0
202	0x00000000	0.0
203	0x00000000	0.0
204	0x00000000	0.0
205	0x00000000	0.0
206	0x00000000	0.0
207	0x00000000	0.0
208	0x00000000	0.0
209	0x00000000	0.0
210	0x00000000	0.0
211	0x00000000	0.0
212	0x00000000	0.0
213	0x00000000	0.0
214	0x00000000	0.0
215	0x00000000	0.0
216	0x00000000	0.0
217	0x00000000	0.0
218	0x00000000	0.0
219	0x00000000	0.0
220	0x00000000	0.0
221	0x00000000	0.0
222	0x00000000	0.0
223	0x00000000	0.0
224	0x00000000	0.0
225	0x00000000	0.0
226	0x00000000	0.0
227	0x00000000	0.0
228	0x00000000	0.0
229	0x00000000	0.0
230	0x00000000	0.0
231	0x00000000	0.0
232	0x00000000	0.0
233	0x00000000	0.0
234	0x00000000	0.0
235	0x00000000	0.0
236	0x00000000	0.0
237	0x00000000	0.0
238	0x00000000	0.0
239	0x00000000	0.0
240	0x00000000	0.0
241	0x00000000	0.0
242	0x00000000	0.0
243	0x00000000	0.0
244	0x00000000	0.0
245	0x00000000	0.0
246	0x00000000	0.0
247	0x00000000	0.0
248	0x00000000	0.0
249	0x00000000	0.0
250	0x00000000	0.0
251	0x00000000	0.0
252	0x00000000	0.0
253	0x00000000	0.0
254	0x00000000	0.0
255	0x00000000	0.0
