training/best_hybrid_model.pt (torch, 338690 bytes, 24 tensors)

q_weights f4 [3, 8, 3]
0.17662983 -0.10155981 -0.13093948 0.013860493 0.0112604005 -0.10371872 -0.03456071 -0.019126043
-0.02862666 -0.020959428 -0.16288906 -0.009362245 0.061123468 0.06809531 -0.1277397 0.027916187
0.03359209 0.05543691 0.05369544 -0.07016858 -0.04630044 -0.17131135 0.048269074 -0.0969803
-0.01366549 -0.12619483 0.103408515 -0.016123852 -0.07200099 -0.13136332 -0.053530555 -0.25900313
0.05084408 -0.11823487 0.013863608 -0.096286155 -0.12964337 0.030406877 -0.18248296 -0.022354
0.06896713 -0.053346515 -0.030615255 0.2339654 -0.15512943 -0.034754053 0.050497115 -0.0037666166
0.006067511 0.012492858 -0.066808954 -0.03721357 0.065136574 -0.12900542 -0.11447459 0.124199785
0.19056033 0.02451246 -0.07411827 -0.09586356 0.16006742 0.12134304 0.14021657 0.040093742
-0.11693344 0.100936405 0.00461336 -0.059604425 -0.0898924 0.023723159 -0.13598673 -0.08463337
00000000: 73de 343e 97fe cfbd 0015 06be 1f17 633c
00000010: 8b7d 383c 7b6a d4bd 888f 0dbd 38ae 9cbc
00000020: 7582 eabc 1bb3 abbc 64cc 26be 1a64 19bc
00000030: 9a5c 7a3d 8e75 8b3d 32ce 02be 7db0 e43c
00000040: dc97 093d d011 633d c0ef 5b3d 8bb4 8fbd
00000050: 88a5 3dbd 3e6c 2fbe cbb5 453d 9c9d c6bd
00000060: 38e5 5fbc 3839 01be d8c7 d33d 2b16 84bc
00000070: 4175 93bd 1b84 06be db42 5bbd 0f9c 84be
00000080: e241 503d 2025 f2bd 3024 633c ad31 c5bd
00000090: 3bc1 04be d817 f93c d0dc 3abe bc1f b7bc
000000a0: a33e 8d3d e081 5abd d8cc fabc a094 6f3e
000000b0: 40da 1ebe 445a 0ebd 10d6 4e3d 57d9 76bb
000000c0: f9d1 c63b d8ae 4c3c 22d3 88bd 426d 18bd
000000d0: 5366 853d ff19 04be a771 eabd 755c fe3d
000000e0: 3f22 433e 5bce c83c 52cb 97bd 1d54 c4bd
000000f0: b7e8 233e b382 f83d ef94 0f3e 5639 243d
00000100: cd7a efbd bfb7 ce3d ab2b 973b c523 74bd
00000110: 8219 b8bd 1257 c23c 1b40 0bbe 4354 adbd

pre_net.0.weight f4 [128, 560]
0.019694097 -0.041975077 0.023861963 0.012759862 -0.03038277 -0.029369827 -0.032442093 -0.03968382
0.005070543 0.03201088 -0.004797968 0.024329811 -0.033206854 0.020061165 0.01374408 -0.026665352
0.017252652 0.010674235 0.013081537 -0.00046658944 -0.020255493 -0.039901666 -0.0033162646 -0.0009993315
-0.007860256 0.010204467 0.018647786 -0.017710017 0.038941387 -0.029378522 0.042221084 -0.022607345
0.0046385205 0.02939101 -0.035786252 0.034233294 -0.024082474 0.025624795 0.039938506 0.012440966
-0.034413867 -0.020888582 -0.028630914 0.036960684 0.03837521 -0.030047126 -0.0015804588 0.04180199
-0.020947682 0.025913898 0.037684295 -0.03288518 0.0096146 0.03101722 0.03107861 -0.042132974
-0.008706241 -0.034079503 -0.018921256 -0.013793609 0.024200907 -0.02691193 -0.019207373 -0.016940527
0.030117782 0.038137067 -0.006445229 0.039893746 0.04197668 0.019157471 -0.018822018 0.015732639
0.002869956 -0.034872744 -0.027382378 -0.03673679 -0.04027534 -0.038073473 0.010361809 0.002766692
-0.025499482 -0.028979551 0.023331704 0.031270962 -0.014846363 0.019890876 -0.010450978 -0.011883636
-0.023896243 -0.042208873 -0.0159653 -0.029206676 0.0037499992 -0.0038018906 0.024941878 0.038007025
-0.03345871 0.039166674 -0.009525592 0.032441273 0.00034068187 -0.014770186 0.032234393 -0.010727961
-0.028584303 -0.0061514718 0.0288665 0.013441094 -0.03048148 0.008451741 0.001713555 -0.01861898
0.038658496 -0.01781518 -0.010304034 0.0139752915 -0.039459575 0.00026920968 0.024702381 -0.032357685
-0.028568143 0.009632725 -0.029025568 -0.029584823 -0.04072232 -0.0025022328 0.032051824 -0.004211808
0.009584688 0.007918147 -0.020976143 -0.0064845826 0.0049660346 0.026631411 -0.0005213271 -0.02288599
0.036952008 0.004021385 -0.024027122 0.024169512 0.024857258 -0.011977092 0.028014721 0.02727042
-0.0020799835 0.0012932048 0.036494512 -0.026953131 -0.04180434 0.027509982 -0.010964386 0.011745069
0.04021912 0.006819209 0.0011420543 -0.00082372886 0.024307864 -0.010841597 0.027682548 -0.03788814
0.034218274 -0.01702824 -0.0019558542 -0.0012083983 0.033956435 -0.010430767 0.014892532 0.027593732
-0.017233413 -0.003488215 -0.018683381 0.008371634 0.035616387 0.038141817 0.013895568 -0.03640907
0.014640198 -0.0025776143 0.008240251 0.018726103 0.0031476489 0.02390178 -0.022532362 0.04001288
-0.0042191227 -0.04202543 0.008393497 0.0013518666 0.04179439 0.024265734 -0.009631763 0.03025476
-0.012165692 -0.030599589 -0.030991865 -0.023346474 0.022077011 0.010433498 0.010342596 0.0014278626
-0.0006288175 0.0033362382 0.026336847 -0.0035346658 0.031368606 -0.03612413 -0.041529983 -0.030084105
0.032014225 0.0042214044 0.02225606 -0.01143689 0.025116177 -0.0018143253 0.026683131 -0.025716428
0.034675546 -0.031065993 -0.007282917 -0.011571043 0.037122823 0.03823612 -0.026506415 -0.036495905
0.036042057 -0.013375445 -0.019866284 -0.033666745 -0.03465698 -0.0023792924 0.034195017 0.040238652
0.014646047 0.009276895 -0.04186659 -0.015772384 -0.034050878 0.039610505 -0.040862057 -0.011763159
0.021881592 0.031147696 -0.017994592 0.0034611735 0.038678076 -0.0050386554 -0.0271509 -0.019251732
0.014354203 -0.026557721 0.01905582 0.01129393 -0.020665716 0.036566913 0.040564336 0.03721612
00000000: 8455 a13c 0fee 2bbd 2a7a c33c bd0e 513c
00000010: 49e5 f8bc fe98 f0bc 00e2 04bd 808b 22bd
00000020: cc26 a63b d71d 033d 4638 9dbb 504f c73c
00000030: e903 08bd 5057 a43c da2e 613c 4c71 dabc
00000040: 6f55 8d3c fde2 2e3c f153 563c 93a0 f4b9
00000050: d9ee a5bc ee6f 23bd b055 59bb 00fc 82ba
00000060: 4ec8 00bc a330 273c 3ec3 983c 9914 91bc
00000070: 0181 1f3d 3aab f0bc 04f0 2c3d 0a33 b9bc
00000080: bbfe 973b 6ac5 f03c 9b94 12bd 3638 0c3d
00000090: 9c48 c5bc 17eb d13c 8f96 233d 32d5 4b3c
000000a0: 8ef5 0cbd 881e abbc 618b eabc 1664 173d
000000b0: 532f 1d3d 6425 f6bc 6627 cfba 9038 2b3d
000000c0: 799a abbc 6249 d43c d95a 1a3d 9cb2 06bd
000000d0: 8e86 1d3c d317 fe3c 9298 fe3c a093 2cbd
000000e0: 9fa4 0ebc f396 0bbd c000 9bbc 97fe 61bc
000000f0: fb40 c63c 6876 dcbc c858 9dbc dcc6 8abc
00000100: 91b9 f63c 9d35 1c3d 8032 d3bb a067 233d
00000110: bdef 2b3d 21f0 9c3c a230 9abc bce1 803c
00000120: df15 3c3b b9d6 0ebd 0251 e0bc 5179 16bd
00000130: c1f7 24bd eef2 1bbd 94c4 293c 6451 353b
00000140: 4ae4 d0bc 8666 edbc 2122 bf3c fb15 003d
00000150: 293e 73bc 31f2 a23c 943a 2bbc 95b3 42bc
00000160: 0ec2 c3bc 36e3 2cbd a9c9 82bc d742 efbc
00000170: 8cc2 753b 2429 79bb e952 cc3c 41ad 1b3d
00000180: 000c 09bd 3c6d 203d 3b11 1cbc 24e1 043d
00000190: 8c9d b239 a6fe 71bc 3608 043d 54c4 2fbc
000001a0: a129 eabc 4992 c9bb 7079 ec3c 0938 5c3c
000001b0: 4cb4 f9bc 2c79 0a3c 5d99 e03a d586 98bc
000001c0: 5f58 1e3d 24f1 91bc 40d2 28bc 9ff8 643c
000001d0: 5da0 21bd b624 8d39 a65c ca3c 7e89 04bd
000001e0: bd07 eabc 94d2 1d3c 07c7 edbc df5b f2bc
000001f0: 73cc 26bd 80fc 23bb c648 033d 3503 8abb
00000200: 1809 1d3c 1ebb 013c 29d6 abbc 9f7c d4bb
00000210: 1eba a23b 1e2a da3c aba9 08ba 667b bbbc
00000220: fd5a 173d d3c5 833b 87d4 c4bc 24ff c53c
00000230: 73a1 cb3c 913b 44bc 217f e53c 3766 df3c
00000240: 5550 08bb c180 a93a 457b 153d d0cc dcbc
00000250: 073b 2bbd 9d5c e13c f8a3 33bc 646e 403c
00000260: cebc 243d ac73 df3b fcb0 953a 82ef 57ba
00000270: 4921 c73c f4a0 31bc 83c6 e23c 9830 1bbd
00000280: 7628 0c3d cf7e 8bbc ca2d 00bb 1e63 9eba
00000290: e715 0b3d cfe5 2abc ceff 733c 400c e23c
000002a0: 162d 8dbc 899a 64bb e40d 99bc 2e29 093c
000002b0: 7de2 113d 983a 1c3d 3daa 633c ad21 15bd
000002c0: 71dd 6f3c 31ed 28bb 1e02 073c 7c67 993c
000002d0: c948 4e3b aacd c33c ca95 b8bc 8ce4 233d
000002e0: 9140 8abb db22 2cbd e184 093c 1e31 b13a
000002f0: 9830 2b3d efc8 c63c 8bce 1dbc d5d8 f73c
00000300: 9c52 47bc fdab fabc a7e2 fdbc 1b41 bfbc
00000310: d9da b43c 43f1 2a3c fe73 293c 1e27 bb3a
00000320: 3ad7 24ba caa4 5a3b 5fc0 d73c daa5 67bb
00000330: 5e7c 003d e5f6 13bd 581b 2abd f172 f6bc
00000340: 5921 033d b553 8a3b 5752 b63c cb61 3bbc
00000350: 71c0 cd3c a8ce edba 9596 da3c 42ab d2bc
00000360: f207 0e3d 1c7e febc 89a5 eebb 7994 3dbc
00000370: 1a0e 183d 7a9d 1c3d fb23 d9bc bb7c 15bd
00000380: d6a0 133d af24 5bbc 9ebe a2bc 24e6 09bd
00000390: 7af4 0dbd e7ed 1bbb 1310 0c3d 49d1 243d
000003a0: f9f5 6f3c 1efe 173c 4d7c 2bbd 1635 81bc
000003b0: ef78 0bbd a03e 223d f95e 27bd 44ba 40bc
000003c0: 0641 b33c 7429 ff3c 6569 93bc dbd4 623b
000003d0: e76c 1e3d 4e1b a5bb 906b debc cfb5 9dbc
000003e0: e42d 6b3c 948f d9bc f31a 9c3c 2d0a 393c
000003f0: 264b a9bc 30c7 153d ca26 263d ee6f 183d

pre_net.0.bias f4 [128]
-0.008020339 -0.03931004 -0.021320539 -0.034552827 0.002243073 0.006885175 0.01548042 -0.01786352
-0.022261264 -0.038991887 -0.033894617 0.03779921 0.016485373 -0.029879829 0.02059621 0.0026164735
0.024591133 0.04196674 0.03719121 -0.018440492 0.006755988 0.029033618 0.0054173605 -0.0045011276
0.02271672 0.021562021 0.02691881 -0.03288249 0.03032637 0.038228992 0.026790787 0.009669318
0.02655463 -0.008361902 -0.026580118 0.036192678 0.0055933106 0.030353108 -0.04031244 0.00022664772
0.03694054 0.00062212767 -0.022531692 -0.018601611 -0.014453805 0.039024934 0.02074139 -0.020446459
-0.039990712 -0.023296885 0.040845275 -0.035833824 0.016029015 -0.0073490446 -0.041390937 -0.021014424
-0.0031432915 0.020194458 0.039992996 -0.038093086 -0.020181164 -0.010075335 -0.04073226 -0.01951583
0.033084054 -0.033449486 0.013971836 -0.028929966 0.004137006 0.021750843 0.007681203 -0.033498053
-0.033407208 0.015427888 0.018483033 -0.03017124 0.013090286 -0.03137656 -0.029193684 0.038967416
0.021560464 -0.01669569 -0.006508823 0.0071254745 -0.028627465 -0.017333291 -0.008278304 0.013858723
-0.031866036 -0.038245253 0.00504601 -0.034919795 -0.03313779 0.019599598 -0.028727192 0.021811806
-0.028159032 0.032541163 -0.027689403 -0.0017174641 0.009697664 -0.00906396 0.026560819 0.01772793
0.01537303 -0.040682133 0.0047605545 -0.029413784 0.030473722 0.001388308 -0.013858855 0.03787972
0.015478712 -0.035189226 -0.025088979 -0.004506029 0.039565112 -0.0005698534 -0.010090907 0.02217882
0.0014996119 -0.03252442 -0.023005545 -0.02596615 0.0141759915 0.0075665493 -0.012963472 0.014094323
00000000: bd67 03bc 9103 21bd 69a8 aebc 4487 0dbd
00000010: 8500 133b 099d e13b 96a1 7d3c 8456 92bc
00000020: 415d b6bc f5b5 1fbd 15d5 0abd 58d3 1a3d
00000030: 550c 873c 8bc6 f4bc 62b9 a83c 2479 2b3b
00000040: 5873 c93c 51e5 2b3d cf55 183d 8410 97bc
00000050: 5661 dd3b e9d7 ed3c 1d84 b13b 327e 93bb
00000060: 6a18 ba3c d6a2 b03c d684 dc3c caaf 06bd
00000070: 026f f83c 0196 1c3d 5a78 db3c 0f6c 1e3c
00000080: 1889 d93c 5c00 09bc 8cbe d9bc c63e 143d
00000090: 1748 b73b 15a7 f83c a81e 25bd 49a8 6d39
000000a0: f74e 173d 4816 233a 6294 b8bc 6862 98bc
000000b0: a7cf 6cbc 9cd8 1f3d d9e9 a93c 557f a7bc
000000c0: 4dcd 23bd 1cd9 bebc 604d 273d 7dc6 12bd
000000d0: 484f 833c 41d0 f0bb 8b89 29bd 7126 acbc
000000e0: aeff 4dbb d96e a53c b2cf 233d 7f07 1cbd
000000f0: f852 a5bc 0513 25bc dfd6 26bd a9df 9fbc
00000100: 2583 073d 5402 09bd 21ea 643c 89fe ecbc
00000110: b98f 873b d32e b23c 9ab2 fb3b 4135 09bd
00000120: ffd5 08bd 41c5 7c3c bb69 973c ad29 f7bc
00000130: a478 563c b584 00bd 9827 efbc 4c9c 1f3d
00000140: 929f b03c 66c5 88bc f747 d5bb d07c e93b
00000150: 2584 eabc 8cfe 8dbc b9a1 07bc b30f 633c
00000160: f685 02bd 0ea7 1cbd 0059 a53b 0f08 0fbd
00000170: 7ebb 07bd 568f a03c 4a55 ebbc acae b23c
00000180: c5ad e6bc e249 053d e3d4 e2bc 881c e1ba
00000190: f3e2 1e3c 0181 14bc 1396 d93c 2a3a 913c
000001a0: 29df 7b3c 4fa2 26bd 6dfe 9b3b 2df5 f0bc
000001b0: 07a4 f93c e3f7 b53a 4010 63bc c427 1b3d
000001c0: 6c9a 7d3c 9422 10bd 6787 cdbc 50a7 93bb
000001d0: 070f 223d 3762 15ba 5554 25bc 5bb0 b53c
000001e0: a08e c43a 5438 05bd 2076 bcbc f7b6 d4bc
000001f0: 6b42 683c d1f0 f73b be64 54bc e0eb 663c

pre_net.1.weight f4 [128]
1.0 1.0 1.0 1.0 1.0 1.0 1.0 1.0
1.0 1.0 1.0 1.0 1.0 1.0 1.0 1.0
1.0 1.0 1.0 1.0 1.0 1.0 1.0 1.0
1.0 1.0 1.0 1.0 1.0 1.0 1.0 1.0
1.0 1.0 1.0 1.0 1.0 1.0 1.0 1.0
1.0 1.0 1.0 1.0 1.0 1.0 1.0 1.0
1.0 1.0 1.0 1.0 1.0 1.0 1.0 1.0
1.0 1.0 1.0 1.0 1.0 1.0 1.0 1.0
1.0 1.0 1.0 1.0 1.0 1.0 1.0 1.0
1.0 1.0 1.0 1.0 1.0 1.0 1.0 1.0
1.0 1.0 1.0 1.0 1.0 1.0 1.0 1.0
1.0 1.0 1.0 1.0 1.0 1.0 1.0 1.0
1.0 1.0 1.0 1.0 1.0 1.0 1.0 1.0
1.0 1.0 1.0 1.0 1.0 1.0 1.0 1.0
1.0 1.0 1.0 1.0 1.0 1.0 1.0 1.0
1.0 1.0 1.0 1.0 1.0 1.0 1.0 1.0
00000000: 0000 803f 0000 803f 0000 803f 0000 803f
00000010: 0000 803f 0000 803f 0000 803f 0000 803f
00000020: 0000 803f 0000 803f 0000 803f 0000 803f
00000030: 0000 803f 0000 803f 0000 803f 0000 803f
00000040: 0000 803f 0000 803f 0000 803f 0000 803f
00000050: 0000 803f 0000 803f 0000 803f 0000 803f
00000060: 0000 803f 0000 803f 0000 803f 0000 803f
00000070: 0000 803f 0000 803f 0000 803f 0000 803f
00000080: 0000 803f 0000 803f 0000 803f 0000 803f
00000090: 0000 803f 0000 803f 0000 803f 0000 803f
000000a0: 0000 803f 0000 803f 0000 803f 0000 803f
000000b0: 0000 803f 0000 803f 0000 803f 0000 803f
000000c0: 0000 803f 0000 803f 0000 803f 0000 803f
000000d0: 0000 803f 0000 803f 0000 803f 0000 803f
000000e0: 0000 803f 0000 803f 0000 803f 0000 803f
000000f0: 0000 803f 0000 803f 0000 803f 0000 803f
00000100: 0000 803f 0000 803f 0000 803f 0000 803f
00000110: 0000 803f 0000 803f 0000 803f 0000 803f
00000120: 0000 803f 0000 803f 0000 803f 0000 803f
00000130: 0000 803f 0000 803f 0000 803f 0000 803f
00000140: 0000 803f 0000 803f 0000 803f 0000 803f
00000150: 0000 803f 0000 803f 0000 803f 0000 803f
00000160: 0000 803f 0000 803f 0000 803f 0000 803f
00000170: 0000 803f 0000 803f 0000 803f 0000 803f
00000180: 0000 803f 0000 803f 0000 803f 0000 803f
00000190: 0000 803f 0000 803f 0000 803f 0000 803f
000001a0: 0000 803f 0000 803f 0000 803f 0000 803f
000001b0: 0000 803f 0000 803f 0000 803f 0000 803f
000001c0: 0000 803f 0000 803f 0000 803f 0000 803f
000001d0: 0000 803f 0000 803f 0000 803f 0000 803f
000001e0: 0000 803f 0000 803f 0000 803f 0000 803f
000001f0: 0000 803f 0000 803f 0000 803f 0000 803f

pre_net.1.bias f4 [128]
0.0 0.0 0.0 0.0 0.0 0.0 0.0 0.0
0.0 0.0 0.0 0.0 0.0 0.0 0.0 0.0
0.0 0.0 0.0 0.0 0.0 0.0 0.0 0.0
0.0 0.0 0.0 0.0 0.0 0.0 0.0 0.0
0.0 0.0 0.0 0.0 0.0 0.0 0.0 0.0
0.0 0.0 0.0 0.0 0.0 0.0 0.0 0.0
0.0 0.0 0.0 0.0 0.0 0.0 0.0 0.0
0.0 0.0 0.0 0.0 0.0 0.0 0.0 0.0
0.0 0.0 0.0 0.0 0.0 0.0 0.0 0.0
0.0 0.0 0.0 0.0 0.0 0.0 0.0 0.0
0.0 0.0 0.0 0.0 0.0 0.0 0.0 0.0
0.0 0.0 0.0 0.0 0.0 0.0 0.0 0.0
0.0 0.0 0.0 0.0 0.0 0.0 0.0 0.0
0.0 0.0 0.0 0.0 0.0 0.0 0.0 0.0
0.0 0.0 0.0 0.0 0.0 0.0 0.0 0.0
0.0 0.0 0.0 0.0 0.0 0.0 0.0 0.0
00000000: 0000 0000 0000 0000 0000 0000 0000 0000
00000010: 0000 0000 0000 0000 0000 0000 0000 0000
00000020: 0000 0000 0000 0000 0000 0000 0000 0000
00000030: 0000 0000 0000 0000 0000 0000 0000 0000
00000040: 0000 0000 0000 0000 0000 0000 0000 0000
00000050: 0000 0000 0000 0000 0000 0000 0000 0000
00000060: 0000 0000 0000 0000 0000 0000 0000 0000
00000070: 0000 0000 0000 0000 0000 0000 0000 0000
00000080: 0000 0000 0000 0000 0000 0000 0000 0000
00000090: 0000 0000 0000 0000 0000 0000 0000 0000
000000a0: 0000 0000 0000 0000 0000 0000 0000 0000
000000b0: 0000 0000 0000 0000 0000 0000 0000 0000
000000c0: 0000 0000 0000 0000 0000 0000 0000 0000
000000d0: 0000 0000 0000 0000 0000 0000 0000 0000
000000e0: 0000 0000 0000 0000 0000 0000 0000 0000
000000f0: 0000 0000 0000 0000 0000 0000 0000 0000
00000100: 0000 0000 0000 0000 0000 0000 0000 0000
00000110: 0000 0000 0000 0000 0000 0000 0000 0000
00000120: 0000 0000 0000 0000 0000 0000 0000 0000
00000130: 0000 0000 0000 0000 0000 0000 0000 0000
00000140: 0000 0000 0000 0000 0000 0000 0000 0000
00000150: 0000 0000 0000 0000 0000 0000 0000 0000
00000160: 0000 0000 0000 0000 0000 0000 0000 0000
00000170: 0000 0000 0000 0000 0000 0000 0000 0000
00000180: 0000 0000 0000 0000 0000 0000 0000 0000
00000190: 0000 0000 0000 0000 0000 0000 0000 0000
000001a0: 0000 0000 0000 0000 0000 0000 0000 0000
000001b0: 0000 0000 0000 0000 0000 0000 0000 0000
000001c0: 0000 0000 0000 0000 0000 0000 0000 0000
000001d0: 0000 0000 0000 0000 0000 0000 0000 0000
000001e0: 0000 0000 0000 0000 0000 0000 0000 0000
000001f0: 0000 0000 0000 0000 0000 0000 0000 0000

pre_net.1.running_mean f4 [128]
-0.011950782 -0.06870856 -0.02270341 -0.019920383 0.004351907 0.019343788 0.014497228 -0.008031016
-0.017397678 -0.04296858 -0.031828217 0.035993505 0.018033518 -0.039556544 0.028298812 0.0019539015
0.03145691 0.037774153 0.030975081 -0.015012373 0.0023975621 0.016147459 -0.010291555 -0.019851385
0.0308447 0.0050567766 0.036770765 -0.037398115 0.04831407 0.058913007 0.0132687 0.01795944
0.04257021 -0.025801213 -0.00912852 0.038047504 0.008503481 0.044282332 -0.021730551 -0.0032096335
0.028794313 0.0006435659 -0.042839434 -0.008955252 -0.011881192 0.03923134 0.021067774 -0.01670757
-0.04390419 -0.020242391 0.050512854 -0.028499365 0.0306462 -0.00058745005 -0.039936084 -0.016444178
-0.0113264145 0.012532596 0.05471565 -0.0375428 -0.0050651557 -0.0070328154 -0.030606044 -0.0023292366
0.03623406 -0.022050278 0.027171513 -0.03241299 0.0071065323 0.019779876 0.007895314 -0.03524676
-0.02660567 0.020627294 0.018242331 -0.030962395 0.021523964 -0.015906936 -0.031696852 0.03947921
0.03076636 0.0001120604 -0.008771994 -0.010615055 -0.034961704 -0.02276201 0.010030641 0.028582431
-0.033097364 -0.024939958 0.002883046 -0.05417178 -0.021947 0.009388692 -0.026356613 0.024948249
-0.024420287 0.033818457 -0.0047513796 -0.02134403 -0.0133937895 0.0004904541 0.007599376 0.021925146
0.019681402 -0.034101166 0.015476047 -0.0067992997 0.028593624 0.0041831564 -0.007874207 0.054151498
0.0155715095 -0.033332925 -0.023373986 0.008744631 0.041939925 -0.0053058295 -0.01180873 0.015344809
0.01158543 -0.068946 -0.027437486 -0.053029936 0.003935332 0.01431121 -0.04068082 0.005311107
00000000: 36cd 43bc 13b7 8cbd 80fc b9bc 1230 a3bc
00000010: 719a 8e3b dd76 9e3c c885 6d3c 8694 03bc
00000020: 9385 8ebc d2ff 2fbd 4e5e 02bd ed6d 133d
00000030: 07bb 933c 0b06 22bd e9d2 e73c 070d 003b
00000040: f6d8 003d 12b9 1a3d 74bf fd3c 75f6 75bc
00000050: 6b20 1d3b ad47 843c e99d 28bc 5f9f a2bc
00000060: 06ae fc3c 51b3 a53b f19c 163d c42e 19bd
00000070: f9e4 453d c44e 713d f664 593c ad1f 933c
00000080: 1a5e 2e3d 115d d3bc ca8f 15bc b3d7 1b3d
00000090: 2f52 0b3c 6461 353d 4504 b2bc b758 52bb
000000a0: 0de2 eb3c fab4 283a 6778 2fbd 0db9 12bc
000000b0: 55a9 42bc 0bb1 203d 5396 ac3c 50de 88bc
000000c0: e1d4 33bd 5fd3 a5bc 91e6 4e3d 8077 e9bc
000000d0: bd0d fb3c 1bff 19ba 0594 23bd f1b5 86bc
000000e0: 6d92 39bc 8455 4d3c 841d 603d 7bc6 19bd
000000f0: 9bf9 a5bb 8873 e6bb 87b9 fabc 1ba6 18bb
00000100: 2a6a 143d c9a2 b4bc cb96 de3c 7cc3 04bd
00000110: eadd e83b 6809 a23c 595b 013c e85e 10bd
00000120: 22f4 d9bc 92fa a83c f170 953c d9a4 fdbc
00000130: 0653 b03c 434f 82bc 8fd4 01bd f4b4 213d
00000140: bc09 fc3c f801 eb38 69b8 0fbc c5ea 2dbc
00000150: 0134 0fbd 6577 babc 8f57 243c b425 ea3c
00000160: 1a91 07bd e24e ccbc 7cf1 3c3b 3ae3 5dbd
00000170: 32ca b3bc 07d3 193c d3e9 d7bc 4560 cc3c
00000180: 0e0d c8bc 3985 0a3d 76b1 9bbb add9 aebc
00000190: a071 5bbc d191 003a 3004 f93b 5d9c b33c
000001a0: e43a a13c aaad 0bbd 3f8f 7d3c a9cc debb
000001b0: 2d3d ea3c dc12 893b d102 01bc f6cd 5d3d
000001c0: a51f 7f3c 1b88 08bd cd7a bfbc a445 0f3c
000001d0: 33c9 2b3d 86dc adbb 6779 41bc cb68 7b3c
000001e0: d1d0 3d3c 8f33 8dbd 94c4 e0bc eb35 59bd
000001f0: f5f3 803b 9179 6a3c eea0 26bd cb08 ae3b

pre_net.1.running_var f4 [128]
0.15008815 0.34500942 0.17984307 0.19278763 0.20668794 0.20480932 0.24961427 0.18847425
0.29963952 0.19768834 0.2897831 0.24514687 0.39870995 0.36697978 0.17652342 0.1983282
0.21761163 0.20051521 0.15069671 0.28906608 0.23093149 0.17444062 0.35983968 0.2306692
0.13982692 0.19642565 0.17956653 0.19995202 0.39893374 0.15561496 0.25651222 0.20689003
0.21233281 0.31023744 0.26746872 0.17169516 0.2251392 0.18440846 0.26541936 0.19679539
0.34571296 0.14843543 0.34923655 0.3513962 0.32661483 0.22502638 0.16499653 0.16635779
0.23799612 0.23869725 0.28787673 0.15550469 0.45929047 0.24704137 0.24727085 0.2883577
0.29960927 0.21611425 0.3430963 0.38159448 0.23212649 0.17145564 0.26327446 0.21791007
0.25476906 0.20601308 0.23773989 0.1584233 0.22265103 0.3189871 0.15746294 0.23889102
0.28032207 0.16611193 0.25144497 0.24027278 0.19659132 0.20012699 0.18156368 0.14608827
0.39986786 0.38432345 0.14956877 0.20599736 0.20613268 0.2474899 0.2917289 0.12450917
0.35372236 0.23531012 0.21640065 0.44020572 0.273441 0.19702941 0.18523076 0.22395502
0.36954445 0.22993124 0.21917288 0.32342857 0.21609053 0.33087584 0.3496788 0.2368946
0.24769835 0.21806036 0.25486064 0.31102675 0.25282943 0.14611171 0.28022945 0.20338501
0.15221283 0.23947105 0.17802727 0.26427978 0.32311383 0.16188373 0.17533933 0.21535012
0.1946351 0.39614895 0.22502421 0.22368327 0.2545459 0.14455615 0.17957136 0.19871259
00000000: b5b0 193e 13a5 b03e c828 383e 1f6a 453e
00000010: 01a6 533e 89b9 513e e29a 7f3e 65ff 403e
00000020: 5a6a 993e d06e 4a3e 735e 943e c807 7b3e
00000030: b623 cc3e c6e4 bb3e 8ec2 343e 8c16 4b3e
00000040: 95d5 5e3e dc53 4d3e 3d50 1a3e 7800 943e
00000050: 4e79 6c3e 90a0 323e e83c b83e 8c34 6c3e
00000060: ca2e 0f3e ce23 493e 4ae0 373e 39c0 4c3e
00000070: 0b41 cc3e 8759 1f3e 9255 833e fbda 533e
00000080: c66d 593e 71d7 9e3e a9f1 883e dbd0 2f3e
00000090: e48a 663e 92d5 3c3e 0ce5 873e bb84 493e
000000a0: 4a01 b13e 75ff 173e 22cf b23e 34ea b33e
000000b0: 0f3a a73e 516d 663e daf4 283e b259 2a3e
000000c0: 41b5 733e 0d6d 743e 9464 933e 9f3c 1f3e
000000d0: 1f28 eb3e 6af8 7c3e 9234 7d3e 9fa3 933e
000000e0: 6366 993e 0e4d 5d3e 51aa af3e 5a60 c33e
000000f0: 91b2 6d3e 1192 2f3e e9cb 863e d123 5f3e
00000100: 1771 823e 18f5 523e 1672 733e b839 223e
00000110: a2fe 633e 4752 a33e f73d 213e d99f 743e
00000120: 6086 8f3e 3f19 2a3e 65bd 803e 110a 763e
00000130: 3c4f 493e 17ee 4c3e d4eb 393e 2a98 153e
00000140: 7bbb cc3e 0bc6 c43e 8e28 193e f9f0 523e
00000150: 7214 533e fe6d 7d3e 7e5d 953e aafe fe3d
00000160: 191b b53e 23f5 703e 2298 5d3e a562 e13e
00000170: 7500 8c3e 14c2 493e 22ad 3d3e 7754 653e
00000180: ee34 bd3e 1873 6b3e db6e 603e 6e98 a53e
00000190: d646 5d3e 8f68 a93e 1a09 b33e 7f94 723e
000001a0: a3a4 7d3e 374b 5f3e 187d 823e e63e 9f3e
000001b0: dc72 813e 4f9e 153e 3c7a 8f3e 2944 503e
000001c0: aedd 1b3e e637 753e c84c 363e ae4f 873e
000001d0: 2d6f a53e d9c4 253e 278c 333e be84 5c3e
000001e0: 6c4e 473e 09d4 ca3e bf6c 663e 3a0d 653e
000001f0: d753 823e 8706 143e 8ee1 373e 507b 4b3e

pre_net.4.weight f4 [64, 128]
0.03630781 0.054821786 0.047835935 0.08085368 0.05769069 0.057200175 -0.057726935 -0.055379007
-0.03975123 0.034166016 -0.015802044 0.07875138 -0.050351564 0.050679635 -0.011594018 -0.082363814
-0.015646448 -0.0046219393 0.0714727 0.08000716 -0.046551436 -0.045437284 -0.011011475 0.025244096
-0.003314386 0.0027574785 -0.03377132 -0.009823767 -0.076661505 0.015042083 0.020096745 0.07567724
0.036902558 0.08571864 0.06426958 0.051109586 -0.0009455224 0.08086256 0.0771362 -0.07630264
-0.06271743 -0.05852311 -0.040932376 0.05756052 -0.08784754 -0.03085986 -0.062182542 -0.06276986
0.004504307 -0.017741367 0.071072735 -0.036252633 -0.08113835 -0.01906521 -0.060218595 0.016679225
0.008103996 0.052321203 0.06246539 -0.032634936 0.00998226 0.036377124 -0.08220116 -0.039185494
0.045928907 -0.025256066 -0.009346032 0.027969396 0.005833113 0.010238417 0.044137623 -0.0035166591
-0.077887304 0.0807464 0.060804002 -0.08797427 -0.0044995975 -0.045168683 -0.04337097 -0.075742416
-0.003605178 -0.042453665 0.0046299156 -0.024930019 0.041861724 -0.03505462 0.042611454 -0.026001519
0.07681224 0.039155263 0.0027768451 -0.0094693005 0.02863679 -0.0076309186 0.058290873 -0.08140913
-0.086909816 -0.010462818 -0.021004694 -0.055183396 0.02673445 -0.020577725 0.00084934325 0.06273265
-0.04838628 -0.047574993 0.0637047 0.05331831 -0.045555726 0.017023733 0.06563844 0.06635004
-0.056163244 0.004006374 0.012468776 -0.08704526 -0.018666554 0.0832287 -0.04991191 0.075403795
-0.083649755 -0.06400998 0.049056496 -0.00592395 0.04972499 0.07787266 0.06686942 0.005036085
0.020251498 0.06901629 0.016518814 0.02869015 -0.078417204 0.019328175 -0.0285706 -0.04347522
0.009657972 0.08473994 0.052955166 0.016737452 -0.08398284 0.08800767 0.041426074 0.04614223
0.0459304 -0.00793426 0.0010807189 0.061369225 -0.0836886 0.050585657 -0.048131395 0.018423388
-0.017889978 -0.041005015 -0.066919334 0.0027343505 -0.064143084 -0.042793814 -0.0628854 0.041877773
-0.059842445 -0.035517476 -0.064300306 0.0039496757 0.05640542 -0.03996485 -0.040460963 -0.051527135
0.055992413 0.074631006 0.04557308 -0.00027791632 0.07959387 0.06602215 0.054984998 0.087525316
-0.013123822 0.06646635 -0.056902956 -0.005276722 -0.039234247 0.04472795 -0.029720714 0.0039039887
-0.07799076 -0.006338201 -0.020627068 0.07992209 0.01921617 -0.006058135 -0.061070234 0.052059576
-0.020221774 0.007761342 -0.08510248 0.07321196 0.008927292 0.057596996 -0.058036104 0.054317802
-0.012735797 -0.073024794 0.066265784 0.002258502 -0.023618503 0.054324675 0.031365633 0.030104145
0.041256107 0.043745592 -0.063607655 0.04785506 0.054654367 -0.049606357 0.081136525 -0.06062881
-0.050439175 -0.079117276 0.05128778 -0.03879595 0.080908574 0.013630638 0.046366494 0.034437135
0.0770317 0.0061558317 0.037996028 -0.041123334 -0.020023568 0.02119741 0.06375809 0.057161663
-0.07501286 0.056748256 0.07992568 -0.026274703 0.07198717 -0.08645093 0.08608458 -0.052483782
-0.06223885 0.08398271 -0.032329995 -0.04762537 -0.030680472 -0.03630481 0.073674366 -0.0016961683
-0.034890246 0.08024807 -0.01492147 -0.00433631 -0.01644946 0.009120261 0.0577875 -0.08338972
00000000: 80b7 143d cf8c 603d 9def 433d 9d96 a53d
00000010: 134d 6c3d bb4a 6a3d 1473 6cbd 19d5 62bd
00000020: 30d2 22bd aaf1 0b3d 4a73 81bc 6748 a13d
00000030: 713d 4ebd 7395 4f3d d6f4 3dbc 5cae a8bd
00000040: fb2c 80bc a373 97bb 4760 923d cbda a33d
00000050: b8ac 3ebd 721c 3abd 7969 34bc b5cc ce3c
00000060: 2b36 59bb d0b6 343b cc53 0abd ddf3 20bc
00000070: b500 9dbd 1273 763c eea1 a43c abfc 9a3d
00000080: 2327 173d 418d af3d c59f 833d 4958 513d
00000090: efdc 77ba 459b a53d 96f9 9d3d 8f44 9cbd
000000a0: ff71 80bd eeb5 6fbd b5a8 27bd 94c4 6b3d
000000b0: 69e9 b3bd d1cd fcbc 1fb3 7ebd 7c8d 80bd
000000c0: de98 933b 5856 91bc 958e 913d a47d 14bd
000000d0: dd2b a6bd a52e 9cbc c6a7 76bd dfa2 883c
000000e0: 9fc6 043c c24e 563d b5db 7f3d 36ac 05bd
000000f0: a28c 233c 2e00 153d 1559 a8bd f880 20bd
00000100: f31f 3c3d cfe5 cebc 1920 19bc 1320 e53c
00000110: b323 bf3b 09bf 273c a7c9 343d c077 66bb
00000120: 6183 9fbd 5e5e a53d 9e0d 793d db2b b4bd
00000130: 5c71 93bb cc02 39bd c2a5 31bd d71e 9bbd
00000140: da44 6cbb e5e3 2dbd 8cb6 973b 0a3a ccbc
00000150: 3377 2b3d 6f95 0fbd 5989 2e3d 2301 d5bc
00000160: bc4f 9d3d 4561 203d bbfb 353b 2025 1bbc
00000170: b497 ea3c c90c fabb 69c2 6e3d d4b9 a6bd
00000180: c6fd b1bd 3d6c 2bbc 0912 acbc fc07 62bd
00000190: 3502 db3c 9e92 a8bc 76a6 5e3a fa79 803d
000001a0: b130 46bd ffdd 42bd 9c77 823d 4d64 5a3d
000001b0: a498 3abd 5b75 8b3c 726d 863d 88e2 873d
000001c0: 6e0b 66bd e747 833b d649 4c3c c944 b2bd
000001d0: 9aea 98bc cf73 aa3d 6e70 4cbd 4e6d 9a3d
000001e0: 9050 abbd aa17 83bd 77ef 483d b21d c2bb
000001f0: 6eac 4b3d b37b 9f3d d6f2 883d be05 a53b
00000200: 78e6 a53c 6a58 8d3d 7752 873c 9b07 eb3c
00000210: 3399 a0bd 1f56 9e3c e40c eabc 1313 32bd
00000220: 783c 1e3c 228c ad3d 84e7 583d fb1c 893c
00000230: 32ff abbd 5e3d b43d 63ae 293d a3ff 3c3d
00000240: 8421 3c3d b3fe 01bc e9a6 8d3a 4c5e 7b3d
00000250: ee64 abbd e832 4f3d 6d25 45bd a5ec 963c
00000260: 018e 92bc e0f4 27bd 010d 89bd ca32 333b
00000270: 735d 83bd 9148 2fbd 10ca 80bd 0788 2b3d
00000280: 5a1d 75bd c67a 11bd e1af 83bd 486c 813b
00000290: 5f09 673d 2fb2 23bd 65ba 25bd 1e0e 53bd
000002a0: 4d58 653d 24d8 983d d7aa 3a3d 4cb5 91b9
000002b0: 1c02 a33d 9f36 873d f337 613d 7940 b33d
000002c0: 4d05 57bc 821f 883d 1313 69bd 5ae8 acbb
000002d0: 17b4 20bd a834 373d db78 f3bc 10da 7f3b
000002e0: 9fb9 9fbd afb0 cfbb 19fa a8bc 31ae a33d
000002f0: 3b6b 9d3c 5283 c6bb c824 7abd 6c3c 553d
00000300: 22a8 a5bc db52 fe3b 364a aebd 27f0 953d
00000310: c743 123c d4ea 6b3d 44b7 6dbd 587c 5e3d
00000320: cea9 50bc 068e 95bd 5bb6 873d 6003 143b
00000330: 977b c1bc 8d83 5e3d 4079 003d f89c f63c
00000340: 2afc 283d 942e 333d bb44 82bd ab03 443d
00000350: 42dd 5f3d 0930 4bbd e82a a63d ea55 78bd
00000360: 4f99 4ebd 3d08 a2bd 2313 523d 81e8 1ebd
00000370: 65b3 a53d 0a53 5f3c cbea 3d3d f40d 0d3d
00000380: ccc2 9d3d dcb6 c93b b9a1 1b3d f170 28bd
00000390: 7708 a4bc 31a6 ad3c 9a93 823d 5922 6a3d
000003a0: 58a0 99bd dc70 683d 13b0 a33d 0c3e d7bc
000003b0: 026e 933d 2f0d b1bd 1d4d b03d 3cf9 56bd
000003c0: 2aee 7ebd 21ff ab3d 756c 04bd d212 43bd
000003d0: 9d55 fbbc 5ab4 14bd 96e2 963d f751 deba
000003e0: 13e9 0ebd 1a59 a43d 2e79 74bc 9b17 8ebb
000003f0: 05c1 86bc 266d 153c 96b2 6c3d 3bc8 aabd

pre_net.4.bias f4 [64]
-0.017727017 -0.07022257 -0.084593594 0.030114038 0.009073479 -0.02676055 0.00041026797 0.049431056
-0.009936899 0.037363444 -0.078051284 0.011935145 0.020701004 0.06823975 0.07981024 -0.041859545
0.016240308 0.0038021514 0.071098216 0.07102702 -0.014589258 -0.0054785213 0.060913343 -0.072036654
-0.06715263 0.049854126 0.058706325 0.035571434 0.08364466 -0.0008242132 -0.011320843 -0.07167647
-0.07459048 0.05815595 -0.028990984 0.085859254 -0.059814133 -0.03943141 0.01717974 -0.0064673075
-0.05629797 0.00974374 0.069596425 -0.022222042 -0.013358875 -0.04187225 -0.08490198 0.044814248
-0.03786595 -0.0365555 -0.04132778 -0.009621188 -0.07208841 0.06136328 0.08086497 -0.01830426
0.06936219 0.03704869 -0.048122406 0.023751277 0.028461555 -0.024419926 0.056620635 0.036456876
00000000: 4038 91bc dad0 8fbd 683f adbd b7b1 f63c
00000010: eea8 143c f138 dbbc 3c19 d739 3878 4a3d
00000020: 60ce 22bc 690a 193d 5ad9 9fbd a08b 433c
00000030: 2795 a93c 48c1 8b3d 8d73 a33d ea74 2bbd
00000040: 650a 853c 842d 793b f19b 913d 9d76 913d
00000050: c807 6fbc 2b85 b3bb 4580 793d f487 93bd
00000060: 5187 89bd d733 4c3d 0b76 703d 5ab3 113d
00000070: e44d ab3d 0310 58ba 0f7b 39bc 1dcb 92bd
00000080: e5c2 98bd ef34 6e3d 807e edbc fad6 af3d
00000090: aaff 74bd d582 21bd 87bc 8c3c b5eb d3bb
000000a0: b398 66bd 35a4 1f3c 9288 8e3d 000b b6bc
000000b0: 2fdf 5abc 3d82 2bbd 17e1 adbd 258f 373d
000000c0: 5419 1bbd 38bb 15bd 5147 29bd 30a2 1dbc
000000d0: 17a3 93bd 1058 7b3d 899c a53d d1f2 95bc
000000e0: c40d 8e3d 5ec0 173d 001c 45bd 0a92 c23c
000000f0: 3528 e93c 4c0c c8bc 0aeb 673d ce53 153d

pre_net.5.weight f4 [64]
1.0 1.0 1.0 1.0 1.0 1.0 1.0 1.0
1.0 1.0 1.0 1.0 1.0 1.0 1.0 1.0
1.0 1.0 1.0 1.0 1.0 1.0 1.0 1.0
1.0 1.0 1.0 1.0 1.0 1.0 1.0 1.0
1.0 1.0 1.0 1.0 1.0 1.0 1.0 1.0
1.0 1.0 1.0 1.0 1.0 1.0 1.0 1.0
1.0 1.0 1.0 1.0 1.0 1.0 1.0 1.0
1.0 1.0 1.0 1.0 1.0 1.0 1.0 1.0
00000000: 0000 803f 0000 803f 0000 803f 0000 803f
00000010: 0000 803f 0000 803f 0000 803f 0000 803f
00000020: 0000 803f 0000 803f 0000 803f 0000 803f
00000030: 0000 803f 0000 803f 0000 803f 0000 803f
00000040: 0000 803f 0000 803f 0000 803f 0000 803f
00000050: 0000 803f 0000 803f 0000 803f 0000 803f
00000060: 0000 803f 0000 803f 0000 803f 0000 803f
00000070: 0000 803f 0000 803f 0000 803f 0000 803f
00000080: 0000 803f 0000 803f 0000 803f 0000 803f
00000090: 0000 803f 0000 803f 0000 803f 0000 803f
000000a0: 0000 803f 0000 803f 0000 803f 0000 803f
000000b0: 0000 803f 0000 803f 0000 803f 0000 803f
000000c0: 0000 803f 0000 803f 0000 803f 0000 803f
000000d0: 0000 803f 0000 803f 0000 803f 0000 803f
000000e0: 0000 803f 0000 803f 0000 803f 0000 803f
000000f0: 0000 803f 0000 803f 0000 803f 0000 803f

pre_net.5.bias f4 [64]
0.0 0.0 0.0 0.0 0.0 0.0 0.0 0.0
0.0 0.0 0.0 0.0 0.0 0.0 0.0 0.0
0.0 0.0 0.0 0.0 0.0 0.0 0.0 0.0
0.0 0.0 0.0 0.0 0.0 0.0 0.0 0.0
0.0 0.0 0.0 0.0 0.0 0.0 0.0 0.0
0.0 0.0 0.0 0.0 0.0 0.0 0.0 0.0
0.0 0.0 0.0 0.0 0.0 0.0 0.0 0.0
0.0 0.0 0.0 0.0 0.0 0.0 0.0 0.0
00000000: 0000 0000 0000 0000 0000 0000 0000 0000
00000010: 0000 0000 0000 0000 0000 0000 0000 0000
00000020: 0000 0000 0000 0000 0000 0000 0000 0000
00000030: 0000 0000 0000 0000 0000 0000 0000 0000
00000040: 0000 0000 0000 0000 0000 0000 0000 0000
00000050: 0000 0000 0000 0000 0000 0000 0000 0000
00000060: 0000 0000 0000 0000 0000 0000 0000 0000
00000070: 0000 0000 0000 0000 0000 0000 0000 0000
00000080: 0000 0000 0000 0000 0000 0000 0000 0000
00000090: 0000 0000 0000 0000 0000 0000 0000 0000
000000a0: 0000 0000 0000 0000 0000 0000 0000 0000
000000b0: 0000 0000 0000 0000 0000 0000 0000 0000
000000c0: 0000 0000 0000 0000 0000 0000 0000 0000
000000d0: 0000 0000 0000 0000 0000 0000 0000 0000
000000e0: 0000 0000 0000 0000 0000 0000 0000 0000
000000f0: 0000 0000 0000 0000 0000 0000 0000 0000

pre_net.5.running_mean f4 [64]
0.021919774 0.15670785 0.29502624 -0.41728118 0.08466626 0.22508933 0.28211766 0.1654459
-0.03544734 0.17105068 -0.11820585 -0.08765099 -0.17877424 0.38553554 0.21011493 -0.07362203
-0.34994602 -0.2479644 0.046291143 0.073350266 0.12180769 -0.11369319 -0.11221196 -0.1899018
-0.23376639 -0.016873932 -0.14446062 0.020751972 -0.0066073574 0.4455967 0.19495566 -0.051729627
-0.08001057 0.027928004 -0.10647108 -0.099177815 0.02802478 -0.06355551 -0.04580539 0.24863172
-0.19416133 -0.09747498 -0.020411268 -0.32590446 0.19412354 -0.20659734 -0.1654368 -0.06766817
0.1330531 -0.1679647 0.027756244 0.19444169 0.3444281 0.062233236 0.5619569 -0.024541492
0.26583982 0.023165636 0.2555164 -0.32684338 0.031429745 0.17008993 0.21901937 0.2846054
00000000: 1991 b33c 0678 203e ae0d 973e e1a5 d5be
00000010: 8165 ad3d d17d 663e ba71 903e a66a 293e
00000020: 3b31 11bd e927 2f3e e915 f2bd 5d82 b3bd
00000030: 9810 37be ea64 c53e 5e28 573e 26c7 96bd
00000040: 202c b3be 61ea 7dbe c89b 3d3d aa38 963d
00000050: 4f76 f93d fad7 e8bd 62cf e5bd 9e75 42be
00000060: 7560 6fbe 333b 8abc 7ced 13be 0a00 aa3c
00000070: 8882 d8bb 4025 e43e 75a2 473e 72e2 53bd
00000080: 95dc a3bd 45c9 e43c 820d dabd bd1d cbbd
00000090: 3994 e53c 6429 82bd 6f9e 3bbd 5099 7e3e
000000a0: 3ad2 46be f6a0 c7bd 8835 a7bc f3dc a6be
000000b0: 52c8 463e 418e 53be 4468 29be 9c95 8abd
000000c0: 123f 083e f0fe 2bbe 1061 e33c b91b 473e
000000d0: e158 b03e 47e8 7e3d 68dc 0f3f 3d0b c9bc
000000e0: 281c 883e dcc5 bd3c 0cd3 823e 0458 a7be
000000f0: 7abc 003d 0e2c 2e3e 9d46 603e cdb7 913e

pre_net.5.running_var f4 [64]
0.2634004 0.18524791 0.27855164 0.19787686 0.25452107 0.1836909 0.15241621 0.24133335
0.1958598 0.2221242 0.18355039 0.23043604 0.1707202 0.24390681 0.14876565 0.22525981
0.2549994 0.19790265 0.21365786 0.20445134 0.1888736 0.19766 0.1922731 0.22066556
0.25730222 0.18803644 0.1510781 0.20205212 0.17590739 0.31613502 0.17054212 0.26004192
0.29400077 0.22719435 0.20156418 0.21735927 0.21269394 0.19379325 0.27564496 0.2599116
0.16572087 0.12948693 0.17961821 0.22732498 0.23863779 0.20063235 0.1659932 0.16488302
0.15469268 0.18504432 0.20167828 0.23823667 0.30324188 0.25429758 0.3067008 0.20021462
0.1857808 0.19551805 0.18207139 0.2284982 0.26064336 0.1770282 0.19431707 0.25556713
00000000: 6bdc 863e a1b1 3d3e 529e 8e3e 3ba0 4a3e
00000010: 9650 823e 7819 3c3e ff12 1c3e 1720 773e
00000020: 798f 483e 8774 633e a2f4 3b3e 6df7 6b3e
00000030: 47d1 2e3e b5c2 793e 0656 183e 82aa 663e
00000040: 488f 823e fea6 4a3e 20c9 5a3e b15b 513e
00000050: 1568 413e 6267 4a3e 3de3 443e 27f6 613e
00000060: 1ebd 833e a08c 403e 38b4 1a3e c0e6 4e3e
00000070: 1121 343e 73dc a13e 98a2 2e3e 3724 853e
00000080: 4587 963e a3a5 683e d766 4e3e 6e93 5e3e
00000090: 71cc 593e bd71 463e 5621 8d3e 2213 853e
000000a0: bbb2 293e 3998 043e d6ed 373e e1c7 683e
000000b0: 775d 743e 9172 4d3e 1ffa 293e 18d7 283e
000000c0: c267 1e3e 427c 3d3e c084 4e3e 50f4 733e
000000d0: 8542 9b3e 4b33 823e e307 9d3e 1005 4d3e
000000e0: 523d 3e3e e235 483e ec70 3a3e 6ffb 693e
000000f0: 0c73 853e e146 353e 0efb 463e b2d9 823e

pre_net.8.weight f4 [8, 64]
-0.04714331 -0.117556185 0.07919566 0.07002862 -0.081313744 0.00013370812 0.108049676 -0.043233365
0.0039088577 -0.0040134788 -0.09582201 -0.11777511 -0.097427845 0.032877892 0.0055690557 0.09863983
0.09012705 0.0854471 -0.06445892 0.001952216 0.118284315 -0.0758408 0.04495564 0.001131475
-0.0475969 -0.10492757 0.044936568 0.108104736 0.022868082 -0.02041693 0.102472514 -0.074920416
-0.034740523 0.06300691 0.051030725 0.02490823 0.0008826554 0.042773113 -7.018447e-05 0.07765055
0.10344733 0.123652056 0.020073012 0.107978985 0.028546497 -0.053551465 -0.08612715 -0.08600901
-0.0731536 -0.10794787 0.059087023 -0.01614821 0.05117555 -0.040164232 -0.050622433 -0.028725445
0.01905115 0.04591748 -0.06913428 -0.11346614 -0.06884928 0.11164653 0.09296338 0.10520069
-0.0031519234 0.030482098 -0.030992761 0.06863573 0.118920475 -0.004569173 0.019904241 0.050867736
0.028585777 0.063505754 0.019210517 -0.10317403 0.08777325 -0.030374154 0.1118716 -0.085603476
0.012127936 -0.07962416 0.057420194 0.0046308935 0.026354313 -0.00051034987 -0.10579765 0.10265292
-0.054348886 0.008369818 0.03247045 -0.048320055 0.1039267 0.11345431 -0.10340385 -0.07498442
-0.029981226 -0.02713494 0.046952218 -0.006567627 -0.04121086 0.05820781 -0.04079625 0.06011769
0.11387502 0.02217269 0.0016136914 -0.06489308 0.02689609 -0.087143436 -0.005447671 -0.11539771
-0.104809746 0.082133815 -0.041090235 0.086103335 -0.09240949 0.08977744 -0.0972573 0.06138335
0.07597914 -0.053030685 -0.024037808 0.023999184 0.10433021 0.026062444 -0.098436475 -0.052514732
-0.042812943 0.057017118 0.06041555 -0.11167207 -0.06724708 0.10775742 0.067755476 -0.072889596
0.07913482 -0.11576064 0.05543922 0.037791118 0.10547623 -0.045718223 0.11333446 0.12332928
-0.10359877 -0.013864487 -0.07541746 0.06411196 -0.096682236 0.0074415505 -0.079894036 -0.08665547
0.0025935918 -0.018903628 0.031353503 -0.05349113 -0.0646258 -0.058429703 -0.011943802 -0.050543055
-0.10489258 0.07723251 0.100167826 -0.005411446 -0.010858908 0.10662754 0.08628477 0.09617707
-0.11997129 0.115656614 0.1100599 -0.0043706596 -0.074472144 0.036484823 0.12393539 0.0010632426
-0.01728551 0.032283917 -0.11315693 0.115520746 -0.029775366 0.008456379 0.066724434 -0.06685892
0.047035232 -0.05499783 0.07962695 0.08355002 0.117154524 -0.039620116 -0.018366784 0.06613442
-0.088916615 0.08500339 0.113428906 0.04237564 -0.12411624 -0.017800733 -0.050122887 0.060932055
-0.11698592 0.00531061 0.0004107654 0.03200732 0.04608886 -0.048774242 -0.03737673 -0.02394177
0.077423364 0.010029897 -0.09594348 -0.082264766 0.0008082539 -0.023563683 -0.009011477 -0.074431896
0.098633066 -0.04212518 0.013295308 0.058710575 -0.038395762 -0.10965574 -0.1085853 0.021799833
0.046175987 -0.073850855 -0.015414342 0.1223024 -0.037067994 0.053671956 -0.0035695732 -0.08274087
0.090796456 0.11453122 0.06603049 -0.030621588 0.0009805709 -0.0910822 0.045024186 -0.047586724
-0.0051466823 -0.04231137 -0.06866883 0.01747325 0.050095424 0.10579628 0.115852684 -0.010563061
0.08443883 0.007947624 -0.010226801 -0.10398972 -0.11841358 -0.09571597 0.075626805 -0.02749148
00000000: 5819 41bd 4cc1 f0bd 5631 a23d 2a6b 8f3d
00000010: d287 a6bd 0034 0c39 2649 dd3d 7815 31bd
00000020: e015 803b 8083 83bb 543e c4bd 1434 f1bd
00000030: 4088 c7bd f8aa 063d a07c b63b ae03 ca3d
00000040: 8894 b83d e4fe ae3d 0a03 84bd 80e1 ff3a
00000050: 0c3f f23d 6c52 9bbd 6823 383d 004e 943a
00000060: f8f4 42bd 44e4 d6bd 680f 383d 0466 dd3d
00000070: d855 bb3c 6841 a7bc 1cdd d13d e06f 99bd
00000080: 144c 0ebd c409 813d 9805 513d 580c cc3c
00000090: 0062 673a dc32 2f3d 0030 93b8 4007 9f3d
000000a0: 32dc d33d 4a3d fd3d 2870 a43c 1624 dd3d
000000b0: 58da e93c c858 5bbd 6e63 b0bd 7e25 b0bd
000000c0: 8ed1 95bd c613 ddbd 3c05 723d 4049 84bc
000000d0: 749d 513d 4083 24bd 7859 4fbd a051 ebbc
000000e0: 2811 9c3c f813 3c3d 4696 8dbd f060 e8bd
000000f0: da00 8dbd f0a6 e43d 9663 be3d 7673 d73d
00000100: 8090 4ebb 98b5 f93c 88e4 fdbc e490 8c3d
00000110: 948c f33d 00b9 95bb 380e a33c b05a 503d
00000120: b82c ea3c 4e0f 823d 605f 9d3c e84c d3bd
00000130: 76c2 b33d 38d3 f8bc f01c e53d e050 afbd
00000140: 40b4 463c fe11 a3bd 7031 6b3d c0be 973b
00000150: 00e5 d73c 00c9 05ba 70ac d8bd b23b d23d
00000160: f09c 5ebd 9021 093c bcff 043d 40eb 45bd
00000170: 86d7 d43d bc5a e83d 66c5 d3bd 6e91 99bd
00000180: 309b f5bc 184a debc f850 403d 4035 d7bb
00000190: b8cc 28bd 506b 6e3d f819 27bd f83d 763d
000001a0: 4e37 e93d 80a3 b53c 8082 d33a aae6 84bd
000001b0: 3055 dc3c 4278 b2bd 6082 b2bb a255 ecbd
000001c0: 7ea6 d6bd c635 a83d 3c4e 28bd f256 b03d
000001d0: 3041 bdbd 3cdd b73d d62e c7bd 1c6d 7b3d
000001e0: f49a 9b3d b436 59bd f0ea c4bc f099 c43c
000001f0: 14ab d53d e880 d53c 1099 c9bd b019 57bd
00000200: a05c 2fbd c88a 693d 4c76 773d 54b4 e4bd
00000210: d6b8 89bd ecaf dc3d 62c3 8a3d 2447 95bd
00000220: 7011 a23d ea13 edbd 3c14 633d dcca 1a3d
00000230: ec03 d83d 0843 3bbd e61b e83d 1094 fc3d
00000240: 982b d4bd e027 63bc 7874 9abd 224d 833d
00000250: 5601 c6bd 40d8 f33b 7c9f a3bd 6c78 b1bd
00000260: 40f9 293b c8db 9abc 886c 003d 8419 5bbd
00000270: 885a 84bd fc53 6fbd f0af 43bc 3c06 4fbd
00000280: ecd1 d6bd 142c 9e3d ca24 cd3d 8052 b1bb
00000290: 90e9 31bc 8a5f da3d 12b6 b03d 7cf8 c43d
000002a0: 82b3 f5bd 60dd ec3d 1667 e13d c037 8fbb
000002b0: da84 98bd 1c71 153d d6d1 fd3d 805c 8b3a
000002c0: 589a 8dbc 243c 043d d2be e7bd 2496 ec3d
000002d0: 78eb f3bc a08c 0a3c d2a6 883d 54ed 88bd
000002e0: 04a8 403d 6845 61bd 7413 a33d 461c ab3d
000002f0: b6ee ef3d b448 22bd f075 96bc 7c71 873d
00000300: ea19 b6bd 4216 ae3d 6a4d e83d 1492 2d3d
00000310: a830 febd d8d2 91bc a84d 4dbd e493 793d
00000320: 5096 efbd a004 ae3b 005c d739 1c1a 033d
00000330: acc7 3c3d 80c7 47bd 5818 19bd 8821 c4bc
00000340: 2490 9e3d 7054 243c 047e c4bd 6e7a a8bd
00000350: 00e1 533a a008 c1bc e0a4 13bc c06f 98bd
00000360: 2200 ca3d 748b 2cbd 90d4 593c 807a 703d
00000370: e044 1dbd 3093 e0bd f861 debd 9095 b23c
00000380: 0823 3d3d 1e3f 97bd 708c 7cbc ae79 fa3d
00000390: 9cd4 17bd 20d7 5b3d 80ef 69bb 0c74 a9bd
000003a0: 7ef3 b93d 588f ea3d fe3a 873d 20da fabc
000003b0: 8086 803a 4e89 babd 486b 383d 4cea 42bd
000003c0: 80a5 a8bb b04e 2dbd 3ea2 8cbd 1024 8f3c
000003d0: dc30 4d3d b8ab d83d 2c44 ed3d b010 2dbc
000003e0: 44ee ac3d c036 023c 508e 27bc 90f8 d4bd
000003f0: d282 f2bd bc06 c4bd 3ae2 9a3d d035 e1bc

pre_net.8.bias f4 [8]
0.002210334 0.079321474 -0.111068904 -0.12196374 -0.06876169 -0.036931857 0.07596831 0.04280688
00000000: 40db 103b 4c73 a23d 1878 e3bd 20c8 f9bd
00000010: eed2 8cbd dc45 17bd 4695 9b3d 4456 2f3d

post_net.0.weight f4 [32, 8]
-0.13332269 0.05834205 -0.1214057 0.24246432 -0.07011938 0.2654506 -0.0025877717 -0.33621743
0.09133459 0.21427278 -0.21880509 0.12596686 0.22527593 0.21120046 -0.05626031 0.01955372
-0.34175193 -0.23702216 0.31685582 0.17165627 -0.2948395 -0.18875508 -0.33601952 -0.13301186
-0.06866026 0.3488892 0.21342549 0.21240148 0.10814115 -0.19289255 0.34633285 -0.2181097
-0.060671225 0.0022647586 0.092931524 0.19862552 0.1909874 0.32844535 0.02729861 -0.33437607
0.029974084 -0.30278593 0.13280319 0.11864468 -0.12477309 -0.047576785 -0.30172428 0.25829545
0.01536282 -0.25940055 -0.33781245 -0.30762786 -0.26155466 -0.34687313 0.30269578 0.35012946
0.071805984 0.07020107 0.27088845 0.1304848 0.031299364 0.22725455 -0.34378633 0.07666023
-0.23398222 -0.19455183 -0.32737097 -0.2996699 0.08536232 -0.15609775 -0.22422007 0.19177438
-0.2033623 0.043929443 -0.12288253 0.32390717 -0.06840368 0.14421652 -0.15193474 0.34384727
-0.1604807 -0.32019034 -0.060056683 0.16789643 0.07085901 -0.039402056 -0.047355447 0.05273487
-0.20360275 0.08782488 0.0068388632 -0.07087318 0.16042486 0.13326332 -0.09368276 0.2985423
-0.22145289 0.15967196 -0.18495506 -0.07588739 0.0431313 -0.08578719 0.0032363322 0.28126666
0.24552397 0.13084741 0.071523935 -0.02139694 -0.19790909 0.14358133 -0.080511294 0.08717268
-0.14088543 -0.096935846 0.07066928 -0.044406153 0.33391392 -0.120773606 0.3279031 -0.24784344
0.19837719 0.002005441 0.32978207 -0.36340132 0.0607143 -0.024267845 -0.26560572 -0.087643646
0.26376614 -0.12835385 0.02124783 0.07201704 0.041768864 -0.109873585 -0.10069201 -0.007676279
-0.013976154 0.01614475 -0.15187135 0.12560868 0.006342896 -0.19465865 0.2494691 0.14243594
0.2016207 -0.040138885 -0.3034088 0.07447633 0.34437633 0.0020354216 -0.2976602 0.21848285
0.22876532 -0.07990169 0.23045217 -0.08133939 0.22291446 -0.12984942 -0.27906257 0.21225156
0.037109412 -0.30641422 0.09906463 -0.258668 -0.120266855 0.10146413 -0.122697964 -0.15503085
0.003310438 -0.06083544 0.15606846 -0.25420994 -0.3290157 -0.18457752 0.13413821 -0.24760382
-0.14117667 -0.3298051 0.25848258 0.22024563 0.16595364 0.1948151 0.31346196 -0.09147912
0.004276154 -0.055930767 0.11989667 -0.030167615 -0.21473603 0.125677 -0.025106534 0.0017577618
0.2629153 0.31919947 0.16191696 -0.15781562 0.08446524 -0.27940145 -0.2052846 -0.3118051
-0.06680593 -0.21910232 0.18398915 0.059223868 -0.29218525 -0.059793096 0.058541525 0.05017841
0.25163242 0.07771092 -0.14284815 -0.06899032 0.13072853 0.15908934 -0.044592958 0.08829589
0.31868905 -0.057916112 0.21712112 0.15780698 0.28911933 -0.13513622 0.27175516 0.16874123
-0.079737246 0.24178602 -0.2863696 0.13054357 -0.17603472 -0.23736185 -0.029948479 0.09236778
0.017492509 -0.0790343 -0.20267627 -0.13907501 -0.017793497 0.14534941 0.044479527 0.08252837
-0.08590217 -0.040671296 -0.047000583 -0.050844904 -0.041750766 -0.009855915 0.13179904 0.24949636
-0.04333854 -0.31970632 -0.12030981 0.11228112 -0.13250968 0.06849678 -0.31481987 -0.06462449
00000000: be85 08be 13f8 6e3d 8da3 f8bd 9148 783e
00000010: c09a 8fbd 24e9 873e 9b97 29bb b124 acbe
00000020: a10d bb3d 536a 5b3e 710e 60be 75fd 003e
00000030: bcae 663e ef44 583e 3671 66bd 1f2f a03c
00000040: 1cfa aebe f0b5 72be ed3a a23e a9c6 2f3e
00000050: 34f5 96be 0349 41be c00a acbe 4334 08be
00000060: c09d 8cbd 9ba1 b23e 368c 5a3e c67f 593e
00000070: 1b79 dd3d a085 45be 8a52 b13e 2658 5fbe
00000080: 6482 78bd 586c 143b e252 be3d 7d64 4b3e
00000090: 3392 433e fd29 a83e 56a1 df3c 5733 abbe
000000a0: 368c f53c c206 9bbe 8ffd 073e fbfb f23d
000000b0: 0989 ffbd e0df 42bd 9b7b 9abe 4d3f 843e
000000c0: 56b4 7b3c 26d0 84be c1f5 acbe 6681 9dbe
000000d0: 7eea 85be 5b99 b1be f1fa 9a3e 2b44 b33e
000000e0: 040f 933d 94c5 8f3d e4b1 8a3e cf9d 053e
000000f0: c333 003d 6bb5 683e c304 b0be 0a00 9d3d
00000100: 0999 6fbe 9838 47be 2b9d a7be 556e 99be
00000110: 71d2 ae3d 17d8 1fbe f299 65be 8160 443e
00000120: 353e 50be 5cef 333d d6a9 fbbd 29d7 a53e
00000130: 3b17 8cbd 7fad 133e c894 1bbe c00c b03e
00000140: 0d55 24be fdef a3be fffd 75bd 0bed 2b3e
00000150: 871e 913d 0d64 21bd c9f7 41bd 8500 583d
00000160: 3d7d 50be 88dd b33d 8b18 e03b f525 91bd
00000170: 6a46 243e 2e76 083e bfdc bfbd 89da 983e
00000180: 8cc4 62be 0c81 233e dc64 3dbe d96a 9bbd
00000190: 72aa 303d 32b1 afbd a518 543b 2f02 903e
000001a0: a36a 7b3e ddfc 053e 247b 923d a348 afbc
000001b0: aea8 4abe fc06 133e 1be3 a4bd 9787 b23d
000001c0: 4544 10be 4d86 c6bd 0ebb 903d 3ae3 35bd
000001d0: c4f6 aa3e 2758 f7bd eae2 a73e acca 7dbe
000001e0: 6423 4b3e b86d 033b 32d9 a83e bd0f babe
000001f0: 8faf 783d 5ccd c6bc 79fd 87be 837e b3bd
00000200: 5b0c 873e 316f 03be ee0f ae3c ab7d 933d
00000210: d415 2b3d 6705 e1bd 9d37 cebd 4c89 fbbb
00000220: 3dfc 64bc ff41 843c 2a84 1bbe 909f 003e
00000230: 11d8 cf3b 9954 47be d474 7f3e bada 113e
00000240: a875 4e3e ac68 24bd 6658 9bbe 0c87 983d
00000250: 1852 b03e b564 053b eb66 98be f8b9 5f3e
00000260: 7541 6a3e 7fa3 a3bd a7fb 6b3e 4495 a6bd
00000270: b043 643e 3ff7 04be 4ae1 8ebe 7958 593e
00000280: 0a00 183d 53e2 9cbe 66e2 ca3d 2270 84be
00000290: 784e f6bd 6dcc cf3d 1249 fbbd 68c0 1ebe
000002a0: eff3 583b 952e 79bd 69d0 1f3e ce27 82be
000002b0: bf74 a8be e401 3dbe 875b 093e db8b 7dbe
000002c0: 9e90 10be 37dc a8be d457 843e 1288 613e
000002d0: c0ef 293e 9c7d 473e 167e a03e 6859 bbbd
000002e0: fb1e 8c3b a917 65bd 638c f53d 1322 f7bc
000002f0: c3e3 5bbe 79b1 003e 38ac cdbc b364 e63a
00000300: d69c 863e 1d6e a33e 8fcd 253e 6b9a 21be
00000310: 1dfc ac3d b50d 8fbe 2036 52be eba4 9fbe
00000320: 8cd1 88bd 5c5c 60be a767 3c3e ba94 723d
00000330: 4e99 95be 9be9 74bd 3dc9 6f3d e087 4d3d
00000340: f7d5 803e e726 9f3d c946 12be cc4a 8dbd
00000350: b3dd 053e 51e8 223e 1ba7 36bd 7ad4 b43d
00000360: 362b a33e 7239 6dbd 0055 5e3e 2798 213e
00000370: 7307 943e 2661 0abe 7e23 8b3e 80ca 2c3e
00000380: 484d a3bd c196 773e 099f 92be 37ad 053e
00000390: 7242 34be fc0e 73be 8356 f5bc 522b bd3d
000003a0: 734c 8f3c bcdc a1bd 5e8a 4fbe ae69 0ebe
000003b0: abc3 91bc 7ad6 143e 2a30 363d a204 a93d
000003c0: 7aed afbd f296 26bd af83 40bd bf42 50bd
000003d0: da02 2bbd b47a 21bc 54f6 063e f97b 7f3e
000003e0: c183 31bd 8cb0 a3be fd64 f6bd a5f3 e53d
000003f0: 9eb0 07be 0a48 8c3d 1230 a1be d859 84bd

post_net.0.bias f4 [32]
0.13485828 -0.270454 0.14833042 -0.08719467 -0.10417814 0.044039674 -0.062936395 -0.11915549
0.2941552 0.31642532 0.11121825 -0.08947365 0.039336268 0.07661623 -0.108368754 -0.09502106
-0.2435085 -0.30094877 -0.0911611 0.10876255 -0.34224305 0.32564646 -0.10254298 -0.31356424
0.07313479 -0.12106167 -0.025888164 0.23303682 0.159966 0.21620968 -0.03258862 0.14955717
00000000: 4a18 0a3e f278 8abe eee3 173e 1f93 b2bd
00000010: 595b d5bd f262 343d cce4 80bd cb07 f4bd
00000020: 839b 963e 8002 a23e 65c6 e33d f63d b7bd
00000030: 111f 213d f8e8 9c3d 70f0 ddbd 679a c2bd
00000040: 4b5a 79be f515 9abe acb2 babd e6be de3d
00000050: 7b3a afbe 22bb a63e 0e02 d2bd 7e8b a0be
00000060: b1c7 953d 2eef f7bd 6a13 d4bc 34a1 6e3e
00000070: 21ce 233e 1266 5d3e a57b 05bd 8425 193e

post_net.1.weight f4 [32]
0.9890685 0.99904186 0.9831802 0.9885666 1.0011318 1.0184575 0.97718596 1.0007095
0.9786503 0.98890805 1.0160817 0.99047965 1.0158204 0.9953127 0.9904167 1.0116878
1.0155332 0.99045706 0.9985237 1.0009701 1.0193712 0.9839949 0.98356324 1.0166724
1.008834 0.9822546 0.98981494 0.9978825 0.98713684 0.99636483 0.9880577 0.97772187
00000000: 9833 7d3f 35c1 7f3f b3b1 7b3f b312 7d3f
00000010: 1625 803f d15c 823f dc28 7a3f 4017 803f
00000020: d388 7a3f 1429 7d3f f70e 823f 1390 7d3f
00000030: 6706 823f d0cc 7e3f f38b 7d3f fc7e 813f
00000040: fefc 813f 988e 7d3f 409f 7f3f ca1f 803f
00000050: c17a 823f 17e7 7b3f cdca 7b3f 5222 823f
00000060: 7921 813f 0a75 7b3f 8364 7d3f 3a75 7f3f
00000070: 00b5 7c3f c411 7f3f 59f1 7c3f fb4b 7a3f

post_net.1.bias f4 [32]
-0.011433379 -0.006611834 -0.023725923 -0.012511432 -0.0066834274 0.02185099 -0.018942587 0.006021087
-0.023299653 -0.01405758 0.016538678 -0.010260413 0.018600106 0.0019179379 -0.013028243 0.01810735
0.020294609 -0.012616885 -0.007172716 0.009801043 0.021676257 -0.017971791 -0.010003985 0.0196913
0.01657007 -0.01884698 -0.013411553 0.0068005943 -0.022163453 0.0049092136 -0.009639922 -0.017145084
00000000: 1153 3bbc 15a8 d8bb de5c c2bc c0fc 4cbc
00000010: a700 dbbb d900 b33c 7c2d 9bbc 8a4c c53b
00000020: eade bebc c451 66bc 1f7c 873c 4b1b 28bc
00000030: 405f 983c 5163 fb3a 6974 55bc de55 943c
00000040: e140 a63c 0db7 4ebc 1a09 ebbb 8e94 203c
00000050: 6892 b13c 9439 93bc c1e7 23bc a64f a13c
00000060: f5bd 873c fb64 9abc 21bc 5bbc 85d7 de3b
00000070: 2190 b5bc 78dd a03b c3f0 1dbc d973 8cbc
