models/hybrid_qnn_model.pt (torch, 3549 bytes, 3 tensors)

q_weights f4 [2, 8]
-0.6532388 -2.1782157 -0.20386414 -0.58130944 -0.830827 1.3393823 -0.8188252 -0.52380395
-0.6366391 0.62994844 0.68491954 0.88803256 0.72524214 1.1416298 1.631053 -1.622182
00000000: a83a 27bf e367 0bc0 c3c1 50be b2d0 14bf
00000010: 14b1 54bf e170 ab3f 879e 51bf 0418 06bf
00000020: c8fa 22bf 4d44 213f e356 2f3f 1a56 633f
00000030: 78a9 393f ed20 923f 58c6 d03f a9a3 cfbf

pre_net.weight f4 [8, 32]
0.12404083 0.0081998585 -0.1036541 -0.14377238 0.0537323 -0.06267439 0.14887501 0.072771505
0.0756866 0.04017682 -0.07254425 -0.049957585 0.10246057 0.009983893 0.123032086 -0.06978302
-0.11103655 0.07983928 -0.093551986 0.11825775 0.036728512 -0.011840904 0.13615572 0.09130874
-0.17660768 0.09186917 0.098611124 0.03062919 0.11657453 0.057236537 0.11432971 -0.0035303675
-0.09082028 0.15842932 -0.14150572 0.1591973 0.14732428 -0.07371431 -0.14593272 -0.108059056
-0.13729666 0.089428864 -0.008594354 0.070635185 0.1470445 0.1440351 0.11727196 0.035360616
0.10401863 0.0962512 -0.15629523 0.11894439 -0.041153364 0.014973869 0.035871036 0.0044783135
0.10383875 0.1664696 0.065736756 0.014466337 0.11336585 -0.11312726 -0.045855075 -0.17355365
0.13090986 0.14849715 0.052754767 0.07047846 0.10026419 -0.034630146 0.09895112 -0.11763615
0.0036312249 -0.029712643 0.12428347 -0.015360841 -0.08278433 -0.042388476 -0.035380907 -0.10092784
0.12033692 -0.014116581 0.00052087184 -0.014587488 -0.06883301 0.006005968 -0.121053204 -0.11253653
0.09738006 0.13136758 -0.06287707 -0.039325602 -0.029528776 0.08766024 -0.062705405 -0.06327582
0.05238813 0.15209815 -0.061551426 0.14798138 -0.16179399 -0.1418657 0.0034459895 0.13294205
-0.016104879 -0.1228204 0.13932228 0.1296989 0.17085332 -0.041446347 -0.15654372 -0.1623764
0.04386334 0.16686192 -0.12819408 0.12718086 -0.04773177 -0.10199194 -0.1487898 -0.111075744
-0.091137566 -0.06476626 0.023568138 -0.040302586 0.10885032 -0.12568823 0.083739504 -0.08859571
0.11843395 -0.06388063 -0.055109467 -0.09714498 0.06286866 0.17032169 -0.03693798 -0.022159906
0.06504559 0.051695805 -0.09664114 0.0038446356 -0.07564459 0.14791006 -0.09525036 0.044182163
-0.07674779 0.11841971 -0.087566316 -0.15882172 0.011517026 0.16973217 0.15674725 0.15497118
0.021586372 -0.07826962 -0.16465357 -0.029683162 -0.054827526 -0.034063607 0.035149626 -0.0075161527
-0.09288245 -0.078042224 -0.12592553 0.16635738 -0.052674897 -0.14331341 -0.15366837 -0.0850728
-0.15852979 -0.0754971 0.17131594 -0.009340816 0.13764133 -0.1042209 -0.122680984 -0.10284415
0.029420776 -0.09140846 0.057659417 0.09384143 0.04473698 -0.13204853 -0.019726157 -0.05098247
0.03945244 0.008467302 -0.032500256 -0.153458 0.15052608 -0.06916028 -0.16162553 0.1739516
-0.117778376 0.050771043 0.15433793 0.04050485 0.10468008 0.16719438 0.013318193 0.13118444
0.029763281 0.15329038 0.105058454 0.11288456 0.05448517 -0.048042413 -0.14785585 0.15812299
-0.06446263 0.14751561 0.17101645 -0.0582661 -0.16787958 -0.071683 -0.022452932 -0.16829132
0.11171249 -0.13563326 -0.007444798 0.17280659 -0.070957676 0.15977988 -0.007240807 0.03351016
0.15728946 -0.05020111 -0.149519 0.14395894 0.06949436 0.009320144 0.14307989 0.092573784
-0.1079911 -0.06599229 0.14587277 -0.14042571 -0.17090262 -0.08390614 -0.109286524 -0.109617695
0.016660186 0.022586264 0.023948135 0.115580544 -0.10732929 -0.13871229 -0.14791085 -0.027478902
0.1669863 -0.11970815 0.08554866 0.13161728 0.0012431846 0.014797611 0.11216566 0.13022946
00000000: 1e09 fe3d b358 063c 9a48 d4bd 1139 13be
00000010: 6616 5c3d 6e5b 80bd b172 183e 3a09 953d
00000020: 9301 9b3d 7390 243d 1492 94bd 53a0 4cbd
00000030: d9d6 d13d 7b93 233c 3ff8 fb3d 66ea 8ebd
00000040: 2167 e3bd c782 a33d 2f98 bfbd 1f31 f23d
00000050: a370 163d 5a00 42bc 686c 0b3e 1400 bb3d
00000060: a5d8 34be e725 bc3d a1f4 c93d 11ea fa3c
00000070: a1be ee3d dc70 6a3d b225 ea3d bd5d 67bb
00000080: fcff b9bd 4c3b 223e e0e6 10be 9e04 233e
00000090: 2ddc 163e 87f7 96bd 636f 15be 114e ddbd
000000a0: 7f97 0cbe 7b26 b73d 55cf 0cbc 2ea9 903d
000000b0: d592 163e f07d 133e 482c f03d 4bd6 103d
000000c0: b807 d53d 591f c53d db0b 20be 1e99 f33d
000000d0: 6e90 28bd f554 753c 82ed 123d d1be 923b
000000e0: 69a9 d43d 0277 2a3e fea0 863d 3704 6d3c
000000f0: 5b2c e83d 44af e7bd 88d2 3bbd 0cb8 31be
00000100: 3c0d 063e a30f 183e 6215 583d 0357 903d
00000110: 5057 cd3d 57d8 0dbd e3a6 ca3d 39eb f0bd
00000120: d8f9 6d3b ee67 f3bc 5588 fe3d 09ac 7bbc
00000130: d58a a9bd 8a9f 2dbd 92eb 10bd 41b3 cebd
00000140: 3473 f63d 3b49 67bc 1e8b 083a 5c00 6fbc
00000150: 52f8 8cbd b6cd c43b beea f7bd 8d79 e6bd
00000160: 326f c73d 3985 063e b1c5 80bd e213 21bd
00000170: 55e6 f1bc 3687 b33d b16b 80bd c196 81bd
00000180: f094 563d 9ebf 1b3e 591d 7cbd 6e88 173e
00000190: 53ad 25be 3e45 11be 1cd6 613b f621 083e
000001a0: 61ee 83bc 4389 fbbd 80aa 0e3e cacf 043e
000001b0: 2cf4 2e3e a5c3 29bd ff4c 20be 0046 26be
000001c0: 0caa 333d dadd 2a3e 4f45 03be b33b 023e
000001d0: 6382 43bd 26e1 d0bd 5a5c 18be ae7b e3bd
000001e0: 55a6 babd 2ca4 84bd f811 c13c 5314 25bd
000001f0: ebec de3d 6ab4 00be 9e7f ab3d ab71 b5bd
00000200: 808d f23d d9d3 82bd 77ba 61bd f3f3 c6bd
00000210: 49c1 803d cf68 2e3e 484c 17bd b188 b5bc
00000220: 9f36 853d fbbe 533d caeb c5bd 48f6 7b3b
00000230: 8deb 9abd bc75 173e 9f12 c3bd 5bf8 343d
00000240: f22d 9dbd 0886 f23d f855 b3bd 29a2 22be
00000250: e9b1 3c3c 45ce 2d3e 5a82 203e c4b0 1e3e
00000260: e7d5 b03c d34b a0bd f29a 28be 1a2a f3bc
00000270: d492 60bd 4886 0bbd 0ef9 0f3d 0f4a f6bb
00000280: 2739 bebd 9ad4 9fbd 9ff2 00be 9759 2a3e
00000290: a2c1 57bd c0c0 12be 3e5b 1dbe a63a aebd
000002a0: a255 22be 399e 9abd 726d 2f3e 390a 19bc
000002b0: d9f1 0c3e c471 d5bd 2b40 fbbd f49f d2bd
000002c0: d703 f13c 5c34 bbbd 482c 6c3d f02f c03d
000002d0: 203e 373d bb37 07be c098 a1bc ffd2 50bd
000002e0: e298 213d 70ba 0a3c fd1e 05bd 1824 1dbe
000002f0: 8223 1a3e e8a3 8dbd 2a81 25be 5e20 323e
00000300: ca35 f1bd 4cf5 4f3d c30a 1e3e 6ae8 253d
00000310: 8362 d63d 0135 2b3e 8d34 5a3c 3755 063e
00000320: 20d2 f33c 27f8 1c3e e328 d73d 0530 e73d
00000330: d72b 5f3d 1fc8 44bd 8667 17be feea 213e
00000340: fc04 84bd 550e 173e f01e 2f3e 6fa8 6ebd
00000350: a0e8 2bbe 89ce 92bd 36ef b7bc 8f54 2cbe
00000360: 85c9 e43d 72e3 0abe 7ef3 f3bb 36f4 303e
00000370: 4252 91bd 569d 233e 4b44 edbb f341 093d
00000380: 7d10 213e ae9f 4dbd 821b 19be f969 133e
00000390: 0f53 8e3d 84b3 183c 8983 123e 5397 bd3d
000003a0: 702a ddbd f726 87bd ac5f 153e c2cb 0fbe
000003b0: 1901 2fbe fbd6 abbd 9dd1 dfbd 3e7f e0bd
000003c0: f17a 883c d406 b93c e12e c43c 7eb5 ec3d
000003d0: 75cf dbbd 980a 0ebe f175 17be 6f1b e1bc
000003e0: 75fe 2a3e 8c29 f5bd 2334 af3d aec6 063e
000003f0: 5af2 a23a ae71 723c 1cb7 e53d df5a 053e

pre_net.bias f4 [8]
-0.15678233 0.13301885 -0.07417038 0.05051837 -0.08037284 -0.094534665 -0.117916726 -0.069152966
00000000: 8c8b 20be 1836 083e a4e6 97bd 5aec 4e3d
00000010: 849a a4bd 649b c1bd 537e f1bd 12a0 8dbd
